model.pth (torch, 978110 bytes, 16 tensors)

layer1.weight f4 [200, 6]
0	0xbeb03221	-0.34413245
1	0xbec4158c	-0.3829769
2	0xbed01e06	-0.40647906
3	0x3e9fd51b	0.31217274
4	0xbce0d54c	-0.027445458
5	0x3e8eed67	0.279155
6	0x3e9df482	0.30850607
7	0x3e89a401	0.26882938
8	0x3ef71f2a	0.48265964
9	0x40917cdd	4.546492
10	0x3f07edab	0.5309703
11	0xbfe5e63d	-1.7960888
12	0x3e829e8e	0.25511593
13	0x3e198398	0.14991605
14	0xc0184578	-2.37924
15	0x41003372	8.01256
16	0xbedcf89d	-0.43158427
17	0x40459e4d	3.087787
18	0xbe8635b6	-0.26212853
19	0x3e319408	0.17341626
20	0x3daeca01	0.08534623
21	0xbe916981	-0.28400806
22	0xbea46da9	-0.32114914
23	0x3e6b988d	0.23007412
24	0xbe633432	-0.2218788
25	0x3e6af098	0.22943342
26	0xbe8595b7	-0.26090786
27	0xbe3d3b65	-0.18479688
28	0xbec7f6a0	-0.39055347
29	0x3e8b5786	0.27215213
30	0xbf3b1b2d	-0.7308834
31	0x3e39a0b3	0.18127708
32	0xbfa68b66	-1.3011291
33	0xbf69424e	-0.911168
34	0x3eafae36	0.343126
35	0xbcb76115	-0.02238516
36	0xbf126884	-0.5719073
37	0xbea65b0e	-0.32491344
38	0xbf1d3f3b	-0.6142461
39	0x3ee7510f	0.4517903
40	0x3ea869e9	0.32893303
41	0x403609b1	2.8443415
42	0x3e0e2f5e	0.13885257
43	0x3ea4fb08	0.32222772
44	0xc0109b87	-2.2594926
45	0x40fc2fb8	7.880825
46	0x3cf0dfa1	0.02940351
47	0x40433f6d	3.0507462
48	0xbf2646ea	-0.64951956
49	0x3eb26498	0.34842372
50	0xbfaa4f53	-1.3305458
51	0x3f0b64e3	0.54450816
52	0x3dcc8ae2	0.09987427
53	0x3e6b11c6	0.22955999
54	0xbe45e71e	-0.19326445
55	0xbeb7d41c	-0.35904014
56	0x3ebcf2b5	0.3690392
57	0x3ea924c4	0.33035862
58	0xbe8daabb	-0.2766932
59	0x3db2c975	0.08729831
60	0x3d737fe9	0.059448157
61	0x3d6f136a	0.058368124
62	0x3ec89ea8	0.39183545
63	0xc09d9480	-4.9243774
64	0xbc2015d8	-0.009770833
65	0xc080c2f4	-4.023798
66	0x3dc12d17	0.09432428
67	0xbf0af5c5	-0.54281265
68	0xbf0c9b69	-0.5492464
69	0xc01e3850	-2.472187
70	0x3e4750a4	0.19464356
71	0xc004db3f	-2.0758817
72	0x3e9685f5	0.29399076
73	0xbed52dd1	-0.41636518
74	0x3fce8dcb	1.6137022
75	0xc10754cd	-8.458203
76	0x3eab93c8	0.33511186
77	0xc0414931	-3.0200922
78	0x3dbec053	0.09314027
79	0xbf729f28	-0.94774103
80	0xc0c87fef	-6.265617
81	0xbeb9a704	-0.36260235
82	0xbf49037a	-0.7852093
83	0xbee6f68d	-0.45109978
84	0xbe33a06c	-0.17541665
85	0x3eac4d56	0.33652753
86	0x4172498f	15.142959
87	0x4096b960	4.710129
88	0x3efd6009	0.49487332
89	0xbf4855c1	-0.7825585
90	0x3c410e34	0.011783171
91	0xbe3366c5	-0.17519672
92	0x40495d99	3.1463377
93	0x3d5835df	0.05278575
94	0x3f0dad42	0.55342495
95	0x4013b54c	2.3079405
96	0x3e53bb36	0.20676884
97	0x3e91b562	0.28458697
98	0xc0c9bc07	-6.3042026
99	0xc1044105	-8.265874
100	0xbe6c1d22	-0.23057988
101	0xbec6a87d	-0.3880042
102	0xbe0ea1f6	-0.1392897
103	0xc064faa4	-3.577798
104	0x4014e1b5	2.326276
105	0xbf613c87	-0.8798298
106	0xc05b4336	-3.4259772
107	0x3ed7aaa9	0.4212239
108	0xbea0d6a3	-0.31413755
109	0x3eb6dd31	0.3571563
110	0xbd81353f	-0.06308984
111	0x3d877fb6	0.06616156
112	0x3ca47d08	0.02007915
113	0xc0020d97	-2.0320795
114	0x3e62a4d0	0.22133183
115	0x3dc4bb99	0.09606094
116	0xbec6d1f6	-0.38832062
117	0x417611c1	15.379334
118	0xbefb1b43	-0.49044237
119	0x3ff15d60	1.8856621
120	0xbca3feae	-0.020018902
121	0xbe6f3af7	-0.23362337
122	0x40de2673	6.9421935
123	0x41359bc7	11.350532
124	0x3ee0ff44	0.43944752
125	0xbffdc4ae	-1.9825647
126	0x3e67c446	0.22633466
127	0xbf107c27	-0.5643944
128	0x402422ed	2.5646317
129	0x401426a8	2.3148594
130	0xbe664ee4	-0.22491032
131	0x3fc7a17f	1.559616
132	0xbe343250	-0.17597318
133	0x3da6bb75	0.08141223
134	0x3de9b540	0.11411524
135	0xbe24e4b9	-0.16102876
136	0xbead1cd5	-0.3381106
137	0x3dec3bf0	0.1153487
138	0x3cc7ea8a	0.02440383
139	0xbf3159dd	-0.69277745
140	0x3e0834f3	0.13301449
141	0x3f9beb99	1.2181274
142	0x3d7aa8ab	0.06119601
143	0x401f6439	2.490492
144	0xbd933137	-0.07187121
145	0x3eb913fc	0.3614806
146	0x3cd947d5	0.02652351
147	0x380ee30c	3.4066892e-05
148	0xbe92f209	-0.28700283
149	0xbda11b50	-0.078665376
150	0x3c479f99	0.012184047
151	0xbe33c5d2	-0.17555931
152	0x3df23a79	0.11827559
153	0x408bf364	4.373461
154	0x3d14f7b2	0.036369033
155	0x401821f9	2.3770735
156	0xbe73aa5d	-0.23795457
157	0x3f0ea8c6	0.5572628
158	0xbfcfe829	-1.6242725
159	0xbaa0fab3	-0.0012281745
160	0x3eedc9d4	0.46443045
161	0xc012376a	-2.2846322
162	0x3e9a3fc4	0.30126774
163	0xbee7b155	-0.4525248
164	0x40434138	3.0508556
165	0xc0127994	-2.2886705
166	0x3dd6d85c	0.10490486
167	0x40064c2a	2.0983987
168	0xbe825da4	-0.25462067
169	0xbe92c58e	-0.28666347
170	0xbcde7b7c	-0.027158491
171	0xbfcf7cf1	-1.6210004
172	0x3eb6063b	0.35551628
173	0xc01c2b56	-2.440145
174	0x3cb12a2d	0.021626556
175	0xbe02c324	-0.12769753
176	0x3f8b562b	1.0885671
177	0x411c0d66	9.753271
178	0x3e822467	0.25418398
179	0x40298276	2.6485877
180	0x3e284a26	0.16434535
181	0xbe89eed3	-0.2694002
182	0xc0ee5936	-7.44839
183	0xc0edbc60	-7.429245
184	0xbd375687	-0.044760253
185	0xbf0f8729	-0.56065613
186	0xbdb32b9b	-0.087485515
187	0x3d0efd44	0.0349095
188	0xc027a64e	-2.6195254
189	0x3f916a33	1.1360534
190	0x3d60be8a	0.054869212
191	0xc0920fe9	-4.564442
192	0x3c18eff7	0.009334556
193	0x3ea7926c	0.327289
194	0x3eb4431e	0.35207456
195	0xbfb3a536	-1.4034793
196	0x3e501b9e	0.20323035
197	0xc109ace0	-8.604706
198	0x3e9463cc	0.2898239
199	0x3e56e892	0.20987156
200	0xbfb9d138	-1.4516973
201	0xc12ccb33	-10.799609
202	0xbd030b24	-0.031993046
203	0xbfc9a4f8	-1.575347
204	0x3dcdfdba	0.1005816
205	0xbeecd4a7	-0.4625599
206	0xc03b0f4d	-2.922809
207	0x40b81c7f	5.7534785
208	0xbce24fb6	-0.0276259
209	0xbf935b09	-1.1512157
210	0x3e0c8b62	0.13725045
211	0x3e0459ba	0.12924853
212	0xc0457501	-3.0852664
213	0x40ddafd7	6.927715
214	0xbd39de60	-0.04537809
215	0x4024eeca	2.5770745
216	0x3e058e3f	0.13042544
217	0xbec5d26a	-0.38637096
218	0x3ee197ac	0.4406103
219	0x4099ec7c	4.8101177
220	0xbf233362	-0.6375028
221	0x40056495	2.084264
222	0xbe0991a4	-0.13434464
223	0x3e1a3749	0.15060152
224	0xbed58ba5	-0.41708103
225	0x3d38a63e	0.045080416
226	0xbed3df44	-0.41381276
227	0x3ea1b9d9	0.31587103
228	0xbd959423	-0.073036455
229	0xc0809f8f	-4.0194774
230	0xc04e63bd	-3.2248375
231	0x400f8b7d	2.2428887
232	0xc00244f7	-2.0354593
233	0x3ee843fd	0.4536437
234	0x3e0b3d3c	0.13597578
235	0x3f09d929	0.53846985
236	0xbf9e4c2e	-1.2366998
237	0xc0fab6dc	-7.8348217
238	0x3e304f68	0.17217791
239	0xbfd62a02	-1.673157
240	0xbc34b911	-0.011030451
241	0x3f0ec486	0.5576862
242	0xc1c63d56	-24.77995
243	0xc0695791	-3.6459696
244	0x3eaae6cf	0.33379218
245	0x3d987bee	0.07445513
246	0xbe876238	-0.26442122
247	0x3e909213	0.28236446
248	0xbfb7500d	-1.4321305
249	0xc0374120	-2.86335
250	0x3dceb1c7	0.10092502
251	0x4015a5e6	2.3382506
252	0x3ba0639d	0.0048946873
253	0xc0cfdacd	-6.495459
254	0xbff673e7	-1.925412
255	0xc18273b1	-16.30649

layer1.bias f4 [200]
0	0x3c86a9b6	0.016438346
1	0x410221f8	8.133293
2	0xc218eb1a	-38.22959
3	0xbec54364	-0.38527977
4	0xbe7e28b4	-0.24820215
5	0xbf0bb589	-0.54573876
6	0xc0e9afa5	-7.302691
7	0xc209afe0	-34.421753
8	0x3e0f7cd6	0.14012465
9	0xbd0f25bf	-0.034948107
10	0xc117b1b9	-9.480889
11	0xc1a0dcc7	-20.107801
12	0x42147502	37.114265
13	0xc2681adf	-58.02624
14	0x41049a86	8.287725
15	0x4241b0fd	48.42284
16	0xc16185d6	-14.095175
17	0xc0765822	-3.8491292
18	0x3e70aefd	0.23504253
19	0xc1c9dc6f	-25.232634
20	0x4187d9c7	16.981337
21	0x42014e3e	32.32641
22	0xbd417769	-0.04723302
23	0x41bc7281	23.55591
24	0x3e1ba7d1	0.15200736
25	0x414b3637	12.700736
26	0x3f3a4577	0.72762245
27	0x425f7030	55.85956
28	0xbf4d0c78	-0.8009715
29	0x3f5563ed	0.833556
30	0xc1abbbb7	-21.466658
31	0xbe861765	-0.26189724
32	0xc133737d	-11.215695
33	0x41fa3081	31.273684
34	0xc254b6a0	-53.178345
35	0xc206591c	-33.58702
36	0xc0f06e48	-7.513462
37	0xbe8cfe6d	-0.2753786
38	0x40dda8f4	6.926874
39	0x418cd50e	17.60403
40	0xc1b70b4f	-22.880522
41	0x3f9b3376	1.212508
42	0x41ec7181	29.555422
43	0xbfa8be52	-1.3183081
44	0x4179a4c1	15.602723
45	0x3c762c79	0.015025252
46	0x3dd319ec	0.103076786
47	0xc21a10b7	-38.516323
48	0x424af4c4	50.73903
49	0xc244e905	-49.22756
50	0xc1e46334	-28.548439
51	0xc1e5bfa3	-28.718573
52	0x422d7bfb	43.371075
53	0x407663c3	3.849839
54	0xc1ec2332	-29.517185
55	0x3e1e17f8	0.15438831
56	0x41facc2b	31.349691
57	0x402cb077	2.6982706
58	0xbea2d4b4	-0.31802905
59	0x41d1b854	26.215004
60	0xc21abeca	-38.686317
61	0x3daa6e98	0.08321875
62	0x3fd5efd5	1.6713816
63	0xc1ec7d6d	-29.561243
64	0x3e887002	0.26647955
65	0x407778a6	3.8667388
66	0xbf7976ea	-0.97447073
67	0x417c690b	15.775645
68	0xc02f6d0d	-2.741031
69	0xc1bc6036	-23.546978
70	0x41a30d84	20.3816
71	0xc1c1becf	-24.218168
72	0x423ad43e	46.707268
73	0x3ecb2dea	0.39683467
74	0xc21d6cc5	-39.35622
75	0xbeb45b38	-0.35225844
76	0x41ad1376	21.634502
77	0xbec8f560	-0.39249706
78	0x3d6f5bb6	0.05843707
79	0x42220f8e	40.51519
80	0xc1fd89b7	-31.692244
81	0x413de8eb	11.869365
82	0x41f36c1a	30.427784
83	0xc111eb95	-9.120015
84	0x419f95aa	19.948078
85	0xc1feb343	-31.83753
86	0x41d96a7d	27.176996
87	0xc21dd555	-39.458332
88	0x3e201497	0.15632854
89	0xc1ba9a4b	-23.325338
90	0x417257da	15.146448
91	0x41be51f4	23.790016
92	0x3ea85f28	0.32885098
93	0xbe912129	-0.28345612
94	0xc110b9f0	-9.045395
95	0x425de899	55.477146
96	0x3ca683f6	0.020326596
97	0x41656938	14.338188
98	0xc0c297d1	-6.0810323
99	0xc0f7c9f3	-7.743402
100	0xc095fdbe	-4.6872244
101	0x41a0717e	20.055416
102	0x3e505d13	0.20348005
103	0xc1e4f44c	-28.619286
104	0xbe0e842b	-0.13917606
105	0xbe025d06	-0.12730798
106	0x41f5c027	30.718824
107	0x424f86a4	51.881485
108	0xc007d6bc	-2.1224813
109	0xc1b2f56e	-22.369839
110	0x415b7e2f	13.718307
111	0x3e934fe8	0.287719
112	0x423cbae3	47.182507
113	0xc22f89ab	-43.88444
114	0x42557d18	53.37216
115	0x3d7782f2	0.060427614
116	0x424a0e60	50.514038
117	0x42012619	32.287205
118	0x3ea3f7bb	0.3202494
119	0xbe810f60	-0.25207043
120	0x40e73836	7.2256117
121	0x42142aa6	37.04165
122	0x3e82996b	0.25507674
123	0xc2124581	-36.567875
124	0x40cec635	6.461695
125	0xc1ef7de7	-29.936476
126	0xc19a95c6	-19.323132
127	0xc210d4f3	-36.20796
128	0x3e811f39	0.25219133
129	0x420fc091	35.938053
130	0xc24f5c48	-51.84012
131	0xc20effb8	-35.749725
132	0xc20fa127	-35.907375
133	0xc07fcd69	-3.9969122
134	0xc1f45652	-30.542149
135	0xc1a0fd28	-20.123611
136	0xc1e2adf6	-28.334942
137	0x417b66ee	15.712629
138	0x3e5675e2	0.20943406
139	0x41ac20ba	21.51598
140	0xc18a76c2	-17.307987
141	0xc19523fa	-18.642567
142	0xbe74d57f	-0.23909567
143	0xc1cd5d79	-25.67064
144	0xbe9aeb45	-0.3025762
145	0x417a9865	15.662206
146	0x423dbd8e	47.435112
147	0x3b3c0207	0.0028687732
148	0xc0cad25d	-6.338179
149	0xbe553a8d	-0.20823117
150	0x423e878a	47.632362
151	0x3e95a397	0.29226372
152	0xc22c641e	-43.09777
153	0x41fea3e1	31.830019
154	0xbe55f3b7	-0.20893751
155	0xbfbd35df	-1.4782065
156	0x421d3739	39.30393
157	0xbe433db7	-0.19066511
158	0x42137254	36.86165
159	0xc08ec208	-4.4611855
160	0xc070d2a4	-3.7628565
161	0x419f9e78	19.952377
162	0xc134e2f1	-11.305406
163	0x41878d23	16.943914
164	0xc16590f5	-14.34789
165	0x423d2a7a	47.29148
166	0xbdbaa0b0	-0.0911268
167	0xbd6c50a2	-0.057694085
168	0x4236c224	45.68959
169	0x3d855dba	0.065120175
170	0x3d583da7	0.05279317
171	0xc2507244	-52.111588
172	0x3e946a8a	0.28987533
173	0x3fe55f6d	1.7919747
174	0x3ea44710	0.32085466
175	0xc24a11fa	-50.517555
176	0xc112c041	-9.171937
177	0x3f64f98a	0.89443266
178	0x41cffbd9	25.997972
179	0xc1e1dcec	-28.232872
180	0xc1d5444d	-26.65835
181	0x420bef22	34.98353
182	0x3dbb098e	0.09132682
183	0xc19dca4d	-19.72378
184	0xc13d01c8	-11.812935
185	0x3e6b1359	0.229566
186	0x4255524e	53.330376
187	0x3fa9fe4b	1.3280729
188	0x41e58f2e	28.694912
189	0x3f56c8e1	0.83900267
190	0x41e161c0	28.17273
191	0xbffaf81f	-1.960697
192	0x3e824431	0.2544265
193	0xbe092e0e	-0.13396475
194	0xbe8815c9	-0.2657912
195	0xc133809d	-11.2189
196	0xc223934f	-40.893856
197	0xc224407b	-41.06297
198	0x3e638936	0.2222031
199	0xc1a92e67	-21.147657

layer2.weight f4 [200, 200]
0	0xbcc4b1d6	-0.02401058
1	0xbd3bac07	-0.045818355
2	0xbd1bd8ed	-0.038048673
3	0xbd2bb7ac	-0.04192321
4	0xbd4ece18	-0.050489515
5	0xbd335502	-0.04378224
6	0x3ced6525	0.028978894
7	0xbbed20c1	-0.0072365706
8	0x3d63dc73	0.05563016
9	0x3d8b84bd	0.06812427
10	0x3d22d614	0.039754942
11	0xbccfb89c	-0.025356583
12	0x3cc13c22	0.023588244
13	0xbd7b582b	-0.06136338
14	0xbd0090d3	-0.031388115
15	0xbd424299	-0.047426794
16	0x3d2eaade	0.04264342
17	0xbd642432	-0.05569858
18	0xbab0ebe3	-0.0013498034
19	0xbd77b5ca	-0.060476102
20	0xbd80022d	-0.06250415
21	0xbca8ca67	-0.020604325
22	0x3d430a63	0.047617327
23	0xbb996218	-0.004680883
24	0xbd0ffeb0	-0.035155
25	0x3d4161ff	0.047212597
26	0x3d21a993	0.03946836
27	0x3d83c3b9	0.064338155
28	0xbd01c0c9	-0.031677995
29	0xbd26a020	-0.04068005
30	0xbd7694ea	-0.06020061
31	0xbcdd838b	-0.027040264
32	0x3d3a906d	0.04554789
33	0x3d59420b	0.0530415
34	0x3d5292cb	0.051409524
35	0x3d4a6901	0.049416546
36	0x3d4e484f	0.050361928
37	0xbd2da712	-0.04239566
38	0x3d08b65e	0.033377044
39	0xbb9bbfa7	-0.0047530713
40	0x3b874b06	0.0041288165
41	0x3ce26384	0.027635343
42	0xbcc47ea4	-0.023986168
43	0x3d6de528	0.05807987
44	0xbca0fde1	-0.019652309
45	0x3cce0e93	0.025153434
46	0x3b0d2fc4	0.0021543363
47	0x3d3193e8	0.043353945
48	0x3c35d596	0.011098286
49	0x3c567422	0.013089212
50	0xbd54efbd	-0.051986445
51	0x3b08b93f	0.0020862368
52	0xbd16aae5	-0.03678407
53	0xbd82cec4	-0.06387094
54	0xbd3243fa	-0.04352186
55	0xbd0d009a	-0.0344244
56	0xbd89ae70	-0.067227244
57	0xbd4c9f1c	-0.049956426
58	0x3bd39ca8	0.006457884
59	0x3d511fec	0.051055834
60	0x3c46d432	0.012135552
61	0x3ccb38e4	0.024807401
62	0x3ce8c02b	0.028411945
63	0xbba4d50b	-0.0050302795
64	0xbbe6e4c1	-0.0070463126
65	0xbb3eaf4b	-0.0029096182
66	0xbcfad18f	-0.030617503
67	0x3cd548a2	0.02603561
68	0x3d848900	0.06471443
69	0xbce0a79d	-0.027423674
70	0xbcba1e89	-0.022719638
71	0x3c88ba33	0.01669035
72	0x3bc4b033	0.00600245
73	0xbd3b1c19	-0.045681093
74	0xbc646f4a	-0.013942549
75	0xbd84d8c1	-0.06486655
76	0x3d3af7fa	0.045646645
77	0xbc97c980	-0.0185287
78	0xbd1baac3	-0.038004648
79	0x3b916208	0.004436735
80	0x3d5f3f9b	0.05450402
81	0xbd60e231	-0.054903213
82	0x3d09b4e6	0.033619784
83	0x3c5e28f4	0.013559569
84	0x3d8de287	0.06927972
85	0x3c627644	0.013822142
86	0x3c95ae8b	0.018271705
87	0xbd1b47ac	-0.03791015
88	0xbd3c2383	-0.045932304
89	0x3c9d6567	0.019213391
90	0xbd17d891	-0.03707177
91	0x3d78b18b	0.060716193
92	0xbb8ad9e8	-0.004237402
93	0x3c3bc011	0.011459366
94	0x3c50a305	0.012734179
95	0xbd13dd9b	-0.03610001
96	0xbcb52540	-0.022112489
97	0x3d2cb2f9	0.04216287
98	0x3c8f08bb	0.017460218
99	0x3d691cff	0.05691242
100	0x3cfbc516	0.030733626
101	0x3d6cf14b	0.057847302
102	0xbcc9eb42	-0.024648312
103	0x3d8a6805	0.067581214
104	0x3d80bc33	0.06285896
105	0x3be3954a	0.006945287
106	0xbcd2f4e0	-0.025751531
107	0x3bb71012	0.0055866325
108	0x3c3b4d8d	0.011432064
109	0xbd805942	-0.062670246
110	0xbd4670b1	-0.048447315
111	0xbc8c9077	-0.01715873
112	0xbb95cfe9	-0.004571904
113	0xbd913b81	-0.070914276
114	0x3c8ea71a	0.017413665
115	0xbcb0bb66	-0.021573734
116	0xbd3978e9	-0.045281325
117	0xbce1a384	-0.02754379
118	0xbd45d86d	-0.048302103
119	0xbd71dbcd	-0.05904751
120	0xbb46f6cb	-0.0030359502
121	0x3d48ad2e	0.048993282
122	0x3d004f0a	0.031325378
123	0x3d7b57b3	0.061362933
124	0xbc7205cc	-0.01477189
125	0xbd905f9a	-0.070494846
126	0xbd0751ef	-0.033037122
127	0xbd0ce915	-0.03440197
128	0xbcf50431	-0.029909225
129	0xbd915368	-0.070959866
130	0xbd88983e	-0.06669663
131	0x3d2d7363	0.04234637
132	0xbc8e1beb	-0.017347297
133	0x3d3ccb6d	0.04609244
134	0xbd539a0d	-0.051660586
135	0xbc241823	-0.01001552
136	0xbc7ae82f	-0.015314146
137	0x3c33ca28	0.010973491
138	0x3cac4258	0.021027729
139	0x3d5c5dce	0.053800397
140	0xbd231180	-0.03981161
141	0x3cefd847	0.029277934
142	0x3d0ebcc5	0.034847993
143	0x3d887801	0.06663514
144	0xbce76cd2	-0.028250132
145	0x3d1d3f51	0.03839046
146	0xbcf57b16	-0.029965919
147	0x3ca25aa4	0.019818611
148	0xbd64603f	-0.05575585
149	0xbcd24e2d	-0.025672043
150	0xbd68cf68	-0.056838423
151	0x3d8c8a22	0.06862284
152	0xbd6af2e8	-0.05736056
153	0x3d7b988a	0.06142477
154	0xbca8108d	-0.020515705
155	0xbd68155d	-0.056661
156	0xbd459e4f	-0.048246678
157	0x3b386e83	0.0028142042
158	0x3c11167e	0.00885546
159	0x3d2f3a4f	0.042780217
160	0xbc12a7cd	-0.00895114
161	0xbcf72dd9	-0.030173229
162	0x3d82e671	0.063916095
163	0x3d8a3109	0.06747634
164	0xbd5d2412	-0.053989477
165	0x3d6d0b36	0.05787202
166	0xbcd59e2c	-0.026076399
167	0xbd44f560	-0.04808557
168	0x3d2b8535	0.041875083
169	0x3ba8eeb9	0.005155411
170	0x3ca6af36	0.020347219
171	0xbb280490	-0.0025637485
172	0x3ca529c1	0.020161511
173	0xbd6c3267	-0.057665255
174	0xbc3e83f3	-0.011628139
175	0xbd528115	-0.051392633
176	0xbd7f843e	-0.062381975
177	0x385c042b	5.245597e-05
178	0x3c9c9bc9	0.019117253
179	0xbd73da6f	-0.059534486
180	0x3d0e7eff	0.03478908
181	0xbd8ad209	-0.06778342
182	0x3cd66e2b	0.026175579
183	0x3cae1cb3	0.02125392
184	0x3ba493e6	0.0050225137
185	0xbc9e418b	-0.019318363
186	0xbbacb4ae	-0.005270562
187	0xbac3edb4	-0.001494816
188	0x3b8333b1	0.004003965
189	0x3c089967	0.008337355
190	0x3d46c415	0.048526842
191	0x3d8531a4	0.06503609
192	0xbd620485	-0.05518009
193	0xbab83fb4	-0.0014057071
194	0xbd573031	-0.052536193
195	0x3bac243b	0.0052533424
196	0xbc0b4efc	-0.008502718
197	0xbbd6e584	-0.006558122
198	0xbc374db2	-0.011187958
199	0xbbf13e8c	-0.0073621925
200	0x3d46fb15	0.048579294
201	0xbd8c19bf	-0.06840848
202	0x3d87db9d	0.06633685
203	0x3d243310	0.04008776
204	0x3d4adb6d	0.049525667
205	0xbddbd211	-0.10733426
206	0x3e47ce04	0.19512182
207	0xbd8b0b26	-0.06789236
208	0xbc8b2177	-0.01698373
209	0xbc7b6c8a	-0.015345702
210	0xbe2730c6	-0.163272
211	0xbcd024a4	-0.025408097
212	0x3d9153d5	0.07096068
213	0x3dad23ac	0.084540695
214	0xbc8bbb45	-0.01705707
215	0xbd11c1ce	-0.035585217
216	0xbc873ce8	-0.016508535
217	0x3e004384	0.12525755
218	0x3d50e492	0.05099923
219	0x3d1f41a6	0.038880967
220	0xbe0e914a	-0.13922611
221	0x3c938ed2	0.018012438
222	0xbd8651c5	-0.06558565
223	0x3dd49555	0.10380045
224	0xbca5921b	-0.02021127
225	0xbce53ff9	-0.027984606
226	0x3eab78b4	0.33490527
227	0x3c828efa	0.015937317
228	0xbf01997b	-0.5062482
229	0x3d2a906d	0.04164164
230	0x3daf53e2	0.08560921
231	0xbe24edd4	-0.16106349
232	0xbe93c2e3	-0.28859624
233	0x3d572b5f	0.052531596
234	0xbd110c2f	-0.03541201
235	0x3d10055c	0.03516136
236	0x3d2b7fba	0.041869856
237	0x3ca3a588	0.019976392
238	0xbf0ea695	-0.55722934
239	0x3d000912	0.03125865
240	0x3c643dc2	0.01393074
241	0xbe95bd66	-0.29246062
242	0x3d172931	0.036904518
243	0xbfc5795c	-1.5427661
244	0xbe403b2e	-0.18772575
245	0x3c88b1b5	0.0166863
246	0xbc516ebf	-0.012782752
247	0x3e2c72fb	0.16840737
248	0x3d7d1695	0.061789114
249	0xbd4a9392	-0.04945714
250	0x3e02b876	0.12765679
251	0x3bee63d8	0.007275086
252	0x3dbd41e2	0.09241082
253	0x3f470949	0.77748543
254	0xbe2da8c8	-0.16958916
255	0x3c83ff22	0.016112868

layer2.bias f4 [200]
0	0x3d55f4b3	0.052235316
1	0xc1895c45	-17.170053
2	0xc1b621a8	-22.766434
3	0x3d8fdb88	0.07024294
4	0xc1f68da7	-30.819166
5	0x42401b5f	48.02673
6	0xc20d709d	-35.359974
7	0x3d1546d4	0.0364445
8	0xc1a59b33	-20.70078
9	0xbd35a95e	-0.044350974
10	0x41d59b90	26.700958
11	0x42458229	49.37711
12	0xc1578e1b	-13.472194
13	0xc1d4bfa2	-26.59357
14	0x3d1f34a1	0.03886855
15	0xc20b9d8e	-34.903862
16	0xbd12cc05	-0.0358391
17	0xc19a44e4	-19.283638
18	0xc10e7ff4	-8.906239
19	0xc052a7e0	-3.2914963
20	0x3c05a1b9	0.0081562335
21	0xbd73c060	-0.059509635
22	0x3d6009e4	0.054696932
23	0xbd6c4ebf	-0.057692286
24	0x41b9397b	23.153067
25	0xbd65d61c	-0.056112394
26	0x422fcf8b	43.95268
27	0xc22f04f5	-43.75484
28	0xc19dbc9b	-19.717093
29	0xbd2a4444	-0.04156901
30	0xc15b732f	-13.715621
31	0x4248ec68	50.230865
32	0x405184f9	3.273741
33	0xc19c825b	-19.56365
34	0x419f4661	19.909365
35	0xc1faf1a1	-31.367983
36	0x3d80c37f	0.06287288
37	0xbb96213c	-0.0045815986
38	0x419ef497	19.869429
39	0xc208b83b	-34.179913
40	0xc11597bc	-9.349545
41	0x41501bc1	13.006776
42	0x423973bc	46.36302
43	0xc20efa3e	-35.744377
44	0xbd69cd76	-0.05708071
45	0x3dc83437	0.09775584
46	0x3c9b20bf	0.018936513
47	0xbc7a0d38	-0.015261941
48	0xc1b8c82b	-23.097738
49	0xc1c3a57b	-24.455801
50	0xc2335a6b	-44.8383
51	0xc1fbd13a	-31.477161
52	0x42218c6c	40.38713
53	0xc1d78f65	-26.945017
54	0xc118848a	-9.532358
55	0x4008b876	2.1362586
56	0x41f9e198	31.235153
57	0x41e66d4d	28.80337
58	0x4219cd92	38.450752
59	0x3d29bfb4	0.041442588
60	0xc1aedf5a	-21.859058
61	0x422e8209	43.626987
62	0x41bb9bae	23.451015
63	0xbb81fb8c	-0.0039667543
64	0xc08d3dab	-4.413778
65	0xc1c79b01	-24.950686
66	0x3d8d7242	0.069065586
67	0x41782979	15.510125
68	0xc221140b	-40.269573
69	0xc207ff8f	-33.99957
70	0x3d2655dd	0.04060923
71	0x3d1cb294	0.038256243
72	0xbc60b34c	-0.013714623
73	0x3ccfa96c	0.025349341
74	0xc1a7ff7c	-20.999748
75	0x3f0ac33c	0.54204154
76	0x3d66e2c6	0.05636861
77	0x423ef626	47.74038
78	0xbd68b1fc	-0.056810364
79	0x423b98ce	46.899223
80	0x3d45aa08	0.048257858
81	0x3bdfb172	0.006826573
82	0x3d8d2e2b	0.068935715
83	0x4248eadc	50.229355
84	0xbd7901b2	-0.060792632
85	0x420f1a35	35.775593
86	0x3c387336	0.011257937
87	0x422cfc9e	43.246696
88	0xbcc4f133	-0.024040794
89	0xc21d1ca6	-39.277977
90	0x4269f25d	58.486683
91	0x3cf452f4	0.029824711
92	0x3c259ae3	0.010107729
93	0xc21a3e04	-38.560562
94	0x42073fec	33.812424
95	0xbd97e821	-0.07417322
96	0x3c930518	0.017946765
97	0xbd158862	-0.036507018
98	0xc18ed648	-17.85463
99	0xbd621d40	-0.055203676
100	0xbd2adb80	-0.041713238
101	0xc21b3ce5	-38.809467
102	0xc219150a	-38.270546
103	0xc21b5e52	-38.84211
104	0xbbc1cab1	-0.0059140553
105	0xbd8d1789	-0.068892546
106	0x41cd7f3a	25.687122
107	0x426419c1	57.02515
108	0x3c94626c	0.018113337
109	0xc105f8a0	-8.373199
110	0x418adee6	17.358837
111	0x3d3b2688	0.045691043
112	0xbd3994ac	-0.0453078
113	0x41006b30	8.026169
114	0xbd9d745d	-0.0768821
115	0x40f70acf	7.7200694
116	0x42308331	44.128117
117	0xc216f4b4	-37.738968
118	0xbc0b5644	-0.008504454
119	0xbcfee5fe	-0.031115528
120	0x412bade2	10.729952
121	0xc05d7f67	-3.460901
122	0xc0e3d7ab	-7.1200767
123	0xc1eb38e0	-29.402771
124	0xc0954810	-4.6650467
125	0xc1f78137	-30.938093
126	0xc1309608	-11.036629
127	0x3b22b243	0.002482549
128	0xc193489f	-18.41046
129	0xc19da604	-19.706062
130	0x422e1954	43.524734
131	0xc02c5260	-2.6925278
132	0xc1698f9a	-14.597559
133	0xbfb4b02c	-1.4116263
134	0x416c8986	14.783575
135	0x3d5d6998	0.05405578
136	0x41b3d286	22.477795
137	0x3d133b51	0.03594524
138	0xbc8ed56a	-0.017435748
139	0x3cb75379	0.02237867
140	0xc1ed3abf	-29.653685
141	0x3d044789	0.032294784
142	0x4261881e	56.382927
143	0xc23b8672	-46.881294
144	0xc22bc9cd	-42.94707
145	0xbf572055	-0.8403371
146	0x3cbc4465	0.022981832
147	0x3d44c7e8	0.048042208
148	0xba89523d	-0.001047678
149	0x40ae0a02	5.4387217
150	0xbd7365c1	-0.059423212
151	0x4265bb73	57.433056
152	0x3c9d0d28	0.019171312
153	0xc191070d	-18.128443
154	0x3c17b30b	0.009258996
155	0xc1eb0074	-29.375221
156	0x3d2678f9	0.040642712
157	0xbd69f0a3	-0.057114255
158	0x3d61a973	0.05509324
159	0xc1b2e286	-22.360607
160	0x419dbf88	19.718521
161	0x4237aceb	45.918865
162	0xbd628c97	-0.05530986
163	0xbc939924	-0.01801736
164	0x42370a02	45.759773
165	0x3d70e62e	0.058813266
166	0xc0f9e396	-7.8090315
167	0xbd883350	-0.06650412
168	0xbd170ed0	-0.03687936
169	0xc1ef1dba	-29.889515
170	0x3bb3892a	0.0054789977
171	0x3f8ffb8c	1.1248641
172	0x3d82f60b	0.06394585
173	0x3c7e356f	0.015515669
174	0x41499ea6	12.601233
175	0x3d3916fc	0.045187935
176	0x3c210f82	0.0098303575
177	0xbd01fb02	-0.03173352
178	0x3c84173a	0.016124357
179	0x39ae2df2	0.00033222098
180	0xc225851e	-41.379997
181	0xbd05e4bb	-0.032688837
182	0x42332645	44.787373
183	0x41111a16	9.068869
184	0xc0d56d22	-6.669572
185	0x410e7465	8.903417
186	0x423355bf	44.833736
187	0xbd32bfe4	-0.043640032
188	0x3c9587b8	0.018253192
189	0x3ca8fcc2	0.020628337
190	0x41ab0b90	21.380646
191	0x421fb2ae	39.92449
192	0xbb0ee7b0	-0.0021805577
193	0x3d5b3b25	0.0535232
194	0x3ca78e46	0.020453583
195	0xc216473d	-37.56957
196	0x4137c132	11.484667
197	0xc1aaa02e	-21.328213
198	0x422d769c	43.36583
199	0xc225a5a0	-41.411743

layer3.weight f4 [200, 200]
0	0x3d476319	0.04867849
1	0xbb06a1c4	-0.0020543197
2	0xbc9c4fd7	-0.01908104
3	0x3cfa5f81	0.030563118
4	0xbce56a08	-0.028004661
5	0xbbe5706b	-0.0070019267
6	0xbd58ab9d	-0.05289804
7	0x3cec4947	0.028843535
8	0x3ccd4dcd	0.025061512
9	0xbc6e9f3e	-0.0145643335
10	0x3d2021b1	0.03909463
11	0x3d5f3717	0.054495897
12	0xbd8575bc	-0.06516597
13	0x3d821b94	0.06352916
14	0xbd819155	-0.06326548
15	0xbd9a7c4c	-0.07543239
16	0x3d4f7d02	0.050656326
17	0xbd569052	-0.05238373
18	0x3cded52a	0.027201254
19	0x3d757748	0.05992821
20	0xbc360bad	-0.011111182
21	0x3cc8a896	0.02449445
22	0x3ba587c8	0.005051587
23	0xbd800c7d	-0.06252382
24	0x3d563193	0.05229337
25	0x3d8e72f9	0.06955523
26	0xbd3f1ebb	-0.046660166
27	0x3c687066	0.014186954
28	0xbd6e3bd9	-0.058162544
29	0xbd596f61	-0.053084735
30	0xbca08829	-0.019596176
31	0xbd97e402	-0.07416536
32	0xbd13453b	-0.035954695
33	0x3c327346	0.010891741
34	0xbc73d951	-0.014883355
35	0xbd60932e	-0.05482786
36	0x3c645c96	0.01393809
37	0x3d5ccf05	0.053908367
38	0xbbb10271	-0.0054019024
39	0x3d420fe6	0.047378443
40	0xbca8983e	-0.020580407
41	0xbb37e366	-0.0028059124
42	0xbd083c35	-0.033260543
43	0x3d8018e4	0.062547475
44	0x3b215938	0.002461983
45	0x3cd538ec	0.026028119
46	0xbd7998be	-0.060936682
47	0xba7ac16b	-0.00095655647
48	0xbd985305	-0.0743771
49	0x3b3b42e7	0.0028573812
50	0xbd3989ec	-0.04529755
51	0x3c9909ce	0.018681433
52	0x3d88cffe	0.06680296
53	0x3c166064	0.009178255
54	0x3c1d1ed9	0.009589874
55	0x3d588f4d	0.052871037
56	0xbd48d0da	-0.0490273
57	0xbccb5353	-0.024820006
58	0x3d4bec7e	0.049786083
59	0xbd3c6fd6	-0.046005093
60	0xbd6ea9d4	-0.05826743
61	0xbd147f24	-0.036254063
62	0xbd573d21	-0.05254853
63	0xbcc2f9c9	-0.023800747
64	0xbce3a474	-0.027788378
65	0x3bf24a6d	0.007394126
66	0xbd5c9f53	-0.05386288
67	0xbcc45d02	-0.02397013
68	0xbd13d34f	-0.03609019
69	0x3c48fce3	0.012267324
70	0x3d83e568	0.0644024
71	0xbc4d8a27	-0.012545145
72	0xbd36bc15	-0.044612963
73	0xbd48a0b0	-0.04898137
74	0x3cfe4f5f	0.031043706
75	0xbc718181	-0.014740349
76	0x3c840333	0.016114807
77	0x3d534dc5	0.05158784
78	0x3d64155b	0.05568443
79	0xb8fe7334	-0.00012133122
80	0xbcc512a4	-0.02405674
81	0xbd48bbfd	-0.049007405
82	0xbd72bd77	-0.05926272
83	0xbd28f8e5	-0.04125299
84	0xbd43af73	-0.047774743
85	0x3ce88b6d	0.028386796
86	0x3d8cf594	0.06882778
87	0xbd40d0a3	-0.04707397
88	0x3c5b5da5	0.013389026
89	0xbd7e9b35	-0.062159736
90	0xbc8937d4	-0.016750254
91	0xbd2489be	-0.040170424
92	0x3d886e56	0.0666167
93	0xbd1cf5c2	-0.03832031
94	0x3d3af203	0.045640957
95	0xbd8695a6	-0.06571512
96	0xbb15a89a	-0.002283609
97	0xbc8e217d	-0.017349953
98	0x3c61218f	0.013740911
99	0x3c866d8c	0.016409658
100	0x3cc7af51	0.02437559
101	0xbd88e687	-0.066845946
102	0x3d7c7e49	0.061643872
103	0xbb836e56	-0.004010956
104	0xbcbee49d	-0.02330237
105	0xbd0f48e0	-0.03498161
106	0x3ca059f7	0.019574149
107	0xbd8afdf1	-0.06786717
108	0x3d0521af	0.032502826
109	0xbd646205	-0.05575754
110	0x3d0ccd6b	0.03437559
111	0x3d6ff69d	0.058584798
112	0x3c26e557	0.010186515
113	0x3d1a6664	0.037695304
114	0x3d67e15a	0.056611396
115	0x3cab3e98	0.02090387
116	0xbd9659b7	-0.073413305
117	0x3d5ac546	0.05341079
118	0x3d5b563b	0.053549033
119	0xbc89a79f	-0.01680356
120	0x3d21c249	0.039491925
121	0xbcecd905	-0.028912077
122	0x3d070adb	0.032969337
123	0x3d4ae1f5	0.049531896
124	0x3cd772ce	0.02629986
125	0xbd303014	-0.0430146
126	0x3d4226e7	0.04740038
127	0xbd557629	-0.05211464
128	0xbcd63595	-0.026148597
129	0xbd8e0252	-0.06934036
130	0x3c89f73d	0.016841525
131	0x3cbb3ccf	0.022856144
132	0xbd31a129	-0.043366585
133	0xbd0b46b7	-0.034002986
134	0x3cf9679e	0.030444916
135	0x3ca9f9d1	0.020749005
136	0xbc33c32f	-0.010971828
137	0xbca99f65	-0.020705888
138	0x3c1dad43	0.009623828
139	0x3b6f8239	0.0036546125
140	0x3d2937ea	0.04131309
141	0xbd118171	-0.035523836
142	0x3a8f68e7	0.0010941298
143	0x3b97249f	0.00461252
144	0xbd44b789	-0.048026595
145	0xbd9bef67	-0.07614022
146	0x3cd20e73	0.025641656
147	0xbce90207	-0.02844335
148	0x3d8c7718	0.06858653
149	0xbcae501e	-0.021278437
150	0x3d6c6547	0.057713773
151	0xbd84aed6	-0.0647866
152	0x3d32826e	0.04358142
153	0x3c0b2bac	0.008494299
154	0xbd8edbbe	-0.06975506
155	0x3d80e1ca	0.06293066
156	0xbc67a80f	-0.014139189
157	0xbc8cfa2b	-0.017209133
158	0xbd802c65	-0.062584676
159	0x3d21de69	0.039518747
160	0x3cfb80e2	0.030701105
161	0xbc25a492	-0.010110037
162	0x3d7aa02b	0.061187904
163	0xbd2239f7	-0.03960606
164	0x3a27658f	0.0006385678
165	0x3cca7e05	0.024718294
166	0x3cf872ed	0.030328238
167	0x3c3cddb4	0.0115274675
168	0x399b7d06	0.00029657054
169	0x3d39a4b4	0.04532309
170	0x3d6c6aa4	0.057718888
171	0xbc62ae94	-0.013835568
172	0xbd531418	-0.051532835
173	0xbd8c0022	-0.06835963
174	0x3c998a09	0.018742578
175	0xbd1d7358	-0.03844008
176	0x3d1ada41	0.0378058
177	0xbd4f7284	-0.05064632
178	0x3ca84388	0.020540014
179	0xbc9c045d	-0.01904505
180	0xbcfe1fe2	-0.031021062
181	0xbc66b6e6	-0.014081692
182	0xbd31bfdc	-0.043395862
183	0xbd9576ab	-0.07298025
184	0x3d13105f	0.035904285
185	0xba510015	-0.00079727295
186	0xbd40c57e	-0.047063343
187	0xbd08f300	-0.033434868
188	0xbce79a80	-0.028271914
189	0x3c2bfced	0.010497314
190	0xbd1bf32d	-0.038073707
191	0x3cc64f30	0.024207681
192	0xbc049bb4	-0.008093763
193	0xbcdff070	-0.02733633
194	0xbbf7794e	-0.0075523024
195	0xbd93be39	-0.072140165
196	0x3cfca7cd	0.030841732
197	0xbd0f5357	-0.03499159
198	0x3d2ea1dc	0.04263483
199	0x3d1dca6a	0.038523115
200	0x3cf8e8d8	0.030384466
201	0x3d901410	0.070350766
202	0xbc86c672	-0.016452048
203	0xbd817257	-0.06320637
204	0xbd837b4e	-0.06420003
205	0xbc8c133e	-0.01709902
206	0x3d132171	0.035920564
207	0xbd80a790	-0.0628196
208	0xbcba0fea	-0.022712667
209	0x3cdc02b4	0.026856758
210	0xbd774dcb	-0.060376924
211	0x3c31d467	0.010853863
212	0x3cc33a30	0.023831457
213	0x3c36aa3b	0.011148985
214	0xbd8790bb	-0.06619402
215	0xbd2aa04e	-0.041656785
216	0xbcc04799	-0.02347164
217	0x3be88863	0.0070963367
218	0xbd82f457	-0.063942604
219	0x3d869eae	0.065732345
220	0xbc3e26af	-0.011605903
221	0xbd4a0033	-0.049316596
222	0x3cf08597	0.029360576
223	0x3cb15889	0.021648662
224	0x3c31c757	0.010850749
225	0x3d0d7b09	0.034541164
226	0xbd8c306c	-0.06845173
227	0xbc41ae1a	-0.011821294
228	0xbd26e054	-0.04074128
229	0xbc269b9f	-0.010168939
230	0xbcb818cb	-0.02247276
231	0xbce068c0	-0.027393699
232	0xbc61999a	-0.013769532
233	0xbcac59b2	-0.021038864
234	0xbd9091d9	-0.07059068
235	0x3d2f1cac	0.042751953
236	0x3d147c23	0.0362512
237	0x3d23a1e2	0.039949305
238	0x3caa2a2f	0.020772068
239	0x3d2df605	0.04247095
240	0x3d333c19	0.043758485
241	0xbb55f892	-0.003264938
242	0xbd6c2479	-0.05765197
243	0xbcbb53aa	-0.022867043
244	0xbd290af0	-0.041270196
245	0x3cf6fb44	0.03014911
246	0x3d77056b	0.0603079
247	0xbd20982c	-0.039207622
248	0xbc936ca8	-0.017996147
249	0xbcfa97e0	-0.030589998
250	0xbd130320	-0.035891652
251	0x3cd8acd1	0.026449593
252	0xbd4618f8	-0.048363656
253	0xbd90a5d3	-0.070628785
254	0x3d8905e9	0.066905804
255	0xbd912ef0	-0.07089031

layer3.bias f4 [200]
0	0xbdbc7255	-0.092014946
1	0xbd54bae7	-0.051936056
2	0x42253664	41.303116
3	0x40b35299	5.6038327
4	0x420eb512	35.676826
5	0x41c23f30	24.280853
6	0xc0752a35	-3.830701
7	0xbd1ffbcb	-0.039058488
8	0xc2359940	-45.39966
9	0x3d198bde	0.037486903
10	0x3e52fbbc	0.20603842
11	0x4216f528	37.73941
12	0xc2186705	-38.100605
13	0xc12be14f	-10.742507
14	0xc1d8fe78	-27.124252
15	0xbcc81718	-0.024425074
16	0x41f9b267	31.21211
17	0x423428d5	45.039875
18	0x41d9b167	27.211622
19	0x41816f90	16.179474
20	0x41b3bbe8	22.466751
21	0x4231a4e5	44.41103
22	0x4226c29a	41.69004
23	0xc1f1c010	-30.21878
24	0xbfe4a6cb	-1.7863401
25	0xc192212d	-18.2662
26	0x42068be1	33.6366
27	0x40a9ff97	5.31245
28	0x42355a14	45.337967
29	0x3d92da9d	0.071706034
30	0xc21392e5	-36.89345
31	0x3c92396d	0.017849648
32	0x4204237b	33.03465
33	0xc2408882	-48.13331
34	0xbd305ebc	-0.043059096
35	0xbc9dcd69	-0.019262986
36	0xbc4cd0d1	-0.012500958
37	0x422431c8	41.048615
38	0xbd674faf	-0.056472477
39	0xc0399bf2	-2.9001431
40	0xc152824b	-13.15681
41	0x3bf797d0	0.0075559393
42	0xc1dab481	-27.338137
43	0xbd8d2b43	-0.06893017
44	0xc2030c03	-32.76173
45	0xbda2b89f	-0.0794537
46	0xbc62a719	-0.0138337845
47	0x420da4c1	35.410892
48	0x420ec04c	35.68779
49	0x3d671b86	0.056422733
50	0x3fc19e3b	1.5126413
51	0xc1564e49	-13.394113
52	0x41d25f4c	26.296532
53	0x40724149	3.7852347
54	0xbda70da2	-0.08156897
55	0xc20882fe	-34.127922
56	0xc2046aba	-33.104225
57	0xbd0cd884	-0.034386173
58	0x41acd818	21.605515
59	0x424266e7	48.60049
60	0xc1c2da55	-24.356607
61	0x40d2fdf1	6.5934987
62	0x3d2a7f75	0.04162546
63	0xbfc80bd5	-1.5628611
64	0xc21c2cdd	-39.04381
65	0x42315e6e	44.342216
66	0x42055008	33.328156
67	0x40588029	3.3828223
68	0xbd266f16	-0.040633284
69	0x3d47c428	0.048771054
70	0xbf76fbe0	-0.9647808
71	0x3d028ca8	0.03187242
72	0x41eff161	29.99286
73	0xc21d773d	-39.366444
74	0xbd83febe	-0.064450726
75	0x4193c077	18.468977
76	0xc204b6bc	-33.17845
77	0xbd06b935	-0.03289147
78	0xbbd3e6fe	-0.0064667454
79	0x41498110	12.594009
80	0x3ce475fb	0.027888289
81	0x41cb9c8b	25.451437
82	0x4238ac94	46.168533
83	0xbd2ed059	-0.042679165
84	0xc200763e	-32.11547
85	0x423d92df	47.39343
86	0x3d109635	0.0352995
87	0x420e7007	35.6094
88	0xc1b72c15	-22.896524
89	0x4214f206	37.23635
90	0xc1717c4a	-15.092844
91	0x41f2ba03	30.340826
92	0x420c0886	35.008324
93	0xc2316213	-44.345776
94	0xbd89df27	-0.06732016
95	0x4237d4bc	45.95775
96	0xc22faed9	-43.92075
97	0xbc1b6812	-0.0094852615
98	0x42295dad	42.34148
99	0xc1421ea6	-12.132483
100	0xc214e61f	-37.224728
101	0xbc18bad4	-0.009321887
102	0x4208c487	34.19192
103	0xbd34885f	-0.044075366
104	0x3b7c8b52	0.003853519
105	0x3c529e01	0.012855054
106	0xc222cf0a	-40.702187
107	0x41636215	14.211446
108	0xc1407c36	-12.030325
109	0x41d3d831	26.480562
110	0xbd1411e4	-0.036149874
111	0x421bb684	38.928238
112	0x41f7ce76	30.975811
113	0x421f6d6f	39.85687
114	0xbe00ab34	-0.12565309
115	0xbd244aa9	-0.040110264
116	0x41fc2c63	31.521673
117	0xc21baea2	-38.92054
118	0xbc876c30	-0.01653108
119	0xbd8de371	-0.06928147
120	0x3d4b5106	0.049637817
121	0xbf124417	-0.57135147
122	0xbee5381e	-0.44769377
123	0x3d34ee4e	0.044172578
124	0xc1c07be1	-24.060488
125	0x4203cd5e	32.950554
126	0xc089746f	-4.295463
127	0x4214c907	37.196316
128	0xc1835f95	-16.42167
129	0x421f4289	39.814976
130	0xc22cfd50	-43.247375
131	0x423621ad	45.532887
132	0xc22335f2	-40.80268
133	0x3d63e6b9	0.055639956
134	0x41a9a15d	21.20379
135	0xc21969e3	-38.353405
136	0xbfd78864	-1.6838498
137	0x4186f1d2	16.868076
138	0xbd208a1f	-0.039194223
139	0xbcf4e0fb	-0.029892435
140	0x4224a98d	41.165577
141	0x4225d40b	41.457073
142	0xc1117ec4	-9.093449
143	0xc21f6ff0	-39.859314
144	0xc181d1b6	-16.227398
145	0xc1f7802d	-30.937586
146	0xc1f6c5fd	-30.846674
147	0x42287cf3	42.12202
148	0x421de6af	39.475277
149	0x3a9e61a6	0.0012083545
150	0xc1689259	-14.535729
151	0xba5f21ed	-0.000851183
152	0xc20700ed	-33.750904
153	0xc17e4aa1	-15.89322
154	0x424521d7	49.283047
155	0xbd2fd337	-0.04292604
156	0x420a82dc	34.627792
157	0x3d042e92	0.032270975
158	0x42039f02	32.90528
159	0x3d30d5c9	0.04317263
160	0x41d7945f	26.947447
161	0x420f1160	35.766968
162	0x41f8a53b	31.080679
163	0xbd44456e	-0.047917776
164	0xbb90071f	-0.00439538
165	0xc22868c5	-42.102314
166	0x418cc3e3	17.595648
167	0xc20aaab7	-34.666714
168	0xc23dbfb2	-47.437202
169	0x3ba938e1	0.005164251
170	0x3c089ec6	0.008338636
171	0xbd509c15	-0.0509301
172	0x42160215	37.502033
173	0x41d4b7f1	26.589815
174	0x40bde0e5	5.933703
175	0xc128d6fb	-10.552485
176	0x423ae9f6	46.728477
177	0xbd24bd2f	-0.040219482
178	0x3d1e0ca5	0.038586278
179	0x3d602f3a	0.05473254
180	0x4218a082	38.156746
181	0xc0f883da	-7.766095
182	0x42178e44	37.88893
183	0xc113435e	-9.203947
184	0xbca12a2b	-0.019673428
185	0xbccb6bb2	-0.024831627
186	0xbd0c5168	-0.034257323
187	0xc162b24f	-14.168532
188	0xc22ac373	-42.69087
189	0x42174a22	37.822395
190	0x42338d6e	44.888115
191	0x41e935a4	29.151192
192	0x42208d38	40.13791
193	0x42422b15	48.542072
194	0x3bd196a5	0.006396132
195	0xbef4c49f	-0.4780626
196	0x3d714fab	0.058913868
197	0x4201a6ce	32.412895
198	0x420fcc45	35.949482
199	0x41c12acb	24.145895

layer4.weight f4 [200, 200]
0	0xbd17d820	-0.037071347
1	0x3ceee5ab	0.029162249
2	0x3ed3318d	0.41248742
3	0xbeb0a0f8	-0.3449781
4	0xbd2686c5	-0.04065587
5	0x3dbdfccf	0.09276735
6	0x3db84a2e	0.08998524
7	0xbd08e415	-0.03342064
8	0x3dfbd418	0.12296313
9	0x3d6858bd	0.056725252
10	0xbcb1572f	-0.021648018
11	0x3c2bda41	0.0104890475
12	0xbfa479f3	-1.2849716
13	0x3c335cd1	0.010947422
14	0xbf06bb15	-0.52629215
15	0xbd6e0df7	-0.058118787
16	0xbcb30611	-0.021853479
17	0x3d3946e1	0.04523361
18	0x3dd09e8f	0.10186493
19	0x3d6ee369	0.058322344
20	0xbe8832df	-0.26601312
21	0xbe3a6e48	-0.18206131
22	0xbde134b1	-0.10996378
23	0xbeb33172	-0.3499866
24	0x3e1986c7	0.1499282
25	0xbf693264	-0.91092515
26	0x3defa413	0.117012165
27	0x3e604e1e	0.219048
28	0xbe765da4	-0.24059159
29	0x3d8db3ab	0.069190346
30	0x3ce5f571	0.028071137
31	0xbc8d0704	-0.01721526
32	0x3bc0c885	0.005883279
33	0xbf5ccd4e	-0.8625077
34	0x3d96719d	0.07345889
35	0x3d893f41	0.06701518
36	0x3d83ff96	0.064452335
37	0xbc28f88a	-0.010313163
38	0xbd470a54	-0.048593834
39	0x3d9c5779	0.076338716
40	0xbb9d9a26	-0.0048096357
41	0xbc9eac3a	-0.019369233
42	0xbf51da47	-0.8197369
43	0xbc8432c6	-0.016137492
44	0x3ead18e1	0.33808044
45	0x3d86b6cc	0.065778345
46	0xbb9a6312	-0.004711517
47	0xbe4d864e	-0.20070764
48	0x3cd91834	0.026500799
49	0x3becbf78	0.0072249733
50	0xbf2d0dc5	-0.67599136
51	0xbe2aa70d	-0.16665287
52	0xbf0cbda0	-0.54976845
53	0xbe9efbfc	-0.31051624
54	0xbc95b362	-0.018274013
55	0xbeeec344	-0.4663335
56	0xbe4f3e4c	-0.20238608
57	0x3d53dccf	0.05172425
58	0xbf74832a	-0.9551264
59	0xbf647ad3	-0.89249915
60	0xbeaea40e	-0.3410954
61	0xbfc00b39	-1.5003425
62	0xbcce43ed	-0.025178874
63	0x3d653f47	0.05596855
64	0xbc8494bb	-0.016184201
65	0xbd8c9478	-0.06864256
66	0xbf620510	-0.88288975
67	0x3e30d7d5	0.17269833
68	0x3c636bbf	0.013880669
69	0x3bdc0d93	0.0067154854
70	0x3d94dcb4	0.07268658
71	0xbd0cf42c	-0.034412548
72	0xb949050f	-0.00019170738
73	0x4037970d	2.8685944
74	0xbcde31d0	-0.027123362
75	0x3e33cada	0.1755785
76	0xbf2afd10	-0.6679239
77	0xbd1263bc	-0.035739645
78	0xbd83ccfe	-0.064355835
79	0x3d75aeba	0.059981085
80	0x3d6764fc	0.05649279
81	0x3ab5ccec	0.0013870276
82	0x3d84e143	0.06488278
83	0xbc5e59b0	-0.013571188
84	0xbed30be3	-0.41220006
85	0x3d848773	0.064711474
86	0x3ca0bcb5	0.019621233
87	0xbf96a787	-1.1769875
88	0x3e0b5782	0.136076
89	0xbd18479f	-0.03717768
90	0xbdc0e13f	-0.09417962
91	0xbe2a8dc3	-0.1665564
92	0xbf866520	-1.0499611
93	0xbcdb0236	-0.026734453
94	0x3cec698e	0.028858926
95	0x3e97f7b5	0.29681173
96	0xbf3eaef8	-0.7448573
97	0x3d2230ad	0.039597202
98	0xbf79e392	-0.9761287
99	0xbdbd6ba1	-0.09249044
100	0xbfd31f57	-1.6493939
101	0x3cff9724	0.0312
102	0x3c301a9f	0.010748534
103	0xbd5c229a	-0.053743936
104	0xbba7e81b	-0.0051241047
105	0x3d6b7d74	0.05749269
106	0xbdbad4fd	-0.091226555
107	0xbc1ad742	-0.0094507355
108	0x3db59eac	0.08868155
109	0xbe4db5bc	-0.20088857
110	0xbd8c9bcb	-0.06865653
111	0xbd11035f	-0.035403606
112	0xbfa56f92	-1.2924674
113	0xbeac9ad6	-0.3371188
114	0x3e135925	0.14389475
115	0x3d7406cf	0.059576806
116	0xbf9eb421	-1.2398721
117	0x3e698972	0.22806337
118	0x3d67f27e	0.056627743
119	0x3cf1de39	0.02952491
120	0x3d056879	0.032570336
121	0xbd86dd3f	-0.06585168
122	0x3d94c273	0.07263651
123	0x3d08bcab	0.033383053
124	0xbf35e7dd	-0.7105692
125	0x3e704af8	0.23466098
126	0xbe57b9c0	-0.21066952
127	0xbe72a3bd	-0.23695274
128	0xbd8ddf2c	-0.06927332
129	0xbe8ddda2	-0.27708155
130	0x3d10280c	0.03519444
131	0xbe407541	-0.18794729
132	0x3f1da9e2	0.61587346
133	0x3d8b8589	0.06812579
134	0x3d0ccd65	0.034375567
135	0xbe4010f6	-0.1875647
136	0x3e07329b	0.13202898
137	0x3e4b8ac2	0.1987715
138	0xbce832e2	-0.028344575
139	0xbcbe3baf	-0.023221819
140	0xbd43ffe2	-0.04785145
141	0xbea01279	-0.31264094
142	0x3df3be4b	0.1190153
143	0x3d2c3ba6	0.042049073
144	0x3ded776a	0.11595042
145	0xbec3f022	-0.38269144
146	0xbfdb4ed2	-1.7133429
147	0xbf6655cb	-0.8997466
148	0x3d91d45d	0.07120583
149	0x3e654c5b	0.22392409
150	0xbf53c839	-0.8272739
151	0xbd482981	-0.048867706
152	0x3def938c	0.11698064
153	0xbee72202	-0.45143133
154	0x3d3e46f9	0.046454404
155	0xbc7a4494	-0.015275139
156	0x3bdc1360	0.006716177
157	0x3d7b6914	0.061379507
158	0x3d50fce8	0.05102244
159	0x3d8824d8	0.066476524
160	0x3dc6e47c	0.09711549
161	0xbdeaec3a	-0.11470838
162	0xbe4eeddf	-0.20207928
163	0xbcc3f577	-0.023920758
164	0x3cc9d7e1	0.024639072
165	0xbd9f0d20	-0.07766175
166	0xbc919b5d	-0.017774278
167	0x3d1f651a	0.038914777
168	0xbc580752	-0.013185339
169	0x3cc730ac	0.0243152
170	0xbd1f468c	-0.038885638
171	0xbc9dc458	-0.019258663
172	0xbeea4d3a	-0.45762044
173	0xbd35a63e	-0.044347994
174	0xbdffa0af	-0.1248182
175	0xbf2d2b6e	-0.67644393
176	0x3e4453ac	0.19172543
177	0xbd550963	-0.052010905
178	0x3d8733b6	0.0660166
179	0xbd2768f3	-0.04087157
180	0x3c6c983c	0.014440592
181	0xba0e87e9	-0.00054371223
182	0xbec4130d	-0.38295785
183	0xbe80bade	-0.25142568
184	0xbccfae95	-0.025351802
185	0x3c91d147	0.017799987
186	0x3d8d036d	0.06885419
187	0xbe07aaf9	-0.13248815
188	0x3d51ada8	0.051191002
189	0xbfa0cdc1	-1.2562791
190	0xbcd9a5ca	-0.026568312
191	0x3d39d2a9	0.045366917
192	0xbf68c1c2	-0.9092065
193	0x3ed197dc	0.40936172
194	0x3b67b51b	0.003535575
195	0xbd87c16c	-0.06628689
196	0x3c86110a	0.016365547
197	0xbfcd22e6	-1.6026275
198	0xbf01c029	-0.5068384
199	0xbe17ff2e	-0.14843437
200	0x3d34ac15	0.044109423
201	0x3d3d0242	0.04614473
202	0x3c80e827	0.015735699
203	0xbd19677d	-0.03745221
204	0xbb841b54	-0.004031578
205	0x3d91ad1a	0.07113095
206	0x3df99c50	0.12188017
207	0xbd1ea938	-0.0387356
208	0xbd344902	-0.04401494
209	0x3d8207bd	0.06349132
210	0x3ce34bf9	0.027746188
211	0x3e1b3818	0.15158117
212	0x3dfed359	0.12442655
213	0xbeaffccf	-0.34372565
214	0xbe5b3798	-0.21407926
215	0x3d1f2684	0.03885509
216	0x3e11cb51	0.14237715
217	0xbcec325d	-0.028832609
218	0x3d406595	0.046971876
219	0x3e69bfc9	0.22827066
220	0x3dc06b33	0.09395447
221	0x3e0482e8	0.12940562
222	0x3e7bc9df	0.24588726
223	0x3d635847	0.05550411
224	0xbe3f99d4	-0.18711025
225	0x3de01a90	0.109425664
226	0xbe341b3a	-0.17588511
227	0x3cce6c01	0.025197985
228	0xbd2ea5e9	-0.042638693
229	0x3df1aa99	0.11800117
230	0x3e4fc044	0.20288187
231	0x3d50b360	0.050952315
232	0xbebadc9d	-0.3649644
233	0xbdeceab6	-0.11568205
234	0xbabf33d7	-0.0014587593
235	0xbd436f7d	-0.047713745
236	0xbc830a50	-0.015996128
237	0x3e842d7b	0.2581595
238	0xbb90b907	-0.004416588
239	0x3dfebaec	0.12437996
240	0x3e5169c4	0.20450503
241	0xbd1a01fb	-0.037599545
242	0x3dbf0dae	0.09328781
243	0xbd672f6d	-0.056441713
244	0xbe08b718	-0.13351095
245	0x3d747352	0.05968029
246	0xbc05754b	-0.008145641
247	0x3e0d63a0	0.13807535
248	0xbe85b5c1	-0.2611523
249	0xbb4be60f	-0.0031112467
250	0x3d60ac92	0.054852076
251	0x3e265882	0.162447
252	0xbdb7381e	-0.089462504
253	0x3d9c6c6a	0.07637866
254	0x3d58431e	0.052798383
255	0x3e4126dd	0.18862481

layer4.bias f4 [200]
0	0xbf1bfb23	-0.6093008
1	0x41c36eb0	24.429047
2	0x4233e956	44.977867
3	0xc25b18ab	-54.77409
4	0x3e0df775	0.13863929
5	0xbd7a2fcd	-0.061080743
6	0xc233f3b3	-44.987988
7	0xc1b12ce8	-22.146927
8	0x423d017e	47.251457
9	0x3cd5bd17	0.026091142
10	0x41f9ae68	31.21016
11	0xc1044f28	-8.269325
12	0x422d33e2	43.300667
13	0x423c5f6c	47.093185
14	0xbaf1e9d7	-0.001845653
15	0x4235501d	45.328236
16	0x424120aa	48.2819
17	0xc18d82c0	-17.688843
18	0x4217ec1d	37.98058
19	0x4242a6af	48.662777
20	0xbc69cfa3	-0.014270696
21	0xbeb25eba	-0.34837896
22	0xbce727aa	-0.028217155
23	0x42318790	44.382385
24	0x41d04410	26.033234
25	0xc22434cc	-41.05156
26	0xc2014fbf	-32.327877
27	0x3d404d5d	0.04694878
28	0x3f8dc2b6	1.1075046
29	0x3d3e3aa9	0.04644266
30	0x3bef43c6	0.0073017804
31	0x41cc7876	25.558819
32	0xbd713cf1	-0.05889601
33	0xbd019aed	-0.03164189
34	0xc1fa1ad9	-31.26311
35	0x421ce34c	39.22197
36	0x3d6d680f	0.057960566
37	0xbb940f0e	-0.004518396
38	0xc21a404e	-38.562798
39	0x3ee9abb4	0.45638812
40	0xc1649cf6	-14.288321
41	0xbd4d64df	-0.050145026
42	0x4148dce7	12.553931
43	0x3d38e343	0.04513861
44	0x422db52d	43.42693
45	0xbd4f77f8	-0.05065152
46	0xc1d7530b	-26.915548
47	0xbd774bfb	-0.060375195
48	0x42430a32	48.759956
49	0x424fce14	51.95125
50	0x423b07ba	46.757545
51	0x425404ec	53.004807
52	0x3ba55472	0.005045467
53	0x42113308	36.299835
54	0xbd3d49bd	-0.0462129
55	0x42014b91	32.323795
56	0xc1d2f82b	-26.371176
57	0x422ac652	42.693672
58	0x420c352f	35.051937
59	0x424799fb	49.90037
60	0xbca5565a	-0.020182777
61	0x3d4f0ad3	0.050547432
62	0xc1bfc9b3	-23.973486
63	0x421e298e	39.54058
64	0x4230e253	44.22102
65	0xc21937ee	-38.30462
66	0xc1cd816d	-25.688196
67	0x41e3d22c	28.477623
68	0xbc0144f4	-0.007889975
69	0x420866ef	34.10052
70	0x421b52f7	38.83102
71	0xc2345947	-45.087185
72	0x41335cde	11.210173
73	0xbcce4378	-0.025178656
74	0xc08ca0eb	-4.3946433
75	0x42387ae2	46.120003
76	0x3cef1459	0.029184507
77	0xbd999c3b	-0.07500502
78	0xc1feea68	-31.864456
79	0xc2186f45	-38.10866
80	0xbc98c063	-0.018646425
81	0x42302690	44.03766
82	0x4249a17a	50.407692
83	0xc1d4eef1	-26.61667
84	0x3caa03d8	0.020753786
85	0x421b0e9d	38.76427
86	0xc19f6bcb	-19.927633
87	0xbd95f34e	-0.07321797
88	0xc13a1532	-11.630175
89	0x3ca716c3	0.020396596
90	0x4220fcf4	40.247025
91	0x41f8976c	31.073936
92	0xc0064345	-2.0978558
93	0x4210834f	36.12823
94	0x42490cdc	50.262558
95	0x3d365919	0.044518564
96	0x42286122	42.094856
97	0x424e84ae	51.62957
98	0xbcef23f0	-0.029191941
99	0xc1b3fcfc	-22.498528
100	0xc1b01895	-22.012003
101	0x3c9278c2	0.017879847
102	0xc0fb083b	-7.8447547
103	0x42321055	44.51595
104	0xbd759f00	-0.059966087
105	0x4245820c	49.377
106	0xc2183c10	-38.058655
107	0x42322053	44.531567
108	0x424a80e8	50.625885
109	0x3d4c3760	0.049857497
110	0x4231dfde	44.46862
111	0xbd9278e0	-0.07151961
112	0xbfd5dbad	-1.6707665
113	0x424ef5a8	51.7399
114	0x41b02bdf	22.021421
115	0xbca26b3d	-0.019826526
116	0x422ffd83	43.99757
117	0xbc8f1272	-0.01746485
118	0x3d6bfbd7	0.05761322
119	0x4241bc02	48.4336
120	0x420fc054	35.93782
121	0x4231b911	44.43073
122	0x4202b10b	32.672894
123	0xc03dd33a	-2.9660172
124	0xc1eb7566	-29.432323
125	0x42382c83	46.04347
126	0x3d3ecba2	0.046580918
127	0x3d80f266	0.06296234
128	0xbcb8522e	-0.022500124
129	0x41e184d7	28.189863
130	0x424c404c	51.06279
131	0x42335ffb	44.84373
132	0x422d42ab	43.315105
133	0x41b1b4de	22.213314
134	0x4231dc27	44.464993
135	0xbd5ac8ae	-0.05341404
136	0xc18e0f8a	-17.757587
137	0x424d1a16	51.275475
138	0x4234a65d	45.162464
139	0x4220f2d5	40.23714
140	0x41fc554e	31.541653
141	0xc0ac2141	-5.3790593
142	0x424a0506	50.504906
143	0x3c23adac	0.009990137
144	0x4235a6ed	45.413013
145	0xbc681538	-0.014165215
146	0x3b329f1c	0.002725548
147	0x42516776	52.351036
148	0x3d0ec275	0.034853417
149	0x41c796c6	24.94862
150	0xc0045350	-2.067585
151	0x42559f3e	53.40551
152	0x403dcb00	2.9655151
153	0xc1e61879	-28.76195
154	0xc050c5b5	-3.262067
155	0x4246d059	49.703465
156	0xbcb26cc3	-0.021780377
157	0x41f0ab8c	30.083763
158	0x3d4feedb	0.0507649
159	0x423cb2d9	47.174656
160	0x420463ec	33.09758
161	0x40cec5cc	6.461645
162	0xbc9ff599	-0.01952629
163	0xc14e4cc6	-12.8937435
164	0x422bb9a8	42.931305
165	0xc1d58fef	-26.69528
166	0x407499dc	3.8218908
167	0x421e1559	39.520847
168	0xbcd1cf1e	-0.025611456
169	0xbee47426	-0.44619864
170	0x4251d34a	52.456337
171	0xbc485972	-0.012228357
172	0xc1490d6b	-12.565776
173	0x42262f0a	41.545937
174	0xbccd8220	-0.025086462
175	0xc242832b	-48.628094
176	0x42509043	52.14088
177	0x42290a6d	42.26018
178	0xc1d4c4f0	-26.59616
179	0x3d60f86b	0.05492441
180	0x423e252f	47.536312
181	0x42253ca9	41.30924
182	0xbcf78cdb	-0.030218532
183	0x419cd1b8	19.602402
184	0x41d89626	27.073315
185	0x42345b63	45.089245
186	0x422a3528	42.55191
187	0x4222e021	40.718876
188	0xc1e55fd5	-28.671793
189	0x41ee894d	29.817041
190	0x4217930c	37.8936
191	0x423d4099	47.313084
192	0x39aa381d	0.00032466734
193	0xbd9039d3	-0.07042279
194	0x41c0cff4	24.10154
195	0x42392268	46.2836
196	0xbd8751b9	-0.06607384
197	0x3cbd155f	0.02308148
198	0xc1f81020	-31.007874
199	0x41ea267a	29.268787
