src/model.pth (torch, 978174 bytes, 16 tensors)

layer1.weight f4 [200, 6]
0	0xbcf0769e	-0.029353436
1	0x3d3e609f	0.046478864
2	0xbf4c97a4	-0.79918885
3	0x40ee3609	7.444096
4	0xbc92f8fd	-0.017940992
5	0x409774c1	4.733002
6	0xbefaa6a3	-0.4895526
7	0xbec238e2	-0.37934023
8	0x3c9ea90c	0.019367717
9	0xbf0a9ca4	-0.54145265
10	0x3dfa4fa4	0.122222215
11	0xbfffc684	-1.9982457
12	0x3b801206	0.0039083986
13	0xbf9005af	-1.1251734
14	0xc06191bd	-3.5245202
15	0x40f1eefe	7.560424
16	0xbf17a2b7	-0.5923266
17	0x412c7812	10.779314
18	0xbab90ee3	-0.0014118816
19	0x3c766282	0.0150381345
20	0x3dde0370	0.108404994
21	0x4004638d	2.068576
22	0xbb497aa8	-0.0030743275
23	0xc11a6287	-9.649055
24	0xbab1904e	-0.0013547034
25	0x3ac41d00	0.0014962256
26	0x3e8313be	0.25601
27	0x40d7ffc7	6.749973
28	0xbafe5203	-0.0019403104
29	0x4157b122	13.480745
30	0x3b4bfb2d	0.0031125054
31	0xbfb51ec1	-1.415001
32	0xbfa15306	-1.2603462
33	0x4118685d	9.525479
34	0xbdea99d9	-0.11455125
35	0x4125a0bd	10.351743
36	0xb9864eba	-0.00025617128
37	0x3ddd9183	0.1081877
38	0x3d385935	0.04500695
39	0x4179aab0	15.604172
40	0xbd06a83c	-0.032875285
41	0x406d38f0	3.7066002
42	0xbcdc2783	-0.02687431
43	0x3d4532b1	0.048144046
44	0xbf43b2dc	-0.7644479
45	0xbfb326ab	-1.3996176
46	0xbc5b0ec9	-0.013370224
47	0x408b2a5b	4.3489203
48	0xba947800	-0.0011327267
49	0x3b16b6c4	0.002299712
50	0x3e6b7da4	0.22997147
51	0x40bde287	5.9339023
52	0xbae833a5	-0.0017715587
53	0x415147be	13.080015
54	0xbafe10d6	-0.001938368
55	0x3e040d89	0.12895788
56	0x3e8262bb	0.2546595
57	0x419f8a28	19.94246
58	0xbce22597	-0.027605815
59	0x3efdc6ec	0.49565828
60	0xbc22fc61	-0.009947867
61	0x3b15ef01	0.0022878053
62	0xc0c5d5bf	-6.182342
63	0xc01a5052	-2.4111524
64	0xbd83cc83	-0.06435492
65	0x40855dbc	4.167692
66	0xbd0e2aef	-0.034708913
67	0xbee4711d	-0.4461755
68	0x3d50d505	0.0509844
69	0x40857491	4.1704793
70	0x3d99689d	0.074906565
71	0x40e02d14	7.0055027
72	0xbc2a5b1e	-0.010397701
73	0xbf8ef3cd	-1.1168152
74	0xbf6f1a3c	-0.93399405
75	0x3ff4eb60	1.9134331
76	0x3e459e36	0.19298634
77	0x402df6f3	2.7181976
78	0xb9d15e38	-0.00039933785
79	0xbec74ccb	-0.38925776
80	0xbed23412	-0.41055351
81	0x40f259a8	7.5734444
82	0xbec177ae	-0.3778662
83	0x410cfbdf	8.811492
84	0x3b0b5d2f	0.0021265259
85	0xbf8dbb82	-1.1072848
86	0xbfe80f38	-1.8129644
87	0x3f4a3aa7	0.78995746
88	0xbf39af12	-0.7253276
89	0x40b75652	5.729287
90	0xbcdf7ca6	-0.027281117
91	0xb8ee721c	-0.00011369979
92	0x3e9bbd07	0.30417654
93	0x40f007c1	7.5009465
94	0x3b4011a8	0.00293074
95	0x41092f4f	8.57405
96	0x3b897cd2	0.004195788
97	0xbf5a6e37	-0.85324425
98	0xc0882839	-4.25491
99	0x40a55fe2	5.1679544
100	0xbf3f63a8	-0.7476144
101	0x40d1517f	6.5411983
102	0xbc12665b	-0.008935536
103	0x3e109f69	0.1412331
104	0x3e681749	0.22665133
105	0x415e5b12	13.897234
106	0xbc88bcb9	-0.016691552
107	0x3eaa45e3	0.33256444
108	0xba835945	-0.0010021111
109	0x3d88b8e0	0.06675887
110	0x3e1045f0	0.14089179
111	0x4197020a	18.875996
112	0xbdc0f6e6	-0.09422092
113	0x3f201fe5	0.6254867
114	0xbcf8ed28	-0.030386522
115	0x3c2fa256	0.010719856
116	0xbe17b944	-0.14816767
117	0x40eddb14	7.432993
118	0xbc06a993	-0.008219141
119	0x4092277a	4.567319
120	0xba5092ae	-0.0007956427
121	0xbf815f39	-1.0107185
122	0x400b2173	2.1739166
123	0xc0b07f03	-5.5155044
124	0xbf1f76b7	-0.6229052
125	0x40b7d5eb	5.744863
126	0xbbc2820e	-0.005935914
127	0xbe867650	-0.2626214
128	0xc0922da2	-4.5680704
129	0xc02986ed	-2.6488602
130	0x3cc02401	0.023454668
131	0x401ddfa1	2.4667742
132	0x3aa3a7b8	0.0012485897
133	0xbf47c888	-0.7804036
134	0xbec6923f	-0.38783452
135	0x413dddf0	11.866684
136	0x39b16874	0.00033837894
137	0x40b115ff	5.533935
138	0xbe6b6ed5	-0.22991498
139	0x3e865f45	0.2624456
140	0xbe4a91a4	-0.1978212
141	0xbeb7835a	-0.358424
142	0xbdb5d5fa	-0.088787034
143	0x3dbaa132	0.09112777
144	0xbe914fa7	-0.28381082
145	0x3e8694df	0.26285455
146	0xbf876db7	-1.0580357
147	0xbf14c847	-0.581181
148	0xbcd6e29c	-0.026231103
149	0xbf83fa99	-1.0310851
150	0xbd273082	-0.040817745
151	0x3b2ce31c	0.0026380485
152	0xbe3e0296	-0.18555674
153	0x4024802c	2.570323
154	0xbbdad800	-0.0066785812
155	0x40c7106b	6.220754
156	0xbbf53850	-0.0074835196
157	0xbe0fefc6	-0.1405631
158	0x3fb5ab4a	1.4192898
159	0x404e116d	3.2198136
160	0x3ce832bb	0.028344503
161	0xc0b48660	-5.641403
162	0xbebe112b	-0.37122473
163	0xbecee0ed	-0.4040598
164	0xbf06bb02	-0.526291
165	0x3dbea7c8	0.093093455
166	0x3ded7f53	0.11596551
167	0xbfa13b77	-1.2596272
168	0x3b9be268	0.0047572143
169	0xbed42293	-0.41432628
170	0xc088cfa5	-4.275347
171	0x40789d4f	3.8846014
172	0xbf2af02c	-0.66772723
173	0x4039f16f	2.905361
174	0xbe11c43e	-0.14235017
175	0xbe762e91	-0.24041201
176	0x3e774f7e	0.24151418
177	0x3e607f97	0.21923672
178	0xbe397642	-0.18111518
179	0x3ec65cdd	0.38742724
180	0x3ab7a9aa	0.0014012356
181	0xbf919e91	-1.1376516
182	0x3f0c9be7	0.5492539
183	0xbe2b62ef	-0.16736959
184	0xbf7f9530	-0.9983702
185	0x3f6c5e7c	0.9233167
186	0xbbbf3743	-0.005835445
187	0xbe20459e	-0.15651557
188	0xc098e1ff	-4.7775874
189	0xc0473f4d	-3.1132386
190	0x3bb24f1f	0.005441561
191	0x400c0ca4	2.1882715
192	0xbe99d3c8	-0.3004439
193	0x3e27583a	0.1634225
194	0xbe905229	-0.28187683
195	0xbed6ccf2	-0.41953236
196	0xbb65f5ab	-0.0035089056
197	0xbff69dd6	-1.9266918
198	0xbd97402f	-0.07385289
199	0xbea494a4	-0.32144654
200	0x3e979349	0.29604557
201	0xbec6486d	-0.3872713
202	0xbe8fb28c	-0.28065908
203	0x3b15f60a	0.0022882246
204	0xba6e667a	-0.00090942497
205	0x3e46edfe	0.19426724
206	0x3e0b891b	0.1362652
207	0x41a8ff64	21.124702
208	0xbd1b4af1	-0.037913267
209	0x3ddcbb35	0.107778944
210	0x3b045f57	0.0020198429
211	0xbf4db033	-0.80346984
212	0xbf184914	-0.5948651
213	0x41202c70	10.010849
214	0xbccc5413	-0.024942433
215	0x406f470d	3.7387116
216	0xbbc7c73f	-0.00609675
217	0xb7d95a90	-2.5910587e-05
218	0x3f94221f	1.1572913
219	0x4096ea2a	4.7160845
220	0xbccf1643	-0.02527917
221	0x41088684	8.532841
222	0xbb0f8514	-0.002189939
223	0x3ceb4dcf	0.028723625
224	0x3e296bab	0.16544978
225	0x41766ce2	15.401583
226	0xbc29254e	-0.010323836
227	0x3f3b3891	0.7313319
228	0xbac9ee29	-0.001540606
229	0xbf7ebe09	-0.9950872
230	0x3f8b34d4	1.0875497
231	0x3f98c1d5	1.1934153
232	0xbf8fff6e	-1.1249826
233	0x409e1f8c	4.941351
234	0x3aba35e4	0.0014206734
235	0xbdfc144e	-0.1230856
236	0xc0c43d4d	-6.132483
237	0xc0402626	-3.0023284
238	0x3c9b8d35	0.018988231
239	0x409722c3	4.7229934
240	0xbe1eff7b	-0.15527146
241	0xbeccf0c3	-0.40027437
242	0x3e808f9f	0.25109574
243	0xbea04460	-0.31302166
244	0xbeb0992d	-0.34491864
245	0x3e88d607	0.2672579
246	0xbe180585	-0.14845856
247	0x3c5e4057	0.0135651445
248	0xbe80a346	-0.25124568
249	0x3e3cc182	0.18433192
250	0xbed02daf	-0.40659854
251	0x3e917702	0.28411108
252	0xbb727e51	-0.003700156
253	0x3c43f2c6	0.011959737
254	0x3e7a9ea7	0.24474584
255	0x4117500d	9.457044

layer1.bias f4 [200]
0	0x41e05f9f	28.04669
1	0xbed11a1a	-0.40840226
2	0x41842960	16.520203
3	0xc1808077	-16.062727
4	0x41a2c4e9	20.346148
5	0x4164f82a	14.310587
6	0x41690f3f	14.566222
7	0xbf504edd	-0.81370336
8	0x41a3bfd8	20.468674
9	0x417bd6b4	15.739918
10	0xc04d8586	-3.2112746
11	0x41c718c3	24.88709
12	0x41c749e0	24.911072
13	0x41efd172	29.977268
14	0x41abc375	21.470438
15	0x41b79000	22.945312
16	0x4122c01e	10.171904
17	0x41781ee4	15.507542
18	0x4178361f	15.513213
19	0x41dfe4c9	27.986712
20	0x416494eb	14.286357
21	0xc08a3faf	-4.320274
22	0x41992a8b	19.145773
23	0x3ed06c8c	0.40707815
24	0xbd302786	-0.043006442
25	0x41c4d037	24.601667
26	0xc045515f	-3.0830915
27	0xbecbe00b	-0.3981937
28	0x41031825	8.193395
29	0xbd9cd399	-0.076575466
30	0x4198b962	19.090519
31	0xc080f7ec	-4.030264
32	0xbe0389d7	-0.1284555
33	0x3a5f28a3	0.000851283
34	0x4177ead3	15.49483
35	0x417e0482	15.876101
36	0x420442a3	33.065075
37	0x41979977	18.949934
38	0x41ae6d67	21.80342
39	0xc07222bc	-3.78337
40	0xbec5e211	-0.38649037
41	0xbde5e78d	-0.112258054
42	0x41f9a4ed	31.20553
43	0x3d203a8d	0.03911834
44	0x418cf6aa	17.620441
45	0xbdd49d5d	-0.10381577
46	0xbd3a1e82	-0.04543925
47	0x41f84fbc	31.038933
48	0xbd04dd0e	-0.032437377
49	0xbe41f5e4	-0.18941456
50	0x3e45c02b	0.19311588
51	0x41dfb701	27.964357
52	0x41caba82	25.341068
53	0xbeb45d06	-0.3522722
54	0xbec9e577	-0.3943288
55	0x42092cf5	34.293903
56	0x3e7a2b54	0.24430591
57	0x41515918	13.084251
58	0xbdd17495	-0.102273144
59	0x41da8bed	27.318323
60	0x418d1af4	17.63816
61	0x41d1de60	26.233582
62	0x419a26b5	19.2689
63	0x41d75242	26.915165
64	0x41df1a84	27.887947
65	0x416f859b	14.9701185
66	0x41d6bd27	26.84236
67	0x4117fcc7	9.499213
68	0x41dd95da	27.69817
69	0x416f7060	14.964935
70	0x419bcc37	19.474714
71	0x4179f056	15.621176
72	0x41e9be68	29.217972
73	0x41c699ab	24.825033
74	0xc0586cd6	-3.3816428
75	0x4126c68c	10.423473
76	0x4128b45e	10.544035
77	0xbf051801	-0.5198975
78	0x41249bec	10.288067
79	0x41a734a3	20.900702
80	0x3e148990	0.14505601
81	0xbe8212c9	-0.25404957
82	0x41b666a2	22.800114
83	0x41ec79ce	29.559475
84	0x420fbdd1	35.935368
85	0xbf051635	-0.5198701
86	0xc0954ba1	-4.665482
87	0x41dee3b6	27.861187
88	0x4193b569	18.46358
89	0x3e2269f7	0.15860735
90	0x4172e75b	15.181483
91	0x41dbd468	27.478714
92	0xbea6843b	-0.3252276
93	0xbe20aaca	-0.15690151
94	0x41bc354c	23.526024
95	0x40f30ef3	7.595575
96	0x418213c6	16.259655
97	0x41918f64	18.195015
98	0xbd6da170	-0.058015287
99	0x3e86a109	0.26294735
100	0x3e9a0964	0.3008529
101	0x41774070	15.453232
102	0x3dbe6173	0.09295931
103	0x418241d3	16.28214
104	0xc09885e7	-4.7663455
105	0xbe84e70f	-0.25957534
106	0x41b523f1	22.64255
107	0xbe887cd8	-0.26657748
108	0x4174e7a4	15.306553
109	0x41b8fbdf	23.122984
110	0xbd5d420e	-0.054018073
111	0x41de2073	27.765844
112	0x42098e98	34.38925
113	0x41d68282	26.813725
114	0x41e4bb52	28.591465
115	0x4176b8cd	15.420117
116	0xbeaa9929	-0.33319977
117	0x415a9316	13.66091
118	0x41f196e4	30.198677
119	0x42117831	36.367374
120	0xc09a6611	-4.8249593
121	0x3d8233ca	0.06357534
122	0x420cdf79	35.218235
123	0xbe5e1355	-0.21687062
124	0xc12950f2	-10.582262
125	0xbe669ee9	-0.22521557
126	0x4176408c	15.3907585
127	0x40de9aec	6.9564114
128	0x3a7a4ea7	0.0009548463
129	0x4181deda	16.233814
130	0x41e1190c	28.13723
131	0xbe532ce4	-0.20622593
132	0xbe26666d	-0.1625001
133	0x3dfaa221	0.12237955
134	0x416f222b	14.945842
135	0x41f6839f	30.814268
136	0xbebee544	-0.3728429
137	0xbe5aca06	-0.21366128
138	0x41680ed0	14.503616
139	0x42048cf9	33.13767
140	0x4141492c	12.080364
141	0x4175ac7d	15.354611
142	0x410e5554	8.895832
143	0xbec5aae7	-0.3860695
144	0xbea1201d	-0.31469813
145	0x3d8bbd70	0.06823242
146	0x41c1f9a3	24.246893
147	0xbe91e17f	-0.28492352
148	0x419936eb	19.151815
149	0x41e18679	28.19066
150	0x41dd74ae	27.681973
151	0x41cd50f3	25.664526
152	0x3e9624bd	0.29324904
153	0x41a9d696	21.229778
154	0x3ca5d0b3	0.020241117
155	0xbe82e716	-0.2556693
156	0xbec71118	-0.3888023
157	0x41c4a909	24.582537
158	0x3e584a63	0.21122126
159	0x3e95549d	0.29166117
160	0xc1905142	-18.039677
161	0x41b5a5ae	22.705898
162	0x41e16edc	28.17913
163	0x416b9466	14.72373
164	0x41483a83	12.514285
165	0x42094f3e	34.327385
166	0xbed829d0	-0.422194
167	0xc0a0c069	-5.0234876
168	0x41de2339	27.767199
169	0x41fddb42	31.73206
170	0x41752ad1	15.322953
171	0x418d6df1	17.678682
172	0x41fe7f18	31.812057
173	0xbe13de14	-0.14440185
174	0x3ec5459c	0.3852967
175	0x411ac332	9.672655
176	0x3da3fae5	0.08006839
177	0xbe2badf5	-0.16765578
178	0x4134513d	11.269834
179	0x40fc42d0	7.883156
180	0x3eca3d80	0.39500046
181	0x3dfd6c5f	0.12374186
182	0x41b86b61	23.052431
183	0x418da479	17.705309
184	0xbf0c4bbd	-0.5480307
185	0xbeb73a55	-0.3578669
186	0x417d6dd0	15.83931
187	0x3ea9e1ef	0.33180186
188	0xbe8acc6f	-0.27109095
189	0x41e9406d	29.156458
190	0x41cb2a94	25.39579
191	0x3e0a697a	0.13516799
192	0xbeca333b	-0.3949221
193	0xbd4971e0	-0.049180865
194	0xbe26c640	-0.16286564
195	0x41c839da	25.028248
196	0x417fa705	15.978276
197	0xbe3c5f37	-0.18395697
198	0x41e90893	29.129187
199	0xbe01c0e2	-0.12671235

layer2.weight f4 [200, 200]
0	0xbe1015f5	-0.14070876
1	0xbd30974c	-0.043113038
2	0xbd3de753	-0.046363186
3	0xbe8c87bb	-0.27447304
4	0xba568307	-0.0008182977
5	0xbd908bb8	-0.07057899
6	0xbbdbb63e	-0.0067050746
7	0xbe3f0ed5	-0.18658002
8	0x3a9f8415	0.0012170101
9	0x3c152706	0.009103542
10	0xbe07c7c4	-0.13259798
11	0x3d495b22	0.049159177
12	0x3cbf68c0	0.023365378
13	0xbd6f919b	-0.05848847
14	0x3c903c84	0.017606981
15	0x3d4da083	0.050201904
16	0xbcd1ce64	-0.02561111
17	0x3b8c4a0d	0.0042812885
18	0x3c8ae749	0.016955988
19	0xbda7e6e2	-0.08198334
20	0xbe029031	-0.12750317
21	0xbe99c811	-0.3003545
22	0xbcbd5152	-0.023110066
23	0x3c395a67	0.0113130575
24	0xbd8a6339	-0.067572065
25	0x3d402dd4	0.046918705
26	0xbf652660	-0.8951168
27	0x3ca13522	0.019678656
28	0xbda617b2	-0.08109988
29	0xbc48e2b6	-0.012261083
30	0xbd66197b	-0.056176644
31	0xbe6e0468	-0.23243868
32	0xbc418833	-0.011812258
33	0x3d052358	0.03250441
34	0x3a418122	0.0007381608
35	0xbd31d0a1	-0.043411855
36	0x3e7b13eb	0.24519317
37	0x3da8c6e5	0.08241061
38	0xbe857797	-0.26067802
39	0xbdd59c44	-0.10430196
40	0x3ca93b52	0.020658169
41	0xbd12e666	-0.035864256
42	0x3e41f05a	0.18939343
43	0xbd37d674	-0.044882253
44	0xbd8153bc	-0.06314799
45	0x3e638f0a	0.22222534
46	0xbd3a7ef8	-0.045531243
47	0xbd245640	-0.040121317
48	0x3c3e0fb4	0.011600424
49	0x3d317eca	0.043333806
50	0xbc941490	-0.018076211
51	0x3df47d84	0.11938003
52	0xbb923a07	-0.004462484
53	0x3e5fedf1	0.21868111
54	0xbdf25a13	-0.118335865
55	0x3cb4dd8e	0.022078302
56	0x3d88ac0d	0.06673441
57	0xbd2f5ca8	-0.042812973
58	0x3d45eefe	0.048323624
59	0x3db64e1b	0.08901616
60	0x3c8d6105	0.017258177
61	0xba738f6c	-0.0009291086
62	0x3dbb7265	0.091526784
63	0xbdb63751	-0.088972695
64	0xbd2c13ec	-0.042011186
65	0xb8e55940	-0.00010936195
66	0x3d98ac14	0.07454696
67	0xbd0cbcc9	-0.034359727
68	0xbd800667	-0.06251221
69	0x3eaef8b0	0.34174109
70	0xbd135874	-0.035973027
71	0xbc047c4c	-0.008086275
72	0xbc990e8b	-0.018683692
73	0x3b4416e9	0.0029920882
74	0x3c6bd974	0.014395107
75	0xbe095a5a	-0.13413373
76	0xbd5f8f62	-0.0545801
77	0xbcf22a25	-0.029561112
78	0xbdc02a71	-0.09383095
79	0x3defa1b1	0.11700762
80	0x3d8ea226	0.06964521
81	0x3e918b9b	0.28426823
82	0x3d206167	0.03915539
83	0x3dadc348	0.084845126
84	0xbde13565	-0.10996512
85	0x3da27940	0.07933283
86	0xbe6959ca	-0.22788158
87	0xbca83aa9	-0.020535784
88	0x3e652aca	0.22379604
89	0x3e1723a0	0.14759684
90	0xba95408e	-0.0011387037
91	0xbc05ab10	-0.00815846
92	0xbd333245	-0.043749113
93	0xbcdeadfb	-0.02718257
94	0x3cb7648b	0.02238681
95	0xbddc5ea1	-0.107602365
96	0x3de7c2f0	0.11316478
97	0x39de2192	0.00042368151
98	0xbd1b8a8e	-0.037973933
99	0x3d2439ba	0.040094115
100	0x3cb0b877	0.021572335
101	0x3d1f8f85	0.03895523
102	0xbbf0e238	-0.007351186
103	0xbcb53b59	-0.022123026
104	0xbeb2450f	-0.34818313
105	0x3cc0616a	0.02348395
106	0x3e269b04	0.16270071
107	0xbd0a473c	-0.03375934
108	0xbca1eb6e	-0.019765582
109	0x3bb3c0be	0.005485623
110	0xbc1c4808	-0.009538658
111	0xbec33417	-0.3812568
112	0xbec72b90	-0.38900423
113	0x3d4abaf9	0.049494717
114	0xbc2aa3f2	-0.010415064
115	0xbf58470c	-0.8448341
116	0xbd374c3c	-0.044750437
117	0xbd2ffd52	-0.042966194
118	0xbc541156	-0.012943586
119	0xbd5e12e4	-0.054217234
120	0xbd8fd337	-0.07022708
121	0x3d2fc0ef	0.042908605
122	0x3df9b814	0.12193313
123	0x3d8a43bc	0.067512006
124	0xbf8ae1d2	-1.0850165
125	0xbccfd334	-0.025369264
126	0xbc1049b4	-0.008806635
127	0x3d4cf8fb	0.050042134
128	0xbd4d49a1	-0.050119046
129	0x3e096aa4	0.13419586
130	0xbdb23136	-0.087007925
131	0xbd01be7d	-0.031675804
132	0x3c8979ae	0.016781654
133	0xbe05876f	-0.13039945
134	0xbed657bc	-0.4186381
135	0xbd087694	-0.03331621
136	0x3e214e52	0.15752533
137	0x3d2d930d	0.042376567
138	0xbb3fb1d0	-0.0029250272
139	0xbe4ae2c0	-0.19813061
140	0xbdf5685d	-0.11982796
141	0xbc1d4fe6	-0.009601569
142	0xbdaa4f20	-0.08315873
143	0xbc285bf6	-0.010275831
144	0xbd4f1d1d	-0.050564874
145	0x3e0b87e5	0.13626058
146	0xbd5aafe6	-0.053390406
147	0x3d677ee1	0.056517486
148	0x3e1d6f60	0.15374517
149	0xbd31c1d6	-0.043397747
150	0x3bb122f6	0.005405779
151	0xbce7fd57	-0.028319044
152	0xbd8cf927	-0.068834595
153	0xbd23645b	-0.03989063
154	0x3e0ec7a3	0.13943343
155	0x3d65788b	0.05602316
156	0xbd1f9ceb	-0.038968008
157	0xbd4bfc70	-0.04980129
158	0x3e8d87ee	0.2764277
159	0x3d4721fe	0.0486164
160	0xbc18e923	-0.009332928
161	0xbb9da277	-0.004810627
162	0x3da265dc	0.079295844
163	0x3da58a97	0.080830745
164	0xbd84bbfe	-0.06481169
165	0xbc14f717	-0.009092114
166	0xbdd86962	-0.10566975
167	0xbe940e5f	-0.28917214
168	0xbe244bab	-0.1604449
169	0x3bc8b68f	0.0061252783
170	0x3c55455d	0.013017026
171	0x3cf8f4f6	0.030390244
172	0xbf17dce0	-0.59321404
173	0xbc614de3	-0.01375148
174	0xbd4665f2	-0.048437066
175	0xbad8a0fb	-0.0016527468
176	0xbd708ac9	-0.058726106
177	0x3d05126b	0.032488268
178	0xbdcc4cd4	-0.09975591
179	0xbd7359ce	-0.059411816
180	0xbd3467f5	-0.044044454
181	0xbd49f269	-0.049303446
182	0xbed8bd9f	-0.4233217
183	0xbd246bda	-0.040141918
184	0xbd9361e8	-0.071964085
185	0xbd374832	-0.044746585
186	0x3d9e0b15	0.077169575
187	0xbd87d18f	-0.06631767
188	0x3c901a2b	0.017590603
189	0x3c44b852	0.012006836
190	0xbbebfebf	-0.007201999
191	0xbcd796ed	-0.026317084
192	0x3ceafff5	0.028686503
193	0xbcf61d01	-0.030043127
194	0x3d077114	0.033066824
195	0xbdfd5f66	-0.123717114
196	0xbd4fa2fd	-0.050692547
197	0xbd699ca6	-0.057034157
198	0xbd3e1253	-0.046404194
199	0xbc941499	-0.018076228
200	0xbcfa0aa0	-0.030522645
201	0x3d01dd92	0.031705447
202	0x3c48f1da	0.012264693
203	0xbf9923e6	-1.196408
204	0xb9a5e306	-0.00031640398
205	0x3b15c1f9	0.0022851212
206	0xbb4d86a4	-0.003136077
207	0xbc642e96	-0.013927123
208	0xba728012	-0.00092506513
209	0xb9d69c5b	-0.00040933755
210	0xbe9c4ab7	-0.30525753
211	0x3b45afc1	0.0030164572
212	0x3b10636f	0.0022031923
213	0xbe998ba4	-0.2998935
214	0xbed0cdfe	-0.4078216
215	0xbdc47118	-0.095918834
216	0xbe322b45	-0.17399319
217	0x3a1404f7	0.0005646492
218	0xbdef84dc	-0.11695263
219	0xbdd02c3a	-0.101646855
220	0xbeb3315b	-0.34998593
221	0xbede49e3	-0.43415746
222	0xba960b68	-0.0011447491
223	0xbc236c66	-0.009974575
224	0x3d266b53	0.040629696
225	0x3d5fb1d6	0.054612957
226	0xbebff7d4	-0.37493765
227	0x3cfdf49c	0.031000428
228	0x3bb9c13e	0.005668788
229	0x3d8e8172	0.069582835
230	0xbefd826b	-0.49513564
231	0xbf8f29ab	-1.1184591
232	0x3d484584	0.04889442
233	0x3cd17789	0.025569694
234	0xbb13de32	-0.0022562859
235	0xba28e18c	-0.00064423005
236	0xbd0c1be7	-0.034206297
237	0x3a31ba8a	0.00067798106
238	0xbebaea40	-0.36506844
239	0xbb840752	-0.004029193
240	0xbc21c31c	-0.009873178
241	0xbd14d440	-0.03633523
242	0xbeabf876	-0.33587998
243	0xbdd06921	-0.10176302
244	0xbb8d8692	-0.0043190205
245	0x3d8af2c4	0.06784585
246	0xbd8bc8de	-0.06825422
247	0xbee8d31f	-0.45473573
248	0x3cb17930	0.021664232
249	0xbd5d5317	-0.05403432
250	0x3b9048ff	0.004403233
251	0xbdbe6728	-0.09297019
252	0x3b5dc3bc	0.003383859
253	0xbc9183a5	-0.017762968
254	0x3a8228a8	0.0009930329
255	0xbd17f2ab	-0.03709666

layer2.bias f4 [200]
0	0x41804253	16.032385
1	0x41f11c56	30.138836
2	0x41d93082	27.148685
3	0x41fb30a5	31.398752
4	0x41d25a8e	26.294216
5	0x4187ac1e	16.959042
6	0x417bf9ae	15.748457
7	0x41c57a41	24.684694
8	0x41fa397b	31.278067
9	0x41ef4c73	29.912329
10	0x417af480	15.684692
11	0x418999aa	17.200031
12	0x41c000c9	24.000383
13	0x41cd2369	25.64229
14	0x41f4adfe	30.584957
15	0x41e11eea	28.140095
16	0x41fb001f	31.37506
17	0x4177ebc3	15.495059
18	0x417400fc	15.25024
19	0x418387c2	16.441288
20	0x4173ed59	15.245446
21	0x41546ebe	13.277037
22	0x416ec6e7	14.92356
23	0x41c2636a	24.298542
24	0x41667452	14.4033985
25	0x416e1196	14.879293
26	0x420280e0	32.625854
27	0x41ca2b6b	25.2712
28	0x418239fe	16.278316
29	0x41935530	18.416595
30	0x41efc5da	29.971607
31	0x417e989f	15.912261
32	0x41782da2	15.511141
33	0x41d139e7	26.153273
34	0x41a72040	20.890747
35	0x41d18a27	26.192457
36	0x41d47af5	26.560038
37	0x41b46396	22.548626
38	0x41c7867c	24.940666
39	0x41f9e694	31.237587
40	0x41bf3970	23.903046
41	0x41cb1854	25.386879
42	0x41c3c5cd	24.471582
43	0x41d5a0d4	26.70353
44	0x41e0c1e5	28.094675
45	0x41e50c23	28.630926
46	0x41926d39	18.303331
47	0x418d6179	17.672594
48	0x415edd1a	13.92898
49	0x418bb553	17.463537
50	0x41e55eda	28.671314
51	0x4174c429	15.297891
52	0x41d5b3f3	26.712866
53	0x41d8653b	27.049429
54	0x4139d10d	11.613538
55	0x418c4cf5	17.537577
56	0x41a9aac2	21.208378
57	0x41f1dc06	30.232433
58	0x42016d3f	32.356686
59	0x41d99d35	27.201761
60	0x418db33f	17.712523
61	0x4185b14b	16.711569
62	0x419d1bba	19.638538
63	0x41dc7d6d	27.561243
64	0x41e7aea9	28.960283
65	0x41c1b4cd	24.213282
66	0x41a82530	21.018158
67	0x4183b598	16.463669
68	0x41f050fd	30.039545
69	0x4192530a	18.290546
70	0x41ba051a	23.252491
71	0x4203b377	32.92526
72	0x41759bf9	15.350579
73	0x41961d1a	18.76421
74	0x41d49946	26.57484
75	0x41ea1c84	29.263924
76	0x4182f9d2	16.371983
77	0x4185b818	16.71489
78	0x41a1cf01	20.226076
79	0x41e32757	28.394209
80	0x418a31d2	17.274326
81	0x4172449f	15.141753
82	0x41824800	16.285156
83	0x419660c3	18.797247
84	0x41ad4242	21.657352
85	0x41f555a0	30.66681
86	0x41cbfdf3	25.498999
87	0x41812a43	16.145636
88	0x417d2d9d	15.823636
89	0x41993f11	19.155794
90	0x4156a06c	13.4141655
91	0x4200ff2c	32.24919
92	0x41bc9add	23.575617
93	0x41809e63	16.077337
94	0x417cf916	15.810812
95	0x41f16bb7	30.177595
96	0x41e63ff4	28.781227
97	0x4186e592	16.862095
98	0x41b3bc7e	22.467037
99	0x41b41ca2	22.51398
100	0x418b4f76	17.4138
101	0x41efc327	29.97029
102	0x41f59bde	30.701107
103	0x4181ac6b	16.209188
104	0x41dc2c26	27.521557
105	0x417a7c81	15.655396
106	0x419b54b2	19.416355
107	0x41d2c3d9	26.345629
108	0x41ce84ca	25.814838
109	0x41fcef51	31.616854
110	0x417ee412	15.930681
111	0x41c7d44a	24.978657
112	0x41dd68c5	27.676157
113	0x419668a1	18.801088
114	0x41c7a24e	24.95425
115	0x41ce470d	25.784693
116	0x41cc75f9	25.557604
117	0x416b532e	14.707808
118	0x41953ef4	18.655739
119	0x41928b31	18.317965
120	0x41f529af	30.645353
121	0x41bf1179	23.883532
122	0x41d50acc	26.630272
123	0x41b4ccfa	22.600086
124	0x41eb7997	29.43437
125	0x41cc15a7	25.510572
126	0x418ede39	17.858507
127	0x4184836a	16.564167
128	0x41dd54cf	27.66641
129	0x41ebd895	29.480753
130	0x41922482	18.267826
131	0x41c85384	25.04078
132	0x41e15989	28.168718
133	0x417aed0c	15.682873
134	0x4197814d	18.938135
135	0x41d4d8ec	26.605919
136	0x416fabfd	14.979489
137	0x41c3dd27	24.482985
138	0x41cb02c6	25.376354
139	0x410349a8	8.2054825
140	0x4176abfc	15.416988
141	0x41c316f8	24.386215
142	0x413c560a	11.771006
143	0x41a65c7e	20.795162
144	0x416f0564	14.938816
145	0x41f161f7	30.172834
146	0x41998750	19.19107
147	0x419a0bfa	19.255848
148	0x413c0cd2	11.75313
149	0x41cf1391	25.884554
150	0x4195b5e5	18.713816
151	0x41d2db72	26.357151
152	0x41830cbc	16.381218
153	0x41a518b2	20.637058
154	0x41ab75ff	21.432615
155	0x418a3f67	17.280958
156	0x41876c14	16.927773
157	0x41875121	16.914614
158	0x41d44671	26.534395
159	0x41c977d8	25.183517
160	0x415fa6cd	13.978223
161	0x41893ef4	17.155739
162	0x41f5d370	30.728241
163	0x41dc376b	27.52706
164	0x41c76176	24.922588
165	0x4186af49	16.835588
166	0x415229aa	13.135172
167	0x41ff84a6	31.93977
168	0x41b3722f	22.430754
169	0x41f03747	30.02699
170	0x418908ec	17.129356
171	0x41dd296c	27.645226
172	0x4184fa42	16.622196
173	0x41f0b17a	30.086658
174	0x418f3773	17.902075
175	0x41fbc02f	31.46884
176	0x41afd140	21.977173
177	0x41ea6471	29.299044
178	0x41c904b9	25.127306
179	0x41f335c1	30.401247
180	0x41829af6	16.325665
181	0x41ab3a55	21.403482
182	0x41dbd537	27.479109
183	0x41cd0980	25.629639
184	0x41f2189d	30.262018
185	0x418f5304	17.915535
186	0x41f0feb7	30.124372
187	0x41e37650	28.43277
188	0x417dc648	15.8609085
189	0x41c159bd	24.168818
190	0x41b41c43	22.5138
191	0x4198dd58	19.108078
192	0x4171ae08	15.104988
193	0x418259cd	16.293848
194	0x41cf91be	25.946163
195	0x41d1ba67	26.216017
196	0x418492f1	16.571749
197	0x41c1868a	24.190693
198	0x41f552d4	30.665443
199	0x41f0e364	30.11103

layer3.weight f4 [200, 200]
0	0xbd9a8df3	-0.07546606
1	0xbc080d83	-0.008304003
2	0x3d04c305	0.032412548
3	0xbfe28d8c	-1.7699447
4	0x3c55ee4c	0.013057303
5	0x3ad05b59	0.0015896364
6	0x3cc6afb2	0.0242537
7	0x39cc605f	0.00038981714
8	0xbfd81f6c	-1.6884589
9	0xbdc60664	-0.09669188
10	0x3c246709	0.010034331
11	0x3d17db89	0.0370746
12	0xbd4fa62d	-0.050695587
13	0x3bdf6201	0.006817103
14	0xbbf7c0ee	-0.007560841
15	0xbd26ec65	-0.040752787
16	0x3c2807d3	0.010255772
17	0x3cd749bf	0.026280282
18	0xbcdd201e	-0.026992854
19	0x3cf96e2a	0.030448038
20	0x3d5eca2b	0.05439202
21	0x3d67c14c	0.056580827
22	0x3cdf7362	0.027276698
23	0xbccc4c77	-0.024938805
24	0x3bf06668	0.0073364265
25	0xbcb46790	-0.022022039
26	0xbe57970f	-0.21053718
27	0xbd5d6c72	-0.0540585
28	0x3c51c65c	0.01280364
29	0x3bf38368	0.0074314363
30	0xbc98d301	-0.018655302
31	0x3baf63c2	0.005352468
32	0x3c00f06d	0.007869822
33	0x3c9662e9	0.01835771
34	0xbc8a90cc	-0.016914748
35	0xba75f4ef	-0.0009382506
36	0x3cb96b18	0.022634074
37	0x3c274a20	0.010210544
38	0x3b758e0c	0.00374687
39	0xbdd2322c	-0.10263476
40	0xbdc32027	-0.09527617
41	0xbd78ce32	-0.06074352
42	0x3c2c3b34	0.010512162
43	0xbc37adc3	-0.011210862
44	0x39adc8f1	0.00033146844
45	0xbb457f6a	-0.003013576
46	0xb9cf756a	-0.00039569597
47	0x3d2dccdf	0.04243171
48	0x3d16da1c	0.0368291
49	0x3d34e056	0.044159256
50	0xbb9bffa6	-0.0047607003
51	0x3d108336	0.035281383
52	0x3b35fdf5	0.0027769778
53	0x3c90420f	0.017609624
54	0x3dada3bc	0.084784955
55	0x3cc5bd50	0.024138123
56	0xbc791323	-0.015202316
57	0xc00a72cb	-2.1632564
58	0xbbd14827	-0.006386775
59	0x3b0b5cfe	0.0021265144
60	0x3ccc93a4	0.024972744
61	0x3cbe37b5	0.023219923
62	0x3cef4e17	0.02921204
63	0x3d859447	0.06522422
64	0xbcbb792b	-0.022884926
65	0x3d497ecd	0.049193192
66	0xbba40a9c	-0.0050061475
67	0x3c89eeac	0.01683744
68	0xbcdddb9d	-0.027082259
69	0xbc852d82	-0.016257051
70	0x3beb6f1d	0.0071848766
71	0xbef5b88c	-0.4799236
72	0xbc281f63	-0.010261389
73	0x3c46dcf7	0.012137643
74	0xbb293052	-0.0025816155
75	0x3d19ce80	0.03755045
76	0x3d6a2cc0	0.057171583
77	0x3a4c1b68	0.0007786066
78	0x3bd19817	0.0063963044
79	0xbbfcbdbc	-0.007713048
80	0xbc099bdd	-0.008398977
81	0x3d592fc0	0.053024054
82	0x3d15ce3e	0.03657364
83	0x3c9be234	0.01902876
84	0xbc30d875	-0.010793795
85	0xbe6f9df2	-0.23400095
86	0x3c09a6ca	0.008401582
87	0x3c408c2f	0.011752172
88	0x3b4b8a7e	0.003105789
89	0xbd41c603	-0.04730798
90	0x3d395c27	0.0452539
91	0xbe42e059	-0.19030894
92	0x3d3c8be2	0.04603184
93	0x3c7ab79c	0.015302565
94	0x3d4802ca	0.048830785
95	0x3b173459	0.0023071973
96	0x3c3503e3	0.01104829
97	0x3ce58f82	0.028022531
98	0x3c499c33	0.012305307
99	0xbd372334	-0.044711307
100	0x3d3e766b	0.04649965
101	0x3bab5bd3	0.005229452
102	0xc00d6c7a	-2.209746
103	0x3cfcf7ea	0.030879933
104	0xb9ebd1a3	-0.00044978884
105	0x3cc8a127	0.024490906
106	0x3c9f2e59	0.01943128
107	0xbd92123a	-0.07132383
108	0x3c623b57	0.013808093
109	0x3c9b33fd	0.018945688
110	0x3b3a2cbe	0.0028408016
111	0xbd70a519	-0.0587512
112	0x3db43f94	0.08801189
113	0xbc489135	-0.012241651
114	0xbba01a65	-0.004885959
115	0x3c82ef39	0.01598321
116	0xbb871cb6	-0.0041232957
117	0x3d239808	0.03993991
118	0x3bf507cf	0.0074777375
119	0x3d1698df	0.036766883
120	0xbd8723fe	-0.06598662
121	0xbc317e28	-0.010833301
122	0x3ab404ca	0.0013734337
123	0x3a43d31f	0.0007470119
124	0xbc24b9b4	-0.010054041
125	0x3d05006b	0.0324711
126	0x3c983488	0.018579736
127	0x3c0f243c	0.008736666
128	0x3cd1063b	0.025515666
129	0xbd6b0b57	-0.05738386
130	0x3c328390	0.010895625
131	0x3d0081d0	0.0313738
132	0xbbc78df7	-0.0060899216
133	0x3cdc1e6c	0.026869975
134	0x3c9938fd	0.018703932
135	0x3c2783a1	0.010224254
136	0x3d80840c	0.06275186
137	0xbd908959	-0.07057447
138	0xbd122662	-0.035681136
139	0x3d89f10b	0.067354284
140	0x3cc6304a	0.024192948
141	0x3a6492f7	0.0008719409
142	0xbb979fec	-0.0046272185
143	0x3c128e77	0.008945099
144	0xbcc2b33d	-0.023767108
145	0x3d479510	0.04872614
146	0xbcbe9130	-0.02326259
147	0xbc44c7b9	-0.012010508
148	0x3c7534e1	0.014966221
149	0x3a686787	0.00088655244
150	0xbb7ab3bd	-0.0038254105
151	0x3b8dfb04	0.004332902
152	0x3cb0a7af	0.021564333
153	0xbcae12ac	-0.021249138
154	0xbbb51b99	-0.0055269715
155	0x3d27f92e	0.04100912
156	0xbaa525ce	-0.0012599768
157	0x3cbf55a6	0.02335627
158	0xbc3e8c5a	-0.011630142
159	0xbd639671	-0.055563394
160	0x3dcf8f87	0.101347975
161	0x3c93a5f0	0.018023461
162	0xbfc51e5e	-1.5399892
163	0xbb9cb4a7	-0.0047822776
164	0xbcf65b2f	-0.030072777
165	0x3d12008b	0.03564505
166	0xbbe6e937	-0.0070468443
167	0x3c430ed4	0.011905391
168	0xbc3455b5	-0.011006762
169	0xbd318a92	-0.04334504
170	0x3d3876ae	0.045035057
171	0x3da43f36	0.08019869
172	0x3c9ed2bc	0.019387595
173	0xbce2c11f	-0.027679978
174	0xbc2db89c	-0.010603096
175	0x3d6c7b1a	0.057734586
176	0xbbf4427d	-0.007454215
177	0xbb791acc	-0.0038010357
178	0x3bab0f7c	0.0052203517
179	0xbff15f96	-1.8857296
180	0x3b181cee	0.0023210603
181	0xbcd48105	-0.025940428
182	0xbc05c956	-0.008165678
183	0xbb6284c3	-0.0034563995
184	0x3b458b7a	0.003014295
185	0xbc270b68	-0.010195591
186	0xbd856885	-0.06514076
187	0x3aec5834	0.0018031658
188	0x3cc41790	0.023937017
189	0xbc8641e8	-0.016388848
190	0xbcf0d0c2	-0.029396418
191	0xbdc66d61	-0.09688831
192	0x3d562471	0.052280847
193	0x3c59631b	0.0132682575
194	0xbc178e7e	-0.009250281
195	0x3bba7b9e	0.005691006
196	0x3c727878	0.01479923
197	0xbc14b953	-0.009077388
198	0xbbae6513	-0.0053221076
199	0xbffda95b	-1.9817308
200	0x3c8a12e4	0.01685471
201	0x3e472f24	0.19451576
202	0x3d7cdf2d	0.061736275
203	0xbc867227	-0.016411854
204	0x3c3d8fc6	0.011569923
205	0x3bf97729	0.007613082
206	0xbb112ff1	-0.002215382
207	0x3dab9dbe	0.08379696
208	0xbce8315f	-0.028343854
209	0x3e47c71b	0.19509546
210	0x3bd33b12	0.0064462507
211	0x3bf17a75	0.0073693343
212	0x3d4a23e3	0.04935063
213	0x3c165157	0.009174666
214	0x3e29c5aa	0.16579309
215	0x3de86f0f	0.11349308
216	0x3e5a01a8	0.21289694
217	0x3cc87a7f	0.024472473
218	0x3d793cc5	0.06084897
219	0x3c87c49b	0.016573241
220	0x3cc531d2	0.024071608
221	0x3c353e09	0.011062154
222	0x3c4c6369	0.012474873
223	0x3d5c5fb6	0.053802215
224	0x3d0a58e1	0.033776168
225	0x3c753a92	0.0149675775
226	0x3f09d15b	0.53835076
227	0x3d92adc6	0.07162051
228	0x3d259db5	0.040433604
229	0xbcd2a65d	-0.025714094
230	0xbc85a014	-0.016311683
231	0x3d0eaf10	0.03483492
232	0x3d3f213a	0.046662547
233	0x3d97a257	0.07404011
234	0xbae77ab2	-0.0017660467
235	0x3bd5d69e	0.0065258285
236	0x3d439f0e	0.04775911
237	0x3d9cfd80	0.07665539
238	0x3d8b8b3d	0.06813667
239	0x3e822473	0.25418434
240	0x3bb40492	0.005493709
241	0x3df148be	0.117814526
242	0x3d919953	0.071093224
243	0xbc8d63a6	-0.01725943
244	0x3c1f76d7	0.0097329235
245	0x3de02434	0.10944405
246	0x3d38fafe	0.04516124
247	0xbbd8792f	-0.006606243
248	0x3c4959f0	0.012289509
249	0xbc142e00	-0.00904417
250	0xbcb0b94a	-0.021572728
251	0x3d0e5f6b	0.034758966
252	0x3d2080b4	0.03918524
253	0x3d14833e	0.036257975
254	0x3da0651b	0.07831784
255	0xbaf4f34c	-0.0018688231

layer3.bias f4 [200]
0	0x41a4a306	20.579601
1	0x419d8235	19.688578
2	0x41df05a5	27.877756
3	0x419fde1e	19.983456
4	0x41ea8089	29.312761
5	0x41a85d14	21.045448
6	0x41a10486	20.127209
7	0x41b550f0	22.66452
8	0x41c12c61	24.14667
9	0x41c86cb6	25.053082
10	0x41ed4d95	29.662882
11	0x41dba380	27.454834
12	0x41d86fcc	27.054588
13	0x41e9065b	29.128103
14	0x41e78227	28.93855
15	0x41dcf617	27.620161
16	0x41a209be	20.254757
17	0x41bddc9e	23.732723
18	0x419b64f7	19.4243
19	0x41940e8e	18.507107
20	0x41cbe8fd	25.488764
21	0x41ad235f	21.642271
22	0x419b22de	19.392025
23	0x41b46c5a	22.552906
24	0x41b52bde	22.64642
25	0x41eb9d31	29.451754
26	0x41ef6106	29.922375
27	0x419efeaa	19.874348
28	0x419b7a46	19.434704
29	0x41ee4de3	29.78803
30	0x41d82acb	27.020895
31	0x41b57d2a	22.686115
32	0x41ea59b5	29.293802
33	0x41c33d17	24.404829
34	0x41d88890	27.06668
35	0x41b76f64	22.92939
36	0x41c608a1	24.754213
37	0x41e09369	28.071978
38	0x41d05dc5	26.045786
39	0x41a4884f	20.566557
40	0x41c8a25e	25.07928
41	0x41c24edb	24.288504
42	0x41b0c0af	22.094084
43	0x41b9c72f	23.222258
44	0x41ed0ac1	29.63025
45	0x41ffe799	31.988085
46	0x41c291b7	24.32115
47	0x41e825d1	29.018465
48	0x418cc630	17.596771
49	0x41a2b3c0	20.337769
50	0x41edaf8d	29.710718
51	0x41be7d2b	23.811117
52	0x41a2c3a0	20.34552
53	0x41ebfc29	29.498125
54	0x41d84d1b	27.03765
55	0x41a8033a	21.001575
56	0x41ebc3dd	29.470636
57	0x41ec6c24	29.552803
58	0x41b5e567	22.737013
59	0x41ef6819	29.925829
60	0x41e33832	28.40244
61	0x41de0fef	27.75778
62	0x41d7e004	26.984383
63	0x41df818e	27.93826
64	0x419de7d0	19.73819
65	0x41bf611d	23.922419
66	0x41d645bb	26.784048
67	0x41e75189	28.914812
68	0x419e291f	19.770079
69	0x419b4676	19.409405
70	0x41a7da20	20.981506
71	0x41c11908	24.137222
72	0x4182d088	16.351822
73	0x41b0e333	22.110937
74	0x41aa0574	21.252663
75	0x419a9361	19.321962
76	0x41eebb0a	29.841328
77	0x41bc00c7	23.50038
78	0x419ee42a	19.861408
79	0x41d2f11d	26.367731
80	0x41d7cc48	26.974747
81	0x41f7b535	30.96348
82	0x41b6588e	22.79324
83	0x41baeb1a	23.364796
84	0x41c507c4	24.628792
85	0x41cb44b5	25.408548
86	0x41d4281b	26.519583
87	0x419f27c3	19.894415
88	0x41a09c99	20.076464
89	0x41cbd447	25.478651
90	0x41acc269	21.594927
91	0x41f1b177	30.211653
92	0x41dff086	27.992443
93	0x41fb6d77	31.42845
94	0x41998977	19.192122
95	0x41ae271c	21.769096
96	0x41ae0e76	21.757061
97	0x41e77295	28.930948
98	0x41d76476	26.924053
99	0x41ad1453	21.634924
100	0x41ed0d2b	29.63143
101	0x41dd43f5	27.658182
102	0x41ab48d2	21.410557
103	0x41e93c4c	29.154442
104	0x41b6ff4f	22.874662
105	0x41e8bc99	29.092089
106	0x41a14db1	20.162935
107	0x41b6cc30	22.8497
108	0x41a4b932	20.590427
109	0x41a51d25	20.63923
110	0x4182a5a3	16.330877
111	0x41a78bb3	20.943213
112	0x41cc79fc	25.559563
113	0x41f9352c	31.150963
114	0x41abdecf	21.483793
115	0x41e5fe99	28.749315
116	0x41d45256	26.540203
117	0x419f920b	19.94631
118	0x41a88f42	21.06995
119	0x42091ab4	34.276077
120	0x419fc78a	19.972431
121	0x41eabd49	29.342424
122	0x41afc696	21.971966
123	0x41bf3da9	23.905107
124	0x41ab9cbc	21.45153
125	0x41db0713	27.378454
126	0x41cafbd6	25.372967
127	0x41a153d8	20.16594
128	0x41db6a95	27.427042
129	0x419b1dd6	19.389568
130	0x41b2a165	22.328806
131	0x41c34209	24.407244
132	0x41dcbda6	27.592602
133	0x41ae6dbe	21.803585
134	0x41c994c2	25.197636
135	0x41acdf73	21.609106
136	0x41f55c4c	30.670067
137	0x41e7d9e4	28.981392
138	0x418ed10f	17.85208
139	0x41a66827	20.800856
140	0x41a0beec	20.093224
141	0x41f0d9a4	30.10627
142	0x41a43438	20.525497
143	0x41ee5350	29.79068
144	0x41a1c920	20.223206
145	0x41a53138	20.649033
146	0x41a45849	20.543108
147	0x41a56f35	20.6793
148	0x419b7c04	19.435555
149	0x41e9b818	29.21489
150	0x41c2cdd3	24.3505
151	0x419ae6b3	19.362646
152	0x419fc58b	19.971457
153	0x41bef1ab	23.868002
154	0x41c15839	24.168077
155	0x41e9b0df	29.211363
156	0x41f4a139	30.578722
157	0x41aaa499	21.33037
158	0x41a718fe	20.887203
159	0x41a686ac	20.815758
160	0x4203320a	32.798866
161	0x41c34206	24.407238
162	0x41b0f965	22.121775
163	0x41a8f615	21.120157
164	0x41d81d3f	27.01428
165	0x41e712ac	28.884117
166	0x419f2e73	19.89768
167	0x41ce2c0a	25.771503
168	0x41b36c2d	22.42782
169	0x41ddd932	27.731052
170	0x420a5e14	34.591873
171	0x41a4e58c	20.612083
172	0x41ec0f56	29.507488
173	0x41c8bfb9	25.093615
174	0x41bacfb4	23.351418
175	0x41c6f168	24.867874
176	0x419ff645	19.995249
177	0x41b03100	22.023926
178	0x41bb59d5	23.418863
179	0x4205c58d	33.44292
180	0x41a58661	20.690615
181	0x41ed3fd5	29.656168
182	0x41a87a47	21.059706
183	0x41b088e4	22.066841
184	0x41dd4273	27.657446
185	0x41d6b284	26.837166
186	0x41bd3cad	23.654627
187	0x41f0474d	30.034815
188	0x419d99dc	19.700127
189	0x41a4a54f	20.580717
190	0x41aec505	21.8462
191	0x41d87112	27.05521
192	0x41a8333d	21.025019
193	0x419b8ab2	19.442722
194	0x4204f510	33.23932
195	0x41a5c3d3	20.720617
196	0x41be2718	23.769089
197	0x41cab43a	25.338001
198	0x41cfd87c	25.980705
199	0x41c8c20f	25.094755

layer4.weight f4 [200, 200]
0	0x3d0de68e	0.034643702
1	0x3bd46f43	0.00648299
2	0x3d8a9411	0.06766523
3	0x3c147355	0.0090607
4	0x3d514e35	0.051099975
5	0x3b23d2bf	0.002499744
6	0x3ca385fd	0.019961352
7	0xb9123038	-0.00013941608
8	0x3d282244	0.041048303
9	0x3d7d7268	0.061876684
10	0x3df64fa9	0.12026913
11	0x3dc17c5c	0.09447548
12	0x3e05743f	0.13032626
13	0x3dc82d4c	0.09774265
14	0x3e84f463	0.25967702
15	0x3da73bb1	0.08165682
16	0x3c29feb2	0.0103756655
17	0x3bb74574	0.0055929963
18	0x3ab95ab8	0.0014141416
19	0x3c371dcb	0.011176537
20	0x3d957249	0.07297189
21	0x3a8dc8a0	0.0010817237
22	0xbbbc0a69	-0.0057385457
23	0xbc012bf2	-0.007884013
24	0x3cb62324	0.022233553
25	0x3e5c83dd	0.21534677
26	0x3e10bf7b	0.14135544
27	0xba969d74	-0.0011491016
28	0x3c9284bc	0.017885558
29	0x3e10fb04	0.14158255
30	0x3d5b4391	0.053531233
31	0x3b7b3d88	0.0038336236
32	0x3e20eb3a	0.15714732
33	0x3c1d305e	0.009594051
34	0x3e1584bb	0.14601414
35	0xbc8f2a0f	-0.01747611
36	0x3c773925	0.015089308
37	0x3dc89de1	0.09795738
38	0x3d93914b	0.07205447
39	0x3c8c1a57	0.017102404
40	0x3d9e1c66	0.0772026
41	0x3cca69ee	0.024708714
42	0x3c8b377f	0.016994236
43	0x3d063b00	0.03277111
44	0x3e836560	0.2566328
45	0x3c56ad6b	0.0131028695
46	0x3cd0a346	0.02546848
47	0x3c299c02	0.010352137
48	0xbca80578	-0.02051042
49	0x3d029fd8	0.03189072
50	0x3dbe3e86	0.09289269
51	0x3cdb06cd	0.026736641
52	0x3c87982d	0.016552055
53	0x3d1d081c	0.03833781
54	0x3e1b884b	0.1518871
55	0x3c9b90bb	0.018989911
56	0x3e2a81a1	0.16651012
57	0x3d86b913	0.06578269
58	0x3cb55eb3	0.022139883
59	0x3e7bee4b	0.2460262
60	0x3d071c26	0.03298583
61	0x3dc2f16e	0.09518705
62	0x3d6fd93f	0.05855679
63	0x3d1b8be0	0.037975192
64	0x3c1e2722	0.009652885
65	0xba6fd384	-0.0009148645
66	0x3db1d26c	0.08682713
67	0x3dead487	0.114663176
68	0x3c587239	0.013210827
69	0x3cc6259c	0.024187855
70	0x3c957713	0.018245256
71	0xbc02ff29	-0.007995405
72	0x3e025831	0.12728955
73	0xbc3f3523	-0.011670384
74	0x3c396c0e	0.011317266
75	0x392cefdc	0.00016492553
76	0x3e5bf2e5	0.21479376
77	0x3cb19f07	0.021682275
78	0xbc2a763c	-0.010404166
79	0x3c111327	0.008854664
80	0x3d8a04d5	0.06739203
81	0x3dea6750	0.114454865
82	0x3cc688b0	0.0242351
83	0x3c7ace03	0.015307906
84	0x3d933fe8	0.071899235
85	0x3cc8be83	0.024504906
86	0x3e15fa59	0.14646281
87	0x3c030671	0.007997141
88	0x3bbb6f3a	0.0057200463
89	0x3d55743b	0.0521128
90	0xbc103943	-0.008802715
91	0xbd8cfc67	-0.068840794
92	0xbc08afe0	-0.008342713
93	0x3bc9a1e9	0.0061533344
94	0x3c420f18	0.011844419
95	0x3d8bdbac	0.068290085
96	0x3ca2dc98	0.019880578
97	0x3e8ecc98	0.27890468
98	0x3db5af95	0.0887138
99	0x3cd20670	0.025637835
100	0x3e6349fb	0.2219619
101	0x3d570f6a	0.052504934
102	0x3c3748c2	0.01118678
103	0x3e638851	0.2221997
104	0x3cb47da0	0.022032559
105	0x3e143c24	0.14476067
106	0x3bbf5aaa	0.0058396654
107	0x3d10e972	0.03537888
108	0x3d005669	0.031332407
109	0x3d9d3012	0.07675184
110	0x3da970ee	0.08273493
111	0x3c91b5be	0.017786857
112	0xbbd059ef	-0.006358377
113	0x3e22d6c7	0.15902244
114	0x3c078bb3	0.008273053
115	0x3e70487e	0.23465154
116	0x3ddc0727	0.10743552
117	0x3c0d9273	0.008640873
118	0x3d20cccc	0.03925781
119	0xba8e86c4	-0.0010873904
120	0xbb221617	-0.0024732405
121	0x3e33ab93	0.17545919
122	0x3ca3eaad	0.020009363
123	0x3caeb2bb	0.02132546
124	0x3d3a8fc2	0.045547254
125	0x3da40107	0.080080085
126	0x3d1aca8d	0.037790824
127	0x3bdc97ae	0.006731949
128	0x3d9e8518	0.07740229
129	0x3c63bde6	0.013900256
130	0x3c1a80bd	0.009430108
131	0x3b0958d9	0.0020957498
132	0x3d6fe777	0.05857035
133	0xbc4107ce	-0.011781646
134	0x3d1ca5c5	0.038244028
135	0x3c19e387	0.009392626
136	0x3c1d60d3	0.009605604
137	0x3e91192e	0.28339523
138	0x3e14851e	0.14503905
139	0x3d6544d9	0.05597386
140	0x3c58ce68	0.013232805
141	0x3e8b99db	0.2726582
142	0x3be5d401	0.007013798
143	0x3e2e865a	0.17043439
144	0x3c914ce4	0.01773686
145	0x3b03ae6b	0.0020092975
146	0xbbc318ad	-0.0059538693
147	0x3c9cfd54	0.019163765
148	0x3bda82a2	0.0066684047
149	0x3e8c89bc	0.27448833
150	0x3d11551d	0.03548156
151	0x3d138c8a	0.0360227
152	0x3e15d777	0.14632975
153	0x3c974a38	0.018468007
154	0xbb4c5e17	-0.0031184012
155	0x3d8ac700	0.067762375
156	0x3cf2308b	0.029564163
157	0x3d165551	0.036702458
158	0x3ca2c21b	0.019867947
159	0x3cc6b1b6	0.024254661
160	0x3c0830e4	0.008312438
161	0x3d271adf	0.04079711
162	0x3cdc0833	0.026859378
163	0x3c3b0296	0.011414191
164	0x3dc55ce7	0.0963686
165	0x3e9632e6	0.29335707
166	0x3d0b3222	0.033983357
167	0x3c8904be	0.016725894
168	0x3ca34f2c	0.019935213
169	0x3d5c71b4	0.053819373
170	0x3c884619	0.016634988
171	0x3bf473e0	0.0074601024
172	0x3d4ebadf	0.050471183
173	0x3a74e8f4	0.0009342574
174	0x3d6f98f2	0.05849547
175	0x3c1dd6a7	0.009633697
176	0x3d157fd2	0.036498852
177	0x3b8ee2d7	0.0043605375
178	0x3c5d23a9	0.013497272
179	0xbbe0e326	-0.0068630157
180	0x3c9e5ae4	0.01933045
181	0x3db7e6e9	0.089795895
182	0x3d16a729	0.03678051
183	0xb9d59fb6	-0.0004074552
184	0x3dc40def	0.0957297
185	0x3c713a04	0.014723305
186	0xbba0cb13	-0.004907021
187	0x3e5e5cbb	0.21715061
188	0x3ca39c5c	0.019972019
189	0x3c83f3dc	0.016107492
190	0x3ca99bf1	0.020704241
191	0x3d66cf89	0.056350265
192	0x3c6abd2e	0.0143273305
193	0x3c818306	0.015809547
194	0x39a74b18	0.0003190867
195	0x3d2f2062	0.042755492
196	0x3ca9d054	0.020729221
197	0x3cb91999	0.022595214
198	0x3c35ee1f	0.011104136
199	0x3d324298	0.04352054
200	0xbd2a2e5d	-0.04154812
201	0xbc944fcd	-0.018104458
202	0xbb887a4a	-0.0041649686
203	0xbcde27fa	-0.027118672
204	0xbda2dd08	-0.079523146
205	0xbcb192b6	-0.021676403
206	0xbcad3c53	-0.021146929
207	0xbd436c00	-0.04771042
208	0xbd2923ee	-0.04129403
209	0x3c6dfe8e	0.014526023
210	0xbd53f9c7	-0.051751878
211	0x3d159ea4	0.036528245
212	0x3d8dfbf0	0.06932819
213	0xbd44987d	-0.047996987
214	0x3d475042	0.048660524
215	0xbd181546	-0.037129663
216	0xbcae3d77	-0.021269543
217	0xbd2f8b41	-0.042857412
218	0xbcc412b3	-0.023934698
219	0xba8db1ea	-0.0010810469
220	0x3b9158d1	0.0044356366
221	0xbd04a0b1	-0.03237981
222	0xbc3121f9	-0.010811322
223	0xbcf2fbac	-0.029661022
224	0xbd2a563e	-0.041586153
225	0x3abdc2d8	0.0014477624
226	0xbd812c3f	-0.063072674
227	0xbcad1c9c	-0.021131806
228	0xbce39696	-0.027781766
229	0xbd82980d	-0.06376658
230	0x3d3a46aa	0.045477547
231	0xbd099b2d	-0.033595253
232	0xbd198a67	-0.037485506
233	0xbd0cdbea	-0.034389414
234	0x3d081819	0.033226106
235	0xbd042c02	-0.03226853
236	0xbd2e1cca	-0.042507924
237	0x3cc7ae45	0.02437509
238	0xba9ceac8	-0.0011971826
239	0xbcd63400	-0.026147842
240	0xbcb9262c	-0.02260121
241	0xbd18aa63	-0.03727187
242	0xbd19b113	-0.037522387
243	0xbd24fed3	-0.04028208
244	0xbc916774	-0.017749526
245	0xbc029b3f	-0.007971584
246	0xbd3f010e	-0.046631865
247	0xbbddeead	-0.006772837
248	0xbcf4da6d	-0.02988931
249	0xbccc9cd0	-0.024977118
250	0x3d2fbec7	0.04290655
251	0xbd35486a	-0.044258513
252	0xbd06323c	-0.03276275
253	0xbd0cd53d	-0.034383047
254	0xbd039698	-0.03212604
255	0xbcc22a67	-0.02370186

layer4.bias f4 [200]
0	0x41a3f039	20.492296
1	0x41e4dbed	28.607386
2	0x419f0e45	19.881968
3	0x41e688b6	28.816753
4	0x419fbed6	19.968182
5	0x419ee654	19.862465
6	0x41e54a2c	28.661217
7	0x41e3e5b4	28.48716
8	0x4195a9fb	18.707998
9	0x419ea6b9	19.831408
10	0x419facc4	19.959358
11	0x41cb0bac	25.3807
12	0x41db34f4	27.400856
13	0x41f7b3e1	30.962831
14	0x41a0b969	20.090532
15	0x41a2ad32	20.334568
16	0x419bd1e8	19.477493
17	0x41c07cf6	24.061016
18	0x4192d825	18.35554
19	0x41a19102	20.195805
20	0x419ef12d	19.867762
21	0x419f1287	19.884047
22	0x41a0cfa2	20.101383
23	0x41db6d9e	27.428524
24	0x41a050dc	20.039482
25	0x41ab2396	21.392376
26	0x41a060aa	20.0472
27	0x41a51c18	20.638718
28	0x41e1ee3c	28.241325
29	0x419d2923	19.645086
30	0x41a23485	20.275644
31	0x41e5155f	28.635435
32	0x419de683	19.737555
33	0x419f559e	19.916805
34	0x419698f1	18.824678
35	0x419ec810	19.847687
36	0x419ed864	19.85566
37	0x42131975	36.77486
38	0x41aeb9d4	21.840736
39	0x41a26e89	20.303972
40	0x41a1394c	20.152977
41	0x41e45861	28.543154
42	0x41bb2cbb	23.396841
43	0x42199ac4	38.40114
44	0x41e1f396	28.243938
45	0x419dc2c5	19.720102
46	0x41bd0e95	23.63212
47	0x4197e47a	18.98656
48	0x41a479e4	20.559517
49	0x41ac516f	21.539762
50	0x41ae4bdc	21.78704
51	0x419f6674	19.925026
52	0x41a046f9	20.034655
53	0x419c0342	19.50159
54	0x4197f60d	18.995142
55	0x41a14617	20.159224
56	0x41991b1e	19.13824
57	0x41a1279d	20.144342
58	0x41b0efb2	22.117039
59	0x41a28c24	20.318428
60	0x419fbe10	19.967804
61	0x419825dd	19.018488
62	0x41dea1ce	27.829006
63	0x41a02b07	20.02101
64	0x420a936b	34.643963
65	0x41cd63ef	25.673796
66	0x419fdac8	19.981827
67	0x419dcf9d	19.726374
68	0x41e58745	28.69105
69	0x41a031fc	20.024406
70	0x41b13842	22.15247
71	0x42063aa7	33.557278
72	0x419e25fb	19.768545
73	0x41b100d0	22.125397
74	0x41975902	18.91846
75	0x419fde8b	19.983664
76	0x419dab7c	19.708733
77	0x41da2c3f	27.271605
78	0x41a43666	20.526562
79	0x41a09fa5	20.077951
80	0x41a08f99	20.070116
81	0x41a0ae83	20.08521
82	0x41830f5b	16.382498
83	0x419c7a72	19.559788
84	0x419f7e1a	19.936573
85	0x41a25e2d	20.295984
86	0x419f5846	19.918102
87	0x419f7a15	19.93461
88	0x41d5ad62	26.70966
89	0x419e6053	19.797033
90	0x419e3e9a	19.780567
91	0x419c8236	19.56358
92	0x421a2388	38.5347
93	0x419c1aa1	19.513002
94	0x419ca1d1	19.579012
95	0x419d485a	19.660328
96	0x41998e13	19.194372
97	0x419d6387	19.673597
98	0x419bb432	19.462986
99	0x41cc1b40	25.513306
100	0x419db2a2	19.712223
101	0x41a0ba64	20.091011
102	0x419ca86e	19.582241
103	0x41a25853	20.293127
104	0x42185f64	38.093155
105	0x41a12ddb	20.14739
106	0x419dd5af	19.729338
107	0x419c38e9	19.527788
108	0x41b4587a	22.543201
109	0x41aa4961	21.28583
110	0x41e3d8a6	28.480785
111	0x41dfa5cf	27.955961
112	0x41b986f7	23.1909
113	0x4196d5da	18.85442
114	0x41a142d0	20.157623
115	0x41a36bfb	20.427725
116	0x419c3b85	19.529062
117	0x41aeb5db	21.838797
118	0x419b6d28	19.428299
119	0x419cfb93	19.622839
120	0x419ffd23	19.998602
121	0x419e0c01	19.755861
122	0x419e14dd	19.760187
123	0x41b2ee87	22.366468
124	0x41a2158f	20.260527
125	0x41986069	19.047075
126	0x41fdd9ce	31.73135
127	0x41a08d2b	20.06893
128	0x42128f24	36.639786
129	0x41e59515	28.697794
130	0x41a19093	20.195593
131	0x419fcebf	19.97595
132	0x419e1960	19.76239
133	0x419ec7b7	19.847517
134	0x41a6f6fc	20.870598
135	0x41d14d69	26.162798
136	0x419e63a9	19.798662
137	0x41e68c2c	28.818443
138	0x41a6f9b4	20.871925
139	0x419e2da8	19.772293
140	0x41a57932	20.684177
141	0x41dad2ce	27.352932
142	0x41ba48a9	23.285479
143	0x419f0e14	19.881874
144	0x419c1468	19.509964
145	0x419ec761	19.847353
146	0x419e912d	19.820887
147	0x41e5529a	28.665333
148	0x419e61bb	19.79772
149	0x419e9c81	19.826418
150	0x41b609ef	22.75485
151	0x419f94a8	19.947586
152	0x41e5e61f	28.737364
153	0x41e40160	28.500671
154	0x419f1c9e	19.888973
155	0x41d1b246	26.212048
156	0x419e6c03	19.80274
157	0x419e5e6b	19.796103
158	0x41b964c0	23.174194
159	0x419f77e2	19.933537
160	0x41e3c0a3	28.46906
161	0x419e7488	19.8069
162	0x41a15ecd	20.17129
163	0x41d6c1e5	26.844675
164	0x41e29012	28.320347
165	0x41e530a9	28.64876
166	0x41b6b088	22.836197
167	0x41977e88	18.936783
168	0x41b2bf54	22.343422
169	0x41a06fc9	20.054583
170	0x41df0369	27.876665
171	0x419daadc	19.708427
172	0x4194267e	18.518795
173	0x41a1e22e	20.23544
174	0x41a11c0a	20.13869
175	0x419f3b59	19.903978
176	0x41e384f9	28.439928
177	0x41a174bf	20.182005
178	0x41a020ef	20.01608
179	0x419e59e9	19.793901
180	0x419e50e2	19.789494
181	0x41a06f8f	20.054472
182	0x419eb2a4	19.837227
183	0x419a97d4	19.324135
184	0x419e1bfa	19.76366
185	0x41a1a4c0	20.205444
186	0x42055040	33.32837
187	0x419f256c	19.893272
188	0x419fccc5	19.974985
189	0x419db395	19.712687
190	0x41a0c42b	20.095785
191	0x41b5e8f8	22.738754
192	0x4211bda2	36.43519
193	0x41a2026a	20.251179
194	0x42129646	36.64675
195	0x4197011f	18.875547
196	0x419db131	19.71152
197	0x419f3576	19.901104
198	0x419f4a47	19.911268
199	0x419e91a3	19.821112
