src/model.pth (torch, 978110 bytes, 16 tensors)

layer1.weight f4 [200, 6]
0	0x3e3e192a	0.18564287
1	0xbeb9dcc0	-0.3630123
2	0x3f50cc63	0.8156187
3	0x4019b71f	2.4018018
4	0xbc9fa3e5	-0.01948733
5	0x400dc0de	2.2148967
6	0xbe0e6855	-0.13906987
7	0x3e7b4e3b	0.24541561
8	0xbeb4c286	-0.3530466
9	0xbe8492ac	-0.25893152
10	0xbecdcde3	-0.40196142
11	0x3e589571	0.21150757
12	0x3eab3a38	0.33442855
13	0x3eb8f35c	0.36123168
14	0xbee38da4	-0.44444
15	0xbfcfe978	-1.6243124
16	0xbeb47a81	-0.35249713
17	0xbf20d9d1	-0.6283236
18	0xbe669a77	-0.22519861
19	0xbea83b40	-0.32857704
20	0x3ea288e1	0.31745055
21	0xbeb220e0	-0.34790707
22	0x3c88c084	0.016693361
23	0xbeceba46	-0.4037649
24	0x3eaac18d	0.33350793
25	0x3f2722ef	0.6528768
26	0xc014973c	-2.3217306
27	0x40f5a83e	7.6767874
28	0x3f21bda3	0.6317999
29	0x4036d6bf	2.856857
30	0x3c37e42f	0.011223837
31	0x3c0a98c4	0.008459274
32	0xc10f0b91	-8.940324
33	0xc013527e	-2.30191
34	0x3edfec6c	0.43735063
35	0x3f021d2b	0.50825757
36	0x3de8ea4e	0.11372815
37	0xbecc1ed7	-0.3986728
38	0x3f6e54d8	0.9309821
39	0x404134d0	3.0188484
40	0x3d3f52c6	0.0467098
41	0x40104a85	2.2545483
42	0x3c81c7a0	0.015842259
43	0x3e8da104	0.27661908
44	0xc07fa596	-3.9944816
45	0xc00d72d7	-2.2101343
46	0x3ebb70fb	0.36609635
47	0xc02d0f81	-2.7040713
48	0x3d314bcb	0.043285172
49	0x3ed31cb7	0.41232845
50	0xbfe39f17	-1.7782925
51	0x40b15ca9	5.542561
52	0x3e7c2548	0.24623597
53	0x40371412	2.8606
54	0x3e63a5be	0.22231194
55	0xbd0ec8a5	-0.03485932
56	0xc0320d08	-2.7820454
57	0x40a3aa1d	5.114516
58	0x3e7a66b0	0.24453235
59	0x404010d6	3.0010276
60	0x3e9cbac9	0.30611256
61	0x3f0112ab	0.5041911
62	0xc050c4fb	-3.2620227
63	0xc00b130c	-2.1730375
64	0xbdecb2bf	-0.115575306
65	0xbf6dcae8	-0.92887735
66	0xbdffcd18	-0.124902904
67	0xbe4dc927	-0.20096265
68	0x3ea7c1e9	0.3276513
69	0x3d964529	0.0733741
70	0xbe9b14b1	-0.30289224
71	0xbe929752	-0.28631073
72	0xbe83a15b	-0.25709042
73	0x3e516459	0.20448436
74	0xbf92915c	-1.145061
75	0xbebb2ae9	-0.36556175
76	0x3e8d495f	0.2759504
77	0xc0162ee6	-2.3466125
78	0x3eb37ca5	0.35056034
79	0x3f099212	0.5373851
80	0xc0beb7d6	-5.959941
81	0xbe800260	-0.25001812
82	0xbd010d19	-0.03150663
83	0xbfb729ec	-1.4309669
84	0x3e223b97	0.15843044
85	0xbf2d7f65	-0.67772514
86	0xbdd5c35e	-0.10437654
87	0x40190efd	2.3915398
88	0xbe22496b	-0.15848319
89	0x4010170d	2.251407
90	0xbe3f83e7	-0.1870266
91	0x3ec5adb0	0.38609076
92	0x3e938976	0.28815812
93	0xbdca8247	-0.0988813
94	0xbe7e95ff	-0.24861906
95	0x3eccd8f5	0.40009275
96	0x3e914906	0.28376025
97	0x3e58d483	0.21174817
98	0xc0047edb	-2.0702426
99	0x40b18f68	5.5487556
100	0x3e89db3b	0.26925072
101	0x404ba832	3.1821408
102	0xbd2bdcb7	-0.041958537
103	0x3de38192	0.11108698
104	0x3e9b3889	0.3031657
105	0xbe691bc6	-0.22764501
106	0xbe0a9df7	-0.13536821
107	0xbe6e7684	-0.23287398
108	0x3dc97698	0.09837073
109	0xbd243637	-0.040090766
110	0x40aba260	5.363571
111	0xc0464dd9	-3.0985014
112	0x3e3771c1	0.17914487
113	0xc0293190	-2.64365
114	0x3e3b6559	0.1830038
115	0xbfa91840	-1.3210526
116	0xbf6f35c5	-0.9344142
117	0xc0c26ad4	-6.0755405
118	0xbefa3587	-0.48868963
119	0x3ed4330e	0.41445202
120	0x3e7e7b67	0.24851762
121	0xbf493a09	-0.7860418
122	0x3ccb3d61	0.024809541
123	0x4016d5e5	2.356805
124	0x3da170be	0.07882832
125	0x402c07f2	2.687985
126	0x3d36dec2	0.044646032
127	0xbf1d7688	-0.6150899
128	0x406c7cdd	3.695121
129	0xc00d89bf	-2.2115324
130	0x3e231683	0.15926556
131	0xc04279cb	-3.0386837
132	0x3e437377	0.19087015
133	0x3dad3a82	0.08458425
134	0x3f7b42df	0.9814891
135	0x40058e52	2.0868115
136	0xbe83d0cc	-0.25745237
137	0x402030a0	2.5029678
138	0x3e592b56	0.21207938
139	0xbe28d8ae	-0.16488907
140	0x3f9e29c3	1.2356495
141	0x3eff9859	0.4992092
142	0xbe840880	-0.25787735
143	0x400d468b	2.2074306
144	0x3dbf1ce7	0.093316846
145	0xbec83b89	-0.39107922
146	0x40297b54	2.6481524
147	0xc00b04b9	-2.1721632
148	0x3ea20e00	0.31651306
149	0xc054b4d1	-3.3235362
150	0x3d608d0e	0.05482202
151	0x3e6dc3a3	0.2321916
152	0xc0420e18	-3.0321102
153	0x40ae3dba	5.445035
154	0x3e568594	0.20949394
155	0x40275a19	2.6148741
156	0xbd40e2c1	-0.04709125
157	0x3ddc7492	0.107644215
158	0xc0001a23	-2.0015953
159	0x3fddd858	1.7331648
160	0x3edd2f5c	0.43200195
161	0xbfd3d3ee	-1.6549051
162	0xbeb2ae14	-0.34898436
163	0x3ea0313d	0.31287566
164	0xc0528458	-3.2893276
165	0xbf3ad9e9	-0.72988755
166	0x3e66891e	0.22513244
167	0xbfeba425	-1.8409468
168	0xbe1209ff	-0.14261626
169	0xbdace3d8	-0.08441895
170	0xc08b3051	-4.349648
171	0xbf1e9390	-0.6194391
172	0x3e831214	0.2559973
173	0xc037470c	-2.8637114
174	0xbe326070	-0.174196
175	0x3dd2f401	0.10300446
176	0x3e541f78	0.2071513
177	0x3e61c784	0.22048765
178	0xbe56d0ef	-0.2097814
179	0x3e62c3c0	0.22144985
180	0x3ea2e8c1	0.31818202
181	0xbefd2853	-0.49444827
182	0x3fa7dd57	1.3114423
183	0x3f53caca	0.82731307
184	0xbeaa5f52	-0.3327585
185	0x3fe99a08	1.8250132
186	0xbd0c667d	-0.034277428
187	0x3da0c34f	0.07849752
188	0x3cda9c1b	0.026685765
189	0x3e28251a	0.16420403
190	0xbe7bb799	-0.24581756
191	0xbd651d8b	-0.055936377
192	0x3e07a9f5	0.13248427
193	0x3f00d58d	0.5032585
194	0xc0630d00	-3.5476685
195	0xbebb7ebf	-0.36620137
196	0x3e2cb207	0.16864787
197	0xbfb0f1b7	-1.3823766
198	0x3e40c613	0.1882556
199	0x3d66ca1a	0.056345083
200	0x3f890106	1.0703437
201	0xc090c9bf	-4.524627
202	0xbd1a8db1	-0.037732784
203	0xbfeba175	-1.8408648
204	0xbe14a556	-0.14516196
205	0xbe8ae653	-0.27128848
206	0x3e92636c	0.28591478
207	0x3ec5070c	0.3848194
208	0x3d78c408	0.060733825
209	0xbe4d0f7d	-0.2002544
210	0xbe008bde	-0.12553355
211	0x3f43ca5e	0.7648066
212	0xbf9cc750	-1.2248325
213	0xc05f998d	-3.493747
214	0xbd2b5765	-0.041831393
215	0x404674c8	3.1008778
216	0xbec2909d	-0.38000956
217	0xbdfc9278	-0.12332624
218	0xbe5ba772	-0.21450594
219	0x3d407fc1	0.046996836
220	0xbe87acba	-0.26498967
221	0xbd388acd	-0.045054246
222	0x3eb72d66	0.35776824
223	0x3d997190	0.074923635
224	0xc085fb08	-4.1868935
225	0xc02c0d0a	-2.6882958
226	0xbe16e467	-0.14735566
227	0xbf894f56	-1.0727336
228	0x3eba479a	0.36382753
229	0x3edcf4c2	0.43155485
230	0xbe72d416	-0.23713717
231	0x40b39c8d	5.61286
232	0x3f097edf	0.53709215
233	0x4012f14f	2.2959783
234	0xbe3fe8ad	-0.18741103
235	0xbe41145f	-0.18855427
236	0xbd929a44	-0.0715833
237	0xbe047c18	-0.12937963
238	0xbec8c0f0	-0.392097
239	0x3eb1d19d	0.34730235
240	0x3c5861a9	0.013206878
241	0xbe7c3cce	-0.2463257
242	0xbef87bed	-0.48532048
243	0x40343c82	2.816193
244	0xbecd1d02	-0.40061194
245	0x404857cd	3.130359
246	0xbec7a807	-0.38995382
247	0xbe36f3cc	-0.17866439
248	0x3f52cecd	0.823468
249	0x3ea2d5de	0.31803793
250	0x3ec4a42e	0.3840651
251	0xc030cb50	-2.7624092
252	0xbeb27613	-0.34855708
253	0xbf287d94	-0.65816617
254	0x406965ca	3.6468377
255	0xbfde45d9	-1.7365066

layer1.bias f4 [200]
0	0x41a645bf	20.784056
1	0x3eb26353	0.34841403
2	0xc19e19dd	-19.762629
3	0x3df557cd	0.11979637
4	0xc0a8bf3b	-5.2733436
5	0xc16d91ec	-14.848125
6	0x41b59b4c	22.700829
7	0xc19aaa49	-19.333147
8	0xc00a5777	-2.1615884
9	0xbfa45879	-1.28395
10	0xc16f0da7	-14.940833
11	0x3df7b416	0.120948955
12	0xbed4e6df	-0.4158239
13	0xc18ecceb	-17.850058
14	0x417097b6	15.037039
15	0x3e469876	0.19394097
16	0x408dbacb	4.429052
17	0xbe3fed42	-0.1874285
18	0x417a9328	15.660927
19	0xc12089e8	-10.0336685
20	0x41a5b424	20.71296
21	0x41125a98	9.147118
22	0x41aced3a	21.615833
23	0x41a178bf	20.183958
24	0xc036c9b5	-2.8560612
25	0xc0a19312	-5.049203
26	0x3f9bc4d4	1.2169442
27	0xbf4bf182	-0.79665387
28	0xbf8cad0e	-1.0990312
29	0xbebc5ff9	-0.3679197
30	0x41aa3475	21.275614
31	0xbdb3159f	-0.08744358
32	0xc199612e	-19.172451
33	0x3fe2316c	1.7671332
34	0x3e287165	0.16449507
35	0xbf04fcda	-0.5194832
36	0xbeb2b8f8	-0.34906745
37	0xc1a61d53	-20.764318
38	0x41311d41	11.069642
39	0xbed09dac	-0.40745294
40	0x4159376a	13.576029
41	0x3f4cae2c	0.79953265
42	0x3f940c0d	1.1566178
43	0x405b3f34	3.4257326
44	0x3e9f32ba	0.3109339
45	0xc1201135	-10.004201
46	0x3ff5df60	1.9208794
47	0x410908c7	8.564643
48	0xc0fa93d9	-7.830548
49	0x3fd12591	1.6339589
50	0xc1a1297c	-20.145256
51	0x3e901e4c	0.28148115
52	0x3ec5d31b	0.38637623
53	0xbf8f84fd	-1.121246
54	0xc1ab4556	-21.408855
55	0x41062f54	8.386555
56	0xc19ed8a7	-19.855787
57	0xc02a193a	-2.6577897
58	0xbfe5a9e5	-1.7942473
59	0xc186e3b4	-16.861183
60	0x3c84ea2b	0.016224941
61	0xbdcb30e8	-0.099214375
62	0xc0c04f47	-6.0096774
63	0x401c825b	2.4454563
64	0x4012121e	2.2823558
65	0xbf24a35f	-0.64311785
66	0xbf38c5a1	-0.7217656
67	0xc1a7b25e	-20.962093
68	0x3feb9f2b	1.8407949
69	0x3cb8a7ff	0.022541044
70	0xc19ecc73	-19.849829
71	0x3da0c15e	0.07849382
72	0x403172ef	2.77264
73	0xbd500ce4	-0.050793543
74	0xbfe441ea	-1.7832615
75	0x3f3df0f7	0.7419581
76	0x415b03f1	13.688462
77	0x3e94595e	0.28974432
78	0xbecea337	-0.40358898
79	0xc1851188	-16.63356
80	0x41afb996	21.965618
81	0xc18e9e19	-17.827196
82	0xc19e73c4	-19.806526
83	0x41a5fec2	20.749393
84	0xbd8e4dd5	-0.06948439
85	0x3fc2ddee	1.5223978
86	0x3e981e4a	0.2971061
87	0xc16cf2ff	-14.809325
88	0xc0dbaaf0	-6.8646164
89	0x3e8f80cc	0.28027952
90	0x4106678d	8.400281
91	0xc197cde9	-18.975542
92	0x40acc82d	5.3994355
93	0x3f1413aa	0.57842505
94	0xbe7b87be	-0.245635
95	0x416c3bd3	14.7646055
96	0x3eec342b	0.4613355
97	0x40ca3fa9	6.320271
98	0xbeb7a511	-0.35868123
99	0xc094b524	-4.647112
100	0x41331e18	11.194847
101	0xc197471e	-18.909725
102	0xc14d15da	-12.817835
103	0x41af28cd	21.894922
104	0x3e8ad46b	0.27115187
105	0x3d2fc4fa	0.04291246
106	0x3e641fcb	0.22277753
107	0xc1ba36d2	-23.276768
108	0xbfbab943	-1.4587787
109	0x41a14fff	20.16406
110	0xc18b0d8e	-17.381618
111	0x40b4c936	5.649562
112	0xc1a3014e	-20.375637
113	0xbe3742f4	-0.17896634
114	0x41a54710	20.659698
115	0xbe1799d5	-0.14804776
116	0xc193228d	-18.39187
117	0x3ec9b3b6	0.3939492
118	0x41ab9e79	21.45238
119	0x3e2e91d2	0.17047814
120	0x3ec688c6	0.38776225
121	0x3e7f33f7	0.24922167
122	0x41a6b00d	20.835962
123	0x3fef2857	1.8684186
124	0x41b107f9	22.128893
125	0x408c03fb	4.375486
126	0xc19bb9f8	-19.465805
127	0x3de08ee6	0.10964756
128	0xc196d0c8	-18.851944
129	0x3ea1bcfa	0.3158949
130	0x4189c6df	17.222105
131	0xbea6f3b5	-0.3260781
132	0xc1938258	-18.438644
133	0xc184debf	-16.608763
134	0xc153dda4	-13.2416115
135	0x3e688890	0.22708344
136	0xc19172f1	-18.181124
137	0xbfada0b3	-1.3564667
138	0x3f0ad5ef	0.54232687
139	0x3fd92750	1.6965122
140	0x3f272d9f	0.6530399
141	0xbeb22df7	-0.34800693
142	0x3f8ff3d9	1.1246291
143	0x41a9e7e6	21.238232
144	0x403fa941	2.9947054
145	0x41ae1d06	21.764172
146	0xbe046e41	-0.12932684
147	0x41ae85a8	21.815262
148	0x3eaaa5d9	0.33329657
149	0x3e9fdc52	0.3122278
150	0xbe1a8e54	-0.15093356
151	0xbf39d7ba	-0.725948
152	0x41147856	9.279379
153	0x419f5586	19.91676
154	0x3e5939bf	0.21213435
155	0x40f6270a	7.6922655
156	0x419f54c6	19.916393
157	0xc00b3ad1	-2.1754649
158	0xc16225ca	-14.134226
159	0x4196b3df	18.837828
160	0xc19ac680	-19.346924
161	0xc153d9f6	-13.240713
162	0x3eca97ea	0.39569026
163	0xc16ab411	-14.668962
164	0x3f87352b	1.05631
165	0xc1876196	-16.92265
166	0x41aa2bf1	21.271456
167	0x41a841c2	21.032108
168	0x3f78e5a5	0.9722541
169	0x3ec8def5	0.39232603
170	0x41111283	9.067019
171	0xc0df3104	-6.9747334
172	0xbcad3428	-0.021143034
173	0xc196a61e	-18.831112
174	0xbeaad54d	-0.3336586
175	0x3fc90185	1.5703589
176	0xbef97692	-0.48723274
177	0x40213b5d	2.5192482
178	0x41a7f6c5	20.995493
179	0xbfdea588	-1.7394266
180	0xbe61c9c9	-0.22049631
181	0x3fd52811	1.6652852
182	0xc0800afb	-4.0013404
183	0x41a62e42	20.772587
184	0x3ea983ac	0.3310827
185	0x40d1244a	6.53568
186	0xbea0837e	-0.3135032
187	0xbe89a04d	-0.26880112
188	0x41a7bf3a	20.968372
189	0x41b04310	22.032745
190	0xc01cb092	-2.448277
191	0x3d3d77a0	0.04625666
192	0x41a296a1	20.32355
193	0x3e94495f	0.28962228
194	0xc11e733a	-9.9031315
195	0x3e89fca7	0.2695057
196	0x3fa5dbb5	1.2957674
197	0x41a2bd76	20.34251
198	0x3e07ce12	0.13262203
199	0xc1a44308	-20.53273

layer2.weight f4 [200, 200]
0	0xb9e3fb98	-0.00043484266
1	0x3c372c2d	0.011179966
2	0x3d3ee5ee	0.046605997
3	0x3a72df0e	0.0009264805
4	0xbd5d9578	-0.054097623
5	0x3ed0b719	0.40764692
6	0x3c2ef566	0.010678625
7	0x3e27def7	0.16393648
8	0x3bc21797	0.0059232223
9	0x3d7ef631	0.062246505
10	0xbcb74a35	-0.022374252
11	0xbd6ca1f5	-0.05777164
12	0xbe85bf3d	-0.26122466
13	0xbc432bbf	-0.011912285
14	0xbd63db04	-0.05562879
15	0x3becbc37	0.0072245854
16	0x3d84c415	0.06482712
17	0x3d8a6c02	0.06758882
18	0xbd350ac4	-0.04419972
19	0x3c5bcd2d	0.013415617
20	0x3d0e614a	0.03476075
21	0xbd454435	-0.04816075
22	0x388ac587	6.617145e-05
23	0xbd83b585	-0.064311065
24	0x3a106242	0.00055078056
25	0x3d810cfa	0.06301303
26	0xbe883017	-0.2659919
27	0xbf0ce45c	-0.5503595
28	0xbde52e18	-0.11190432
29	0xbb74e021	-0.0037365037
30	0x3d3d322a	0.04619042
31	0xbd2c386e	-0.042046003
32	0x3d37d85f	0.044884082
33	0x3d6db036	0.058029376
34	0x3bdf1e64	0.0068090428
35	0xbe8da2f9	-0.276634
36	0x3cdfd89c	0.027324967
37	0xbc679b74	-0.014136184
38	0xbd1474fb	-0.036244374
39	0xbd73f9ca	-0.05956439
40	0x3e172487	0.14760028
41	0xbe41d1f0	-0.18927741
42	0xbed84124	-0.42237198
43	0xbeafe681	-0.34355548
44	0x3d259cdc	0.040432796
45	0xbd0869c2	-0.033303984
46	0x3d7e334e	0.062060647
47	0xbd12adbf	-0.03581023
48	0x3cc5fbb6	0.024167877
49	0x3e9cfd1a	0.3066185
50	0x3d5f26eb	0.054480474
51	0xbc50f955	-0.012754758
52	0xbd4df8be	-0.050286047
53	0x3ea3d673	0.3199955
54	0x3d87bad4	0.066274315
55	0x3e340bd5	0.17582639
56	0x3d928449	0.07154138
57	0xbbe4605c	-0.0069694947
58	0x3cf3546b	0.02970334
59	0x3d1523f3	0.036411237
60	0x3d51c0c1	0.051209215
61	0xbd7242df	-0.059145804
62	0x3d9fe3c0	0.07807112
63	0xbe97ec71	-0.29672578
64	0x3c32db4d	0.010916543
65	0xbec40b76	-0.38289994
66	0xbebfed8c	-0.3748592
67	0x3cde8a6f	0.02716562
68	0xbd8653ea	-0.06558974
69	0xbe5e77f2	-0.21725443
70	0xbd3f1417	-0.04665002
71	0x3ca5bee6	0.020232629
72	0x3e02e96e	0.12784359
73	0xbd7916aa	-0.06081263
74	0x3eef2dc2	0.46714598
75	0xbe547b33	-0.20750122
76	0x3b34a578	0.0027564447
77	0xbb345f11	-0.0027522484
78	0xbc997f40	-0.018737435
79	0xbd4bd42a	-0.049762882
80	0xbd6529c6	-0.05594804
81	0xbd74c639	-0.059759352
82	0x3d2d0e07	0.042249706
83	0xbd08d542	-0.033406503
84	0x3d891f39	0.066954084
85	0xbf803455	-1.001597
86	0x3cab5929	0.020916538
87	0xbc0d88c1	-0.008638562
88	0xbd2bb7d7	-0.04192337
89	0xbc53a4ee	-0.01291774
90	0xbd9235ec	-0.07139191
91	0x3d016d0a	0.03159813
92	0x3c8cdafd	0.017194265
93	0x3cb7917f	0.022408245
94	0x3d0d5a23	0.03450979
95	0xbd187e93	-0.037230086
96	0xbd9e38a6	-0.077256486
97	0xbbedd5ac	-0.0072581377
98	0x3c980af6	0.018559914
99	0xbc0de128	-0.008659638
100	0xbe32d7b6	-0.174651
101	0xbcd4dda6	-0.025984596
102	0xbc159208	-0.009129055
103	0x3d5d80b2	0.05407781
104	0xbd522b36	-0.05131074
105	0x3d6db287	0.058031585
106	0xbd25bce0	-0.04046333
107	0x3c8be6f0	0.017077893
108	0x3d7db18b	0.061936896
109	0xbda299ca	-0.07939489
110	0xbd3e2d2d	-0.0464298
111	0xbf36d979	-0.71425587
112	0x3d7d445b	0.061832767
113	0xbd5c4168	-0.053773314
114	0xbcfc15eb	-0.03077217
115	0xbd82ff8a	-0.063963965
116	0x3e3f26ab	0.18667094
117	0xbd659022	-0.05604566
118	0x3c21601c	0.009849574
119	0xbd890577	-0.066904955
120	0xbb8a249b	-0.0042157895
121	0xbc0452a0	-0.00807634
122	0x3ca6dba0	0.020368397
123	0xbe9f97c2	-0.3117047
124	0xbd301430	-0.042988002
125	0xbf2c5914	-0.6732342
126	0x3d9b4708	0.075819075
127	0x3c2303a4	0.009949598
128	0xbba7a7e7	-0.005116451
129	0xbc3ffa54	-0.011717398
130	0x3d050bc1	0.032481913
131	0xbc3e7749	-0.0116251195
132	0xbd92c9fc	-0.07167432
133	0x3d630c88	0.055431873
134	0x3c93ba46	0.018033158
135	0x3d8a885a	0.06764288
136	0xbd3f5f9f	-0.04672205
137	0xbd298d0f	-0.04139429
138	0xbe924ec4	-0.28575718
139	0xbe8bfdb7	-0.27342007
140	0xbea12b9e	-0.3147859
141	0x3cae282e	0.021259394
142	0xbe8d81bf	-0.2763805
143	0xbd041c65	-0.03225364
144	0xbf68303e	-0.9069861
145	0xbd567fd5	-0.052368004
146	0xbc13b6cd	-0.009015751
147	0x3d6d4e4a	0.05793599
148	0x3cafa7d2	0.021442328
149	0x3c506145	0.012718503
150	0x3d203687	0.0391145
151	0xbea25118	-0.31702495
152	0xbc30f014	-0.010799427
153	0xbd351850	-0.04421264
154	0xbe222a21	-0.15836383
155	0xbe86e290	-0.26344728
156	0x3d49d86e	0.04927867
157	0x3c1d3f2c	0.009597581
158	0x3cd95bd9	0.026533054
159	0xbed3d2e6	-0.4137184
160	0xbcf836cf	-0.030299572
161	0x3dc2a4b9	0.095040746
162	0x3c5641e3	0.013077232
163	0x3d88ed90	0.066859365
164	0xbd9a51f0	-0.075351596
165	0xbc41200b	-0.011787425
166	0x3d856491	0.06513322
167	0x3d2eef46	0.042708658
168	0x3d5310c8	0.051529676
169	0x3d6666f8	0.056250542
170	0xbe695c5b	-0.22789137
171	0x3c49ce54	0.012317259
172	0x3c57dbd5	0.013174971
173	0x3dd72787	0.10505586
174	0xbc73c501	-0.014878512
175	0x3e814a6a	0.25252086
176	0xbef23021	-0.47302344
177	0xbd01539d	-0.03157388
178	0x3d392676	0.045202695
179	0xbf8e2e07	-1.1107796
180	0x3bb329a3	0.00546761
181	0xbe5620ad	-0.20910902
182	0xbe73f32a	-0.23823228
183	0x3d694d1e	0.05695831
184	0x3d6fbbba	0.05852864
185	0xbd4d63d7	-0.050144043
186	0x3d0ac11b	0.033875566
187	0xbcbd3433	-0.02309618
188	0x3d01e2af	0.031710323
189	0x3b698362	0.0035631289
190	0x3dc1d54e	0.09464513
191	0x3d642ceb	0.0557069
192	0x3d68f743	0.056876432
193	0x3c40b056	0.011760792
194	0xbbbfb824	-0.0058508087
195	0x3d198611	0.03748137
196	0xbf6a4565	-0.9151214
197	0x3d6bdff9	0.057586644
198	0x3d217b37	0.039424147
199	0x3d07de9a	0.033171274
200	0xbc184676	-0.009294143
201	0xbcc1fd59	-0.023680376
202	0x3d3cef31	0.04612655
203	0xbd4db0e0	-0.05021751
204	0x3c475388	0.0121659115
205	0xbd286c2b	-0.041118782
206	0xbbeb54da	-0.007181746
207	0xbce2de45	-0.027693877
208	0x3d303776	0.04302164
209	0xbd57d838	-0.052696437
210	0x3d3e66a6	0.046484612
211	0x3c841e70	0.016127795
212	0x39fb7ca9	0.0004796733
213	0x3d33520b	0.043779414
214	0x3c051972	0.008123742
215	0x3ccac4d6	0.024752062
216	0xbc8bade9	-0.0170507
217	0xbd8e9fb4	-0.06964055
218	0xbd44c636	-0.04804059
219	0x3c9f4b9d	0.019445235
220	0x3c6a12b8	0.014286689
221	0xbc32cde3	-0.010913345
222	0xbafb1ac5	-0.0019157758
223	0xbd05e821	-0.03269208
224	0xbc967f31	-0.018371196
225	0xbd6023e6	-0.054721735
226	0xbd52a8bb	-0.051430445
227	0x3d559420	0.052143216
228	0x3d8fb944	0.070177585
229	0x3ce05e01	0.027388575
230	0x3d51a9ad	0.051187206
231	0xbd852c38	-0.06502575
232	0xbcc3d8ca	-0.023907084
233	0x3c9fd3f5	0.019510249
234	0x3d2958e1	0.041344527
235	0x3d4a52b7	0.04939529
236	0xbd4a4207	-0.049379375
237	0xbd68957f	-0.056783196
238	0x3cc2bbeb	0.023771247
239	0xbd43eeaf	-0.04783505
240	0xbc9f8b9f	-0.019475756
241	0x3b224d99	0.002476549
242	0xbd17cfac	-0.037063286
243	0xbcfc2b47	-0.030782355
244	0x3c74d3d4	0.014943082
245	0x3ce05fa7	0.02738936
246	0xbd0a217a	-0.033723332
247	0xbcab9de7	-0.020949317
248	0x3d06412a	0.03277699
249	0xbd5add1f	-0.053433534
250	0xbd69e544	-0.05710341
251	0x3d881146	0.0664392
252	0xbd890485	-0.06690315
253	0xbd1283ed	-0.035770345
254	0x3d24b14c	0.040208146
255	0x3cd7df67	0.026351644

layer2.bias f4 [200]
0	0xc07acb47	-3.918657
1	0x3d771431	0.06032199
2	0xc17a4e2c	-15.644085
3	0xbd3308e8	-0.043709666
4	0xbf119eb8	-0.5688281
5	0xc1329153	-11.16048
6	0x4193b8ee	18.465298
7	0x418f5fe9	17.921831
8	0xc1876e37	-16.928816
9	0x3d00d4a8	0.031452805
10	0x4161d2e2	14.113985
11	0xc18e0bf2	-17.755833
12	0x3c06e022	0.008232148
13	0x3ed8e29c	0.4236039
14	0x3d3fd840	0.04683709
15	0x3c1c872b	0.009553711
16	0x41acd31c	21.60308
17	0x4134fcde	11.311735
18	0xc0b11fc6	-5.5351286
19	0x418de041	17.734499
20	0x3c45aa36	0.012064507
21	0xbd17c5a9	-0.037053738
22	0x418dd70c	17.730003
23	0xbc77df2a	-0.01512889
24	0xc13f2c8c	-11.948376
25	0x3c96dd5b	0.018416097
26	0x41847f10	16.562042
27	0xbd2b3c07	-0.041805293
28	0x3d8abadc	0.06773922
29	0x416b047a	14.688593
30	0x41b43255	22.524576
31	0x3cebcfdd	0.02878564
32	0x3cfe7d40	0.031065583
33	0xbf797783	-0.97447985
34	0xc12df97d	-10.87341
35	0xc0f3a418	-7.613781
36	0x41063f51	8.390458
37	0xbb6ce369	-0.003614629
38	0xbcafc91c	-0.021458201
39	0xc0fc1deb	-7.878652
40	0x413e9192	11.91054
41	0xbf971d18	-1.1805754
42	0xbd0cf497	-0.034412947
43	0xbd17ba84	-0.03704311
44	0x40e3c962	7.118333
45	0x40332ea8	2.7997227
46	0xbf97d043	-1.1860431
47	0x3c9df70c	0.01928284
48	0x3c660dc3	0.014041367
49	0x3cf7401e	0.03018194
50	0x41282e87	10.511359
51	0x411e8b61	9.909028
52	0xc14eac5e	-12.917082
53	0x415ed433	13.926806
54	0x410c0e7c	8.753536
55	0xbfbc766b	-1.4723638
56	0x40143d5c	2.316245
57	0x41a72743	20.89417
58	0xbc2ccf5c	-0.010547485
59	0x3fbd3146	1.4780662
60	0xc0a1ce74	-5.056452
61	0xc121a6f7	-10.103263
62	0x40342618	2.814825
63	0x3b95a0ae	0.0045662737
64	0x3f353230	0.70779705
65	0xc17a8031	-15.656297
66	0x419cda43	19.606573
67	0xc13b90ff	-11.722899
68	0xbd90fb32	-0.07079162
69	0xbb05836d	-0.0020372525
70	0x411098be	9.037291
71	0xbd086803	-0.03330232
72	0x415cfcaf	13.81169
73	0x3d3d9911	0.046288554
74	0x3d527e33	0.051389884
75	0xbcf5bb1b	-0.029996445
76	0x3b91ee02	0.0044534216
77	0xbd8b709f	-0.0680859
78	0x41250c23	10.315463
79	0x3c634cbb	0.013873274
80	0x413c73c2	11.778261
81	0xbd425c01	-0.047451023
82	0xc12710fd	-10.441648
83	0xbd58565b	-0.05281673
84	0x3c23ed3c	0.010005292
85	0xc08386de	-4.1102133
86	0x41ac388a	21.527607
87	0x41253038	10.324272
88	0xbd5b2506	-0.053502105
89	0xc0adbbc6	-5.4291716
90	0xc06bf7d4	-3.6870012
91	0x41841862	16.511906
92	0x418f3d24	17.904854
93	0xc17ca153	-15.789386
94	0xc080fa39	-4.0305448
95	0x3d60dbc5	0.05489709
96	0xbe9639b8	-0.2934091
97	0xbceb0b34	-0.028691866
98	0x4175ca37	15.361869
99	0x3f03bfff	0.5146484
100	0xbd8b1660	-0.06791377
101	0x3cfc04fe	0.0307641
102	0xbd08792c	-0.033318684
103	0xbcf2210a	-0.02955677
104	0xc14183b7	-12.094657
105	0xbd85ec22	-0.065391794
106	0x416f8867	14.970801
107	0x41601da2	14.007235
108	0xbc91d4a9	-0.0178016
109	0xbb851675	-0.004061515
110	0x41376c93	11.464007
111	0x3c827b89	0.015928047
112	0x40ee872c	7.4540005
113	0x3cb83c0f	0.022489576
114	0xc080051f	-4.000625
115	0x4165dd29	14.366494
116	0x41ad6afd	21.67724
117	0xc187b56a	-16.963581
118	0x4062e8e0	3.5454636
119	0x3c7df863	0.015501115
120	0x4134a5e8	11.290504
121	0xc145c51c	-12.360622
122	0xc185f5fe	-16.745113
123	0x40f90460	7.781784
124	0xc18b728f	-17.430937
125	0x3ca3e766	0.0200078
126	0x3d39ac98	0.045330614
127	0x3c2b855a	0.010468805
128	0xc12c991c	-10.78738
129	0x3f4894f0	0.7835226
130	0x415e4828	13.892616
131	0x3cd99567	0.026560498
132	0x413883b5	11.532155
133	0xc185e974	-16.73899
134	0x3c9a7694	0.01885537
135	0xc074cd82	-3.8250432
136	0x419feff1	19.992159
137	0xbd95db8b	-0.07317265
138	0x4146809a	12.406397
139	0xbb3bb9ec	-0.0028644754
140	0xc16a892d	-14.65849
141	0x418f440f	17.908232
142	0xc01d3099	-2.4560912
143	0x4148a0b4	12.539234
144	0xc0bf192a	-5.971822
145	0x4186e8b3	16.863623
146	0xc189afb4	-17.210793
147	0xc167f469	-14.49717
148	0x41271559	10.442712
149	0x4044e61a	3.0765443
150	0xbd3525f9	-0.044225667
151	0x3d56b66b	0.05242006
152	0xbcab078f	-0.020877628
153	0xbd1ef4fe	-0.03880786
154	0xc1923a2c	-18.278404
155	0x419c24ec	19.518028
156	0x40d4b0c1	6.6465764
157	0xbd2589e2	-0.0404147
158	0xbc398b7d	-0.0113247605
159	0x41557b13	13.342547
160	0xc0886c2b	-4.263204
161	0xbd2b5052	-0.041824646
162	0x3cdc726b	0.026910027
163	0x4160a3d3	14.039996
164	0x3fa57649	1.2926723
165	0x417a0bf0	15.627914
166	0x4121865b	10.095302
167	0xbd724f59	-0.059157703
168	0x412cc9b7	10.799247
169	0x3d7e0731	0.062018577
170	0xbc8f2fe8	-0.017478898
171	0x41469579	12.411492
172	0x40b2cece	5.5877447
173	0x40e23906	7.069461
174	0xbe26867a	-0.16262236
175	0xc05effa8	-3.484354
176	0x41355b19	11.334741
177	0xbd255eae	-0.040373497
178	0xc1787039	-15.527398
179	0xbd0b2ffa	-0.0339813
180	0x415087fc	13.033199
181	0x418d9af1	17.700655
182	0xc0f614b7	-7.6900287
183	0x4161239f	14.071197
184	0x4191c752	18.222324
185	0x414b8179	12.71911
186	0xbc9293fc	-0.01789283
187	0xbd6b7d50	-0.057492554
188	0x40c107e5	6.0322137
189	0x3b4908b5	0.0030675356
190	0x3c7a66d7	0.015283308
191	0x3d7e5514	0.062092856
192	0x41971215	18.88383
193	0x3cf0d7e9	0.029399829
194	0xbd90d26c	-0.07071385
195	0xbd73949a	-0.05946789
196	0xbd812075	-0.06305019
197	0xc181aa59	-16.208178
198	0xbea81e77	-0.32835743
199	0x40f83981	7.7570195

layer3.weight f4 [200, 200]
0	0xbd162b01	-0.036662105
1	0x3d398e20	0.045301557
2	0x3d6e2f36	0.058150493
3	0x3cb37b62	0.02190942
4	0xbe24c931	-0.16092373
5	0x3de93679	0.11387343
6	0x3d82f74e	0.06394826
7	0xbcce39c2	-0.025174025
8	0x3bcbf508	0.0062242784
9	0xbbe734df	-0.0070558633
10	0x3e8986b6	0.2686059
11	0xbc2ac83b	-0.010423715
12	0x3b5d4216	0.0033761314
13	0xbdee3990	-0.11632073
14	0xbc5c73d4	-0.01345535
15	0x3c4003fb	0.011719699
16	0x3d4bee51	0.049787823
17	0x3cddbdce	0.027068045
18	0x3d12f080	0.03587389
19	0x3d13cb4e	0.03608256
20	0x3d3ca7b6	0.04605838
21	0x3cf3ae00	0.029746056
22	0x3d929f72	0.07159318
23	0xbd4395d4	-0.04775031
24	0x3db2afae	0.087249145
25	0xbb654955	-0.0034986336
26	0x3dd4957c	0.103800744
27	0x3c8b43d0	0.017000109
28	0xbc576415	-0.01314642
29	0x3d6a974a	0.057273187
30	0x3cb53e8d	0.022124553
31	0x3d3c0b20	0.045909047
32	0xbcc5fb67	-0.02416773
33	0xbe0407c7	-0.12893592
34	0xbdbaeb58	-0.091269195
35	0xbc95fb27	-0.018308235
36	0x3e58eef3	0.21184902
37	0x3cf9313c	0.030418985
38	0x3a805824	0.0009791893
39	0xbda63bd6	-0.081168815
40	0xbd5304ab	-0.051518124
41	0xbe08b953	-0.13351946
42	0x3d88c8be	0.066789135
43	0xbd2ffd8d	-0.042966414
44	0x3d9b9a2f	0.075977676
45	0xbe1e78df	-0.15475796
46	0xbe8accc0	-0.27109337
47	0x3c8d39fb	0.017239561
48	0x3d330e3e	0.043714754
49	0x3cb8a8e7	0.022541476
50	0x3d3aba62	0.045587905
51	0x3d9a824f	0.07544386
52	0xbb483329	-0.0030548072
53	0x3d6d421b	0.05792437
54	0xbd8877a8	-0.066634476
55	0xbe17b872	-0.14816454
56	0x3b17d682	0.0023168628
57	0x3e83003a	0.2558611
58	0xbcd7b644	-0.026332028
59	0xbee6bfbd	-0.4506816
60	0x3d10580f	0.03524023
61	0xbdc5d536	-0.096598074
62	0x3ebc0c82	0.36728293
63	0xbd15e415	-0.03659447
64	0xbdbc69d9	-0.09199876
65	0x3c9f965a	0.019480873
66	0x3e1a197f	0.15048788
67	0x3d927215	0.07150666
68	0xbc97a5dc	-0.018511705
69	0xbc4869d5	-0.012232264
70	0x3d1a3ebd	0.03765749
71	0x3d9bffd2	0.07617153
72	0x3ddefc6d	0.1088799
73	0xbceafc63	-0.0286848
74	0x3cf9d77b	0.030498257
75	0x3d7c2200	0.061555862
76	0x3d3a0527	0.04541507
77	0xbd177900	-0.03698063
78	0xbccaaa53	-0.02473942
79	0xbd645043	-0.055740606
80	0x3dd9abfd	0.10628507
81	0xbc942cbf	-0.018087743
82	0x3d4ab651	0.049490277
83	0xbd46ab34	-0.048503116
84	0xbad21548	-0.0016028071
85	0xbe06c81d	-0.13162275
86	0x3f3d23ef	0.73882955
87	0xbd59492c	-0.053048298
88	0xbd04c435	-0.03241368
89	0x3da5285f	0.08064341
90	0xbdc46ba3	-0.095908426
91	0x3d75cddd	0.06001078
92	0x3de8bf79	0.113646455
93	0xbe097a48	-0.13425553
94	0xbdf0c299	-0.117558666
95	0xbd0ac087	-0.033875015
96	0xbd12d78e	-0.0358501
97	0x3d824595	0.06360928
98	0xbd7d7d8e	-0.061887316
99	0xbdf0244c	-0.11725673
100	0x3c602a38	0.013681941
101	0x3d8f3c19	0.069938846
102	0xbc8c3269	-0.017113881
103	0xbd2f5d62	-0.042813666
104	0x3df5a291	0.11993898
105	0x3cf6dba1	0.030134024
106	0xbd171999	-0.036889646
107	0xbb7b10aa	-0.0038309493
108	0xbbe75ab3	-0.0070603727
109	0x3cd41ccd	0.02589264
110	0xbdc1dbf8	-0.09465784
111	0x3d24e1fa	0.04025457
112	0x3d21833e	0.039431803
113	0xbcbda422	-0.023149554
114	0xbe40f8eb	-0.18844955
115	0x3cc27160	0.023735702
116	0x3c91b9de	0.017788824
117	0xbfd4b5bf	-1.6617965
118	0x3d0bea16	0.03415879
119	0x3d8b46af	0.06800591
120	0x3cbd942e	0.023141947
121	0xbf02d33d	-0.51103574
122	0xbbf442c7	-0.0074542495
123	0xbd0e0003	-0.03466798
124	0x3d92685c	0.07148811
125	0x3c1c5179	0.009540909
126	0xbbfb4cdc	-0.0076690745
127	0xbca7d175	-0.02048562
128	0xbd349a29	-0.04409233
129	0xbcca05ff	-0.024661062
130	0x3dad4dcc	0.08462104
131	0x3d18c14d	0.03729372
132	0x3f19bfc4	0.60058236
133	0xbd844883	-0.06459143
134	0xbd2225ac	-0.039586708
135	0xbcf6b105	-0.030113706
136	0x3c90a584	0.017657049
137	0x3cfb207c	0.030655138
138	0x3d9bf09b	0.07614251
139	0xbd4b6b92	-0.049663134
140	0xbce519b0	-0.02796635
141	0xbd814511	-0.063120015
142	0xbdaae69f	-0.08344769
143	0x3d1ace8b	0.03779463
144	0x3d388aa6	0.0450541
145	0x3d501e55	0.050810177
146	0xbcd1630d	-0.025559926
147	0xbbd6c0af	-0.0065537314
148	0xbd71bf33	-0.059020232
149	0x3d5b9107	0.053605106
150	0x3d35bf4d	0.04437189
151	0x3d0c10d4	0.034195736
152	0x3d12b8d3	0.035820793
153	0xbd191cee	-0.037381105
154	0x3db57825	0.088608064
155	0x3c541dd8	0.012946568
156	0xbd20605b	-0.03915439
157	0xbca368f0	-0.019947499
158	0xbd51b052	-0.051193543
159	0x3e04f71e	0.12984893
160	0x3e209519	0.15681876
161	0x3d369686	0.044577144
162	0xbe61c0b5	-0.22046168
163	0x3c4530ca	0.012035558
164	0xbda47754	-0.080305725
165	0xbd19de4f	-0.037565526
166	0x3d4838e9	0.0488824
167	0xbcd8b0ba	-0.026451457
168	0xbd82360c	-0.06357965
169	0xbcf99251	-0.030465277
170	0x3d0d4c35	0.034496505
171	0x3d880f3d	0.066435315
172	0xbd1463e8	-0.03622809
173	0xbd708707	-0.058722522
174	0xbca0c2d5	-0.019624153
175	0x3e1373bf	0.14399622
176	0x3a06ce9f	0.0005142483
177	0xbd79a485	-0.060947914
178	0xbd26f7d1	-0.04076368
179	0x3d1eec54	0.0387996
180	0x3d2de303	0.042452823
181	0x3cbe149e	0.02320319
182	0xbe961493	-0.29312572
183	0x3c97b1ef	0.018517463
184	0x3e0c7b3c	0.13718885
185	0x3d82b71d	0.06382582
186	0x3d48a955	0.048989613
187	0xbd2a19b3	-0.041528415
188	0xbaf77a06	-0.001888097
189	0x3d64d937	0.055871215
190	0xbcf4d2bb	-0.02988564
191	0x3d4c2bc1	0.049846414
192	0xbd479949	-0.04873017
193	0xbd8f2985	-0.06990341
194	0x39dc9c42	0.0004207809
195	0xbc2df7ec	-0.010618191
196	0xbd0255d5	-0.031820137
197	0x3d497389	0.04918245
198	0xbe71036f	-0.23536466
199	0x3d9d1c92	0.07671465
200	0xbe5ec302	-0.21754077
201	0x3ce0c934	0.027439691
202	0xbf00a4b2	-0.50251305
203	0x3d937d37	0.07201617
204	0xbcc5d621	-0.024149956
205	0xbf0f793c	-0.56044364
206	0x3cbffee4	0.023436971
207	0x3ce29143	0.027657157
208	0x3e39283b	0.18081753
209	0xbd6d8286	-0.057985805
210	0x3e0015fb	0.12508385
211	0x3e087c48	0.1332866
212	0xbbfaa2bb	-0.0076487935
213	0xbe17bc08	-0.14817822
214	0x3c0f65bc	0.008752283
215	0xbd1596f7	-0.036520924
216	0xbcac9f4c	-0.021072052
217	0xbcc396ef	-0.023875682
218	0x3e27128e	0.16315672
219	0x3c492b8d	0.01227845
220	0xbd0d2965	-0.034463305
221	0xbc762855	-0.015024264
222	0xbea29fa0	-0.3176241
223	0xbd83dfc8	-0.06439167
224	0x3e1b525f	0.15168141
225	0xbc7e6188	-0.015526183
226	0x3dbea5b2	0.093089476
227	0xbd030f7e	-0.031997196
228	0x3d15e4c9	0.03659514
229	0xbce9d8f9	-0.028545843
230	0xbe8238f3	-0.25434074
231	0xbd67af67	-0.05656376
232	0xbd778708	-0.06043151
233	0x3eb2a4c7	0.3489134
234	0x3e4c7d73	0.1996973
235	0xbfa574b5	-1.2926241
236	0x3ed7eee7	0.42174456
237	0xbd3c46f5	-0.045966107
238	0xbd8cc62f	-0.06873738
239	0xbe9a59fd	-0.3014678
240	0x3ca5877d	0.020206207
241	0x3e868a7c	0.2627753
242	0xbcaa4a3c	-0.02078735
243	0x3d257a32	0.040399738
244	0xbdebb851	-0.11509765
245	0x3c2f7239	0.010708385
246	0x3dffa98c	0.124835104
247	0xbcc3412e	-0.023834791
248	0xbcb642d5	-0.022248665
249	0xbc51cdb6	-0.012805393
250	0x3d207ff9	0.039184544
251	0xbe54fccd	-0.20799561
252	0xbea86f8a	-0.32897598
253	0xbd30ff2a	-0.043212093
254	0x3d1ec3a6	0.038760804
255	0xbd964c9d	-0.073388316

layer3.bias f4 [200]
0	0x41ad3f6f	21.655973
1	0xbfa29aa7	-1.2703446
2	0x41a33b54	20.403969
3	0x3c8ead24	0.017416544
4	0x3b9578eb	0.0045615337
5	0x41a5b179	20.711657
6	0xbd1fe3da	-0.039035656
7	0xbd58dfdf	-0.052947875
8	0x3cae576e	0.021281924
9	0x410ce524	8.805943
10	0xc14bd2e8	-12.738991
11	0x3d5fe2ff	0.05465984
12	0xc14d072f	-12.814254
13	0xbd1eecf4	-0.038800195
14	0xc1848d31	-16.568941
15	0xbcb12c75	-0.021627644
16	0xc13663ae	-11.399336
17	0x4192d183	18.3523
18	0xbd46dd86	-0.048551105
19	0x41a77cd3	20.93595
20	0xbcf0e3c2	-0.029405478
21	0x3d8aaca4	0.0677121
22	0x4097cca2	4.7437296
23	0xc19d19bb	-19.637564
24	0x3d357fe9	0.044311438
25	0xbd928d5c	-0.071558684
26	0xc1b56177	-22.67259
27	0x3ccc4941	0.024937274
28	0xbcd93f5c	-0.02651947
29	0x3d506e21	0.050886277
30	0xbd07042d	-0.032962967
31	0x4140326b	12.012309
32	0x41a77e56	20.936687
33	0xc1a7ba49	-20.96596
34	0x4146da95	12.428365
35	0xbca9115e	-0.020638164
36	0x41a22e4e	20.27261
37	0x41a2b1db	20.336843
38	0x419d1ab4	19.638039
39	0x3cddfc04	0.02709771
40	0x3c23271a	0.009958053
41	0x4188eab0	17.114594
42	0xc116977a	-9.411982
43	0xbf36ad66	-0.71358335
44	0x4168a122	14.539339
45	0x3c5e9cb4	0.013587166
46	0xbd84f526	-0.06492071
47	0xc1bbaac5	-23.458384
48	0x41a89f02	21.07764
49	0xbffa5481	-1.9557039
50	0xc0f05c8f	-7.5112987
51	0x413d1280	11.817017
52	0xc13ddcec	-11.866436
53	0x418aac6e	17.334194
54	0xc18082f6	-16.063946
55	0x41b6f959	22.871752
56	0xbcd6f53c	-0.026239984
57	0x4139be5a	11.608973
58	0xc12c45a5	-10.767003
59	0x41bfefa9	23.992022
60	0x417e92d9	15.9108515
61	0x3c7e1b0d	0.015509379
62	0x40ac4b0b	5.3841605
63	0xc1a39a97	-20.450483
64	0x41a7bccb	20.967184
65	0x41b9857f	23.190184
66	0x41ad700f	21.679716
67	0xc01a4d9a	-2.4109864
68	0x419d9463	19.697454
69	0x418aabf3	17.33396
70	0xbf269ae4	-0.65080094
71	0x4009e986	2.1548781
72	0x4184a258	16.57927
73	0x3c8ebe06	0.017424595
74	0x419d8650	19.690582
75	0xc158f785	-13.56043
76	0x4196c5c0	18.846558
77	0xc12b9c1a	-10.725611
78	0x417dc311	15.860124
79	0xc1b7f5ed	-22.99508
80	0x3d5372d9	0.0516232
81	0x41b4930f	22.571806
82	0x414f6c46	12.963934
83	0xbc9c1b32	-0.019055936
84	0x4146876b	12.408061
85	0xc182073a	-16.253529
86	0xbc6d0ac6	-0.014467901
87	0x412718c4	10.443546
88	0x417ad8b4	15.677906
89	0xc134980d	-11.287122
90	0x3cde3811	0.027126344
91	0x411a55a2	9.645906
92	0x41757022	15.339876
93	0xbecb3a2b	-0.39692816
94	0x3cdeb24c	0.027184628
95	0xbd8ec3df	-0.06970953
96	0x3d3d44a4	0.04620804
97	0xbb8b9945	-0.0042602145
98	0xbfa2f1ce	-1.2730043
99	0x41a2a16f	20.328825
100	0x3d3ad277	0.04561087
101	0x40d0b211	6.5217366
102	0xc124e5cd	-10.306104
103	0x3cefeb5b	0.02928703
104	0xbc9cc62b	-0.019137463
105	0x41b3db91	22.48221
106	0x41aa9fac	21.327965
107	0x4193159c	18.385551
108	0xc15cbf56	-13.796713
109	0xbd133078	-0.035934895
110	0x4187211e	16.89117
111	0x41b33686	22.401623
112	0x415ea8f2	13.916246
113	0x4124a3ee	10.290022
114	0x40392837	2.8930795
115	0xc17965c5	-15.587346
116	0x41a1993a	20.199818
117	0xbcf028a9	-0.029316263
118	0x41af3e1e	21.90533
119	0x419e3541	19.776003
120	0x405d33f1	3.4562953
121	0x419e2d15	19.772013
122	0xc17eb992	-15.920305
123	0x405b3293	3.4249618
124	0x40a3b821	5.1162267
125	0x3cbf602b	0.023361286
126	0xc12271b1	-10.152757
127	0xc13b2782	-11.697145
128	0xbd8f0278	-0.06982893
129	0xbad0fd58	-0.0015944643
130	0xbcd0f4c6	-0.025507342
131	0xc1924a6d	-18.28634
132	0x3fa0883f	1.2541579
133	0x41846520	16.549377
134	0xbc8397af	-0.01606354
135	0x40ba2061	5.8164525
136	0x4186c24f	16.844877
137	0x41528649	13.157784
138	0xc155fb73	-13.373889
139	0x41b7c3e2	22.970646
140	0x3bb17fa0	0.0054168254
141	0x4199f7e8	19.246048
142	0x3d390fda	0.045181133
143	0x411cd873	9.802844
144	0xc16375e8	-14.216286
145	0xbc1a3b6e	-0.009413583
146	0xc1ab6d84	-21.428474
147	0xbf225b12	-0.6342021
148	0xc1b81afe	-23.01318
149	0xbecd65f6	-0.40116853
150	0x41a99653	21.1984
151	0x3f82d4f7	1.0221242
152	0xc15c64b3	-13.774585
153	0xbd1483ca	-0.036258496
154	0xc1568ecd	-13.409863
155	0x41995ef6	19.171368
156	0x3b948b45	0.004533204
157	0x413e437e	11.891478
158	0x3d740553	0.05957539
159	0x3cf1ca9b	0.029515555
160	0x419c9c3c	19.576286
161	0x417199ae	15.100019
162	0x3da13b80	0.07872677
163	0x400a8e77	2.1649454
164	0x415680ef	13.406478
165	0x3f619928	0.8812432
166	0xbd9cc92f	-0.0765556
167	0x3cccbde1	0.024992885
168	0x41b75b85	22.919687
169	0xbd586062	-0.052826293
170	0xbc2e2d18	-0.010630868
171	0x4192d65b	18.354666
172	0xc008f62b	-2.140025
173	0x3d3cd6f5	0.046103436
174	0x3d82ad71	0.063807376
175	0xc1882c72	-17.021702
176	0xbfa0dbe9	-1.2567111
177	0xc1660cc2	-14.378115
178	0x41b1374f	22.152006
179	0x41075210	8.457535
180	0xc1453d71	-12.3275
181	0xbf80924d	-1.0044647
182	0x3c946904	0.018116482
183	0xbd414191	-0.04718167
184	0x408d29f5	4.4113717
185	0xba530da9	-0.0008051047
186	0xbe05500e	-0.1301882
187	0xc187f4bb	-16.994497
188	0xc19715b5	-18.8856
189	0x41679922	14.474886
190	0x41222d8d	10.136121
191	0xc17d8f61	-15.847505
192	0x41a58dec	20.694298
193	0x419ae1ff	19.36035
194	0x41aa64ee	21.299282
195	0x3c9426ae	0.01808485
196	0x3f46117c	0.7737043
197	0xc0dbfe2b	-6.8747764
198	0x417b20e4	15.69553
199	0x41af0bf7	21.880842

layer4.weight f4 [200, 200]
0	0xbc06f089	-0.008236059
1	0xbc80de00	-0.015730858
2	0xbd8e19a2	-0.06938483
3	0xbd58cef4	-0.05293174
4	0xbcaa050a	-0.020754356
5	0xbd85b6ef	-0.065290324
6	0x3d048ea8	0.03236261
7	0xbce086e4	-0.02740807
8	0xbc9506da	-0.018191744
9	0xbd467266	-0.048448943
10	0xbd0f4151	-0.0349744
11	0xbc9e149b	-0.019296935
12	0xbcd71b53	-0.026258146
13	0x3bf397e4	0.0074338783
14	0xbb3a6a7f	-0.0028444824
15	0xbd116fab	-0.035506885
16	0x3ba02b39	0.004887965
17	0xbbd11dfc	-0.0063817482
18	0xbc88b37a	-0.016687144
19	0x3d6b2d10	0.05741602
20	0xbd6572e5	-0.056017775
21	0xbd412b29	-0.0471603
22	0xbd2fab65	-0.042888064
23	0x3ab4f4e2	0.0013805891
24	0x3d8b189e	0.06791805
25	0x3aeb064e	0.0017930956
26	0x3cec9bc2	0.028882865
27	0xbd58cea9	-0.05293146
28	0xbcba5661	-0.022746267
29	0xbd4e4506	-0.050358795
30	0xbd670031	-0.056396667
31	0xbd284a0a	-0.041086234
32	0x3d3dbddd	0.046323646
33	0xbd38fecc	-0.04516487
34	0x3d82ffac	0.06396422
35	0x3d4a5f76	0.049407445
36	0x3cf70e44	0.03015817
37	0x3d795e37	0.060880866
38	0xbd2ee513	-0.04269893
39	0xbc8a02a5	-0.016846964
40	0x3c9c784f	0.019100336
41	0x3d228902	0.039681442
42	0xbd359429	-0.04433075
43	0x3c30996c	0.010778766
44	0xbd7b6dc9	-0.061383996
45	0xbd6759f5	-0.056482274
46	0xbc3e46a5	-0.011613523
47	0x3c88e9a9	0.01671298
48	0x3d70ad83	0.058759224
49	0x3ce89f5f	0.028396307
50	0x3c260a5e	0.010134308
51	0x3d05035d	0.03247391
52	0xbd01f66f	-0.031729158
53	0xbc10b811	-0.008832947
54	0xbd891202	-0.06692888
55	0xbd33c69d	-0.043890584
56	0x3d3744eb	0.04474346
57	0xbd809478	-0.06278318
58	0xbd350acc	-0.04419975
59	0xbcefca6b	-0.029271325
60	0xbc1ee4f5	-0.009698142
61	0x3c990cc5	0.018682847
62	0x3d588fe7	0.05287161
63	0xbd4fa3ef	-0.05069345
64	0xbd156e79	-0.036482308
65	0x3d4334b9	0.047657702
66	0xbd06ae2a	-0.03288094
67	0xbd88cc0e	-0.06679545
68	0xbd8768fb	-0.0661182
69	0x3d7adf9d	0.06124841
70	0xbd3c6d43	-0.046002638
71	0xbd8ee3bc	-0.06977031
72	0xbbf804cf	-0.0075689326
73	0xbd8830e2	-0.06649949
74	0xbc0fbed4	-0.008773524
75	0xbc8e3a57	-0.017361803
76	0x3d4fba8b	0.05071501
77	0x3cea4177	0.02859567
78	0x3c47df58	0.012199245
79	0x3c46e507	0.012139565
80	0x3ce0a5ef	0.027422873
81	0xbb7cf024	-0.0038595283
82	0x3c08834a	0.008332083
83	0xbc6b934d	-0.014378381
84	0xbcf0677c	-0.02934622
85	0x3bd747ff	0.006569862
86	0xba331de6	-0.00068327633
87	0x3d03c595	0.03217085
88	0xbd8061ac	-0.062686294
89	0xbd720321	-0.059085015
90	0x3d2b6bb4	0.04185076
91	0x3ba3943a	0.004992035
92	0x3bc4b994	0.006003568
93	0x3bcb4535	0.0062033185
94	0x3d2094f9	0.03920457
95	0x3d1f9f41	0.038970236
96	0x3ba65422	0.0050759474
97	0x3c5e8d8a	0.01358355
98	0x3d2db07e	0.042404644
99	0xbd493b1a	-0.04912863
100	0xbd2e1c96	-0.04250773
101	0x3beab3be	0.00716254
102	0x3c3f70a3	0.0116845695
103	0xbd811ea3	-0.063046716
104	0xbd87f2a0	-0.06638074
105	0x3d0c02d2	0.034182377
106	0x3ca100d0	0.019653708
107	0xbd38e2c1	-0.045138124
108	0xbc329b58	-0.010901295
109	0xbcf3e7be	-0.02977359
110	0xbc2e1ef4	-0.010627497
111	0xbd2b182b	-0.041771095
112	0x3cfe2843	0.031025058
113	0x3c12a675	0.008950819
114	0x3d20558d	0.039144088
115	0xbcda49f1	-0.026646586
116	0xbd8c303a	-0.06845136
117	0x3d85ffde	0.065429434
118	0xbd61fc31	-0.05517215
119	0xbc8ac2a3	-0.016938513
120	0x3b829aa3	0.0039857193
121	0xbd1f43fa	-0.038883187
122	0xbd1d885a	-0.038460113
123	0x3ba32b38	0.0049795173
124	0xbd471697	-0.048605528
125	0x3c5a943a	0.013341004
126	0xbbf47b36	-0.007460977
127	0x3af21baa	0.0018471379
128	0x3d3eb89f	0.046562787
129	0xbc73ec37	-0.014887861
130	0xbd0ecba3	-0.03486217
131	0xbcd135aa	-0.025538284
132	0x3d7acaa5	0.061228413
133	0xbcc842cd	-0.024445916
134	0x3c7cc6e1	0.015428276
135	0xbd8c0005	-0.06835941
136	0xbc9c1ba9	-0.019056158
137	0xbd8dd8c7	-0.069261126
138	0x3c1d5bb7	0.009604386
139	0x3d53edfd	0.051740635
140	0xbd8b0ae3	-0.06789186
141	0xbd93721b	-0.07199498
142	0x3c9a1b3d	0.018811816
143	0x3d573ead	0.052550007
144	0xbd84981d	-0.06474326
145	0x3d11abce	0.035564236
146	0xbd4c11e4	-0.04982175
147	0x3bccc1d7	0.0062486934
148	0xbc9ca00d	-0.019119287
149	0x3d0d1a3b	0.034448843
150	0xbd0243fd	-0.03180312
151	0x3d8a2473	0.067452334
152	0xbd80aea9	-0.06283314
153	0xbc016e88	-0.007899888
154	0x3d8a2ad7	0.06746452
155	0xbcdbd338	-0.026834115
156	0xbd16cfdb	-0.03681932
157	0xbd67dec8	-0.056608945
158	0xbd2b2c62	-0.041790374
159	0xbc278f42	-0.010227026
160	0xbd6263d8	-0.055271
161	0xbd891ae3	-0.06694581
162	0xbd540b3b	-0.051768523
163	0xbd18d8f8	-0.037316293
164	0x3d1c9baa	0.03823439
165	0x3c4d1017	0.012516043
166	0xbd34a850	-0.044105828
167	0x3bfaa109	0.0076485914
168	0xbb994f0b	-0.004678612
169	0xbb3da9c6	-0.0028940304
170	0x3d3d177d	0.04616498
171	0x3d875646	0.06608252
172	0xbd8b4017	-0.067993335
173	0xbd5b9832	-0.05361194
174	0x3c6ba351	0.014382199
175	0x3c0ff90f	0.008787408
176	0xbcde8685	-0.027163753
177	0xbb9cf187	-0.0047895345
178	0xbd82fe8e	-0.06396209
179	0x3c589c57	0.013220868
180	0x3cdb41e5	0.02676482
181	0xbd47598e	-0.04866939
182	0xbaaca1dc	-0.0013170796
183	0x3c54cede	0.012988774
184	0xbd349cac	-0.044094726
185	0x3d8eee0f	0.06979
186	0xbd7d3659	-0.061819408
187	0x3d366299	0.044527624
188	0xbd3cbcc2	-0.04607845
189	0x3c92e50e	0.017931487
190	0x3d17ee15	0.037092287
191	0xbae3bbcc	-0.0017374693
192	0xbd53e67a	-0.05173347
193	0x3c3bf84d	0.011472774
194	0xbd49400b	-0.04913334
195	0x3d21aa85	0.03946926
196	0x3d189472	0.037250943
197	0xbd0fd635	-0.035116393
198	0x3d69ce98	0.05708179
199	0x3d8e1457	0.06937473
200	0x3daf56c1	0.08561469
201	0x3e556374	0.2083872
202	0x3c10fa1c	0.008848693
203	0xbd63bba4	-0.05559887
204	0xbd882747	-0.066481166
205	0x3d84dbdb	0.064872466
206	0x3bda0e78	0.006654557
207	0xbd3e58c0	-0.046471357
208	0xbca4c9d6	-0.020115774
209	0x3dd51469	0.104042836
210	0xbdcffd5d	-0.10155747
211	0xbd0f5acc	-0.0349987
212	0xbdc44726	-0.09583883
213	0x3d5e03bb	0.054202776
214	0xbcc6a45b	-0.024248293
215	0x3d31a5bf	0.04337096
216	0x3b444062	0.0029945602
217	0x3da314bc	0.07962939
218	0xbbd551fb	-0.006510017
219	0x3edd2ca3	0.43198118
220	0x3d8fe662	0.07026364
221	0x3d6e8356	0.05823072
222	0x3d82fb53	0.063955925
223	0xbb81ec77	-0.0039649564
224	0x3d4b5694	0.049643114
225	0xbcc39db1	-0.023878904
226	0xbdd27134	-0.10275498
227	0x3d47070b	0.0485907
228	0x3cbe9cad	0.023268068
229	0xbd5d391f	-0.054009553
230	0xbbd2be4c	-0.0064313766
231	0x3d769141	0.06019712
232	0x3dc3c046	0.095581576
233	0xbe32a1cd	-0.17444535
234	0x3d3be839	0.04587576
235	0xbd77ba17	-0.060480203
236	0x3ef628e1	0.48078063
237	0x3d83ed3f	0.064417355
238	0x3e72a5b3	0.23696022
239	0xbd2e9842	-0.042625673
240	0x3bd2a4ae	0.0064283228
241	0x3b07975d	0.0020689585
242	0xbd80d9e7	-0.062915616
243	0x3d90a1fe	0.070621476
244	0xbd0514e8	-0.03249064
245	0xbd9073cc	-0.070533365
246	0xbd260eb9	-0.040541384
247	0xbcefaafd	-0.029256338
248	0xbca2bff0	-0.019866914
249	0x3d05712f	0.032578643
250	0xbd1cd911	-0.03829295
251	0x3dbdd19c	0.092684954
252	0xbd4e7b3c	-0.050410494
253	0x3c9e0ad3	0.01929227
254	0x3d2b619d	0.04184114
255	0x3d330818	0.04370889

layer4.bias f4 [200]
0	0xbc575b2d	-0.013144297
1	0x411fb78a	9.982309
2	0x4122c4d9	10.1730585
3	0xc0e880b3	-7.2657104
4	0xbd16ad25	-0.036786217
5	0x3d4e13d1	0.050311867
6	0xc099dcac	-4.8081875
7	0xbbb45ee9	-0.0055044782
8	0xbd0e589c	-0.034752473
9	0x4185021a	16.626026
10	0x40371147	2.8604295
11	0x41a18e6b	20.19454
12	0xbf491c94	-0.7855923
13	0x3d3f19aa	0.046655335
14	0x4195c623	18.721746
15	0x4116e2a7	9.430335
16	0x3c81579a	0.015788842
17	0x4171be8a	15.109018
18	0xbd1d96a0	-0.038473725
19	0x418326d0	16.393951
20	0x41a74375	20.907938
21	0x4176720c	15.402843
22	0xc0944c84	-4.6343403
23	0xbd6b072a	-0.05737988
24	0x41a018f0	20.012177
25	0x4141cf99	12.113183
26	0xc1626e80	-14.151978
27	0x404ddd81	3.2166445
28	0x41b90d44	23.131477
29	0x411d9873	9.849719
30	0x415e527b	13.895137
31	0x41256dcd	10.339307
32	0x41ae7624	21.807686
33	0xbbfe80bd	-0.0077668116
34	0x3d5d052a	0.053960003
35	0x3d10ef23	0.03538431
36	0x418ef01a	17.867237
37	0x3a2dd41d	0.00066310336
38	0x413d22a7	11.82096
39	0x417f76a7	15.966468
40	0x41a76515	20.924356
41	0x41217dae	10.0931835
42	0x405ee537	3.4827402
43	0xc0f5db71	-7.6830373
44	0xbd194e79	-0.037428353
45	0xc0908761	-4.5165257
46	0x419ab0a0	19.336243
47	0xc0b63cb4	-5.69491
48	0x3d85b5aa	0.0652879
49	0xbce48799	-0.02789669
50	0xbecaec06	-0.39633197
51	0xbd93f653	-0.07224717
52	0x419c78b0	19.55893
53	0xbce481dd	-0.027893955
54	0xc15d06b4	-13.8141365
55	0x412e16c3	10.880557
56	0x41895a3b	17.169058
57	0xc1993dd2	-19.155186
58	0x41769707	15.411872
59	0x410a8d07	8.6594305
60	0x41902851	18.019686
61	0x40dd9637	6.924587
62	0xc08e5518	-4.4478874
63	0x418148fe	16.16064
64	0x40b5af9e	5.6776876
65	0xc1ab7971	-21.434298
66	0x41a42d6f	20.522184
67	0xc1a6ebe8	-20.865189
68	0x410be403	8.743167
69	0x40fdf3de	7.936019
70	0xbc69cf41	-0.014270605
71	0x4189004c	17.125145
72	0x3d1ae043	0.03781153
73	0x3d047dd9	0.03234658
74	0x413afe46	11.687078
75	0x3d4b9bcc	0.049709126
76	0x3d04e74c	0.032447144
77	0xbd6fe1e0	-0.05856502
78	0x4105d8b6	8.365408
79	0x415bdae9	13.740945
80	0x3e9f3e7e	0.31102365
81	0xbd8331f8	-0.06406015
82	0xc081d417	-4.05714
83	0x417fa3d0	15.977493
84	0x407352e0	3.8019333
85	0x419bd6f1	19.479952
86	0x3cf74548	0.030184403
87	0x3d1ff6d6	0.03905376
88	0xbc8093f4	-0.01569555
89	0x41a664c5	20.799204
90	0x4180e526	16.111889
91	0x4198f252	19.11832
92	0x4189469d	17.15948
93	0x41917cd6	18.185955
94	0x41b07838	22.0587
95	0x416fcee3	14.988009
96	0x3fe85b7b	1.8152918
97	0x412d091f	10.814727
98	0xbd9aa922	-0.07551791
99	0xbd8c1a75	-0.06840984
100	0xbd179ef2	-0.037016816
101	0x418cbe7d	17.593012
102	0x4189eb1f	17.239805
103	0xc19f0ce0	-19.881287
104	0x3d67c35a	0.056582786
105	0xbd9b766f	-0.07590949
106	0x3d861770	0.06547439
107	0x416c4664	14.767185
108	0x3d0728d1	0.03299791
109	0x411cfd6d	9.811872
110	0xc16f1bee	-14.944319
111	0x4034bc85	2.8240063
112	0xbaa6d3c7	-0.001272791
113	0xc19ef6ee	-19.870571
114	0x418ce250	17.610504
115	0x4179cfe2	15.613253
116	0x3cd4804a	0.02594008
117	0xc1ac9c84	-21.576424
118	0x41a96159	21.172533
119	0x40608e1b	3.5086734
120	0x3d4d913f	0.050187346
121	0xc06e5ada	-3.7242951
122	0x3d6d0411	0.057865206
123	0xc12c06e2	-10.75168
124	0x41b5ded2	22.733799
125	0xc08e56a2	-4.4480753
126	0xc1972842	-18.894657
127	0x4123bb30	10.2332
128	0xbcf49da0	-0.029860318
129	0xbd865b45	-0.06560377
130	0xc19184f7	-18.189924
131	0x417b75ec	15.7162895
132	0xbd87ce58	-0.06631154
133	0x3dba8b74	0.0910863
134	0xbd6ce04e	-0.0578311
135	0xbd015171	-0.03157181
136	0xbd0df97c	-0.034661755
137	0xc1b53c8e	-22.654568
138	0x415827c3	13.509707
139	0xc0e0ea48	-7.028599
140	0x4107e004	8.492191
141	0x40cc1cf2	6.3785334
142	0x41b70885	22.87916
143	0x41a5598d	20.668726
144	0x40fbc910	7.868294
145	0x40bc6578	5.8873863
146	0x41a59594	20.698036
147	0x3d19ff01	0.037596706
148	0x418ee450	17.86148
149	0x416ce3dc	14.80563
150	0xc035402e	-2.8320422
151	0x3d05bd74	0.03265138
152	0x4196a9b0	18.832855
153	0xbc3d224e	-0.011543823
154	0xc0c81a37	-6.2532
155	0x3caec01b	0.021331837
156	0x41a8e775	21.113016
157	0x419eac66	19.834179
158	0xbd8266da	-0.06367274
159	0x419914d3	19.135168
160	0xc1b1bdf0	-22.217743
161	0x3d413873	0.047172975
162	0x419b6a78	19.426987
163	0xc18e192b	-17.76229
164	0xbc5dc24a	-0.013535092
165	0xbd68c12c	-0.056824848
166	0x418888f6	17.066875
167	0x4152f1af	13.184005
168	0x41864b6c	16.786827
169	0x412fbc7e	10.983519
170	0x40271a5b	2.6109836
171	0x401aba13	2.417607
172	0x3d7c2d90	0.06156689
173	0x418cf45e	17.61932
174	0x41a09b35	20.075785
175	0x419027ff	18.01953
176	0xbcd73b99	-0.026273536
177	0x4127e979	10.4945
178	0xc0f52381	-7.660584
179	0x3d15b1be	0.03654646
180	0x419ff900	19.996582
181	0x41add082	21.72681
182	0x41227286	10.15296
183	0xbd8e84a3	-0.06958892
184	0x4184e00d	16.6094
185	0x40ed3349	7.4125104
186	0xbf2d8d2d	-0.6779354
187	0x41847780	16.55835
188	0x41316074	11.086048
189	0x41a8951d	21.07281
190	0x416ea17e	14.914427
191	0x41a701a9	20.87581
192	0x41afa58d	21.955835
193	0xbeb17f57	-0.34667465
194	0x4113c9bd	9.2367525
195	0x3f960d12	1.1722739
196	0x41479a56	12.47518
197	0x419d1a8e	19.637966
198	0x4141b27a	12.106073
199	0x419f5fc4	19.92176
