src/model.pth (torch, 978110 bytes, 16 tensors)

layer1.weight f4 [200, 6]
0	0x3b7ae14b	0.0038281258
1	0x3edfe946	0.4373266
2	0x3f3e34b9	0.742992
3	0xc0f4878c	-7.6415462
4	0x3e48eb50	0.19621015
5	0xc05a5a62	-3.4117665
6	0xbe70aace	-0.23502657
7	0xbd833e4d	-0.06408367
8	0xbe62788e	-0.221163
9	0xbe85d203	-0.2613679
10	0xbea9ba92	-0.33150154
11	0xbe44b505	-0.19209678
12	0xbe2b9ef5	-0.16759856
13	0xbe81aa62	-0.25325304
14	0xbe7b5d4c	-0.24547309
15	0x3e2840d3	0.16430978
16	0xbe8fd553	-0.2809244
17	0x3dd168b8	0.10225052
18	0xbeb36c85	-0.3504373
19	0xbe8ca489	-0.2746928
20	0xc07d76ff	-3.960388
21	0xbf8d2d09	-1.1029369
22	0xbc8425f4	-0.016131379
23	0x40346e84	2.8192453
24	0x3d67c927	0.05658832
25	0x3e51b74c	0.20480078
26	0xbe012c1d	-0.12614484
27	0x412c5275	10.770131
28	0x3dc5630a	0.09638031
29	0x402697d4	2.6030169
30	0xbec03aa2	-0.37544733
31	0x3e99c8b8	0.3003595
32	0xbf8c2e27	-1.0951585
33	0xbd9339a8	-0.071887314
34	0x3d01c6f7	0.03168389
35	0x3ddbc081	0.107300766
36	0x3dfcba9c	0.123402804
37	0xbd889f67	-0.066710286
38	0x3ecd59a1	0.40107444
39	0x3f58fad2	0.8475772
40	0x3d35eebe	0.044417135
41	0x4030d5eb	2.7630565
42	0xbe01f71b	-0.1269192
43	0xbf0b1db0	-0.54342175
44	0x4110e421	9.055696
45	0x40d97d01	6.7965093
46	0x3ebe7d2c	0.37204874
47	0x3feac4b1	1.8341275
48	0x3dafdf8c	0.0858756
49	0xbf22abe4	-0.63543534
50	0xbe712eb9	-0.2355298
51	0xc08b6878	-4.3565025
52	0x3d88e393	0.06684031
53	0x40217bed	2.5231888
54	0x3e2522ce	0.16126558
55	0x3ddde5a6	0.108348176
56	0x3f7ae069	0.9799867
57	0xc165f529	-14.372354
58	0xbe58b688	-0.2116338
59	0xbe1240f3	-0.14282589
60	0x3e86e4b5	0.26346365
61	0x3cb533da	0.022119451
62	0xbfb9e098	-1.4521666
63	0x4132e44f	11.180739
64	0xbe6935c3	-0.22774415
65	0x403d7e5b	2.9608371
66	0x3e5d59f8	0.21616352
67	0x3d9c0fcb	0.076202
68	0xbfe3b3d5	-1.7789255
69	0xbfcc7dbb	-1.597587
70	0x3e43de3d	0.19127746
71	0x40331ee2	2.79876
72	0xbe5c922a	-0.21540132
73	0xbe245a43	-0.16050057
74	0xbe77afbc	-0.24188131
75	0x3e8852d2	0.26625687
76	0xbe1e34b2	-0.15449789
77	0x3da9b420	0.08286309
78	0x3dccd0db	0.100007735
79	0xbed6c645	-0.41948143
80	0x3ff92163	1.9463314
81	0x411843fc	9.516598
82	0x3e99944f	0.29995963
83	0x403391c8	2.8057728
84	0x3de8b2c6	0.11362223
85	0x3f186729	0.5953241
86	0xbdf1a4e4	-0.117990285
87	0xbfdb93ae	-1.7154443
88	0xbed4b151	-0.41541532
89	0xbf194bc6	-0.59881246
90	0x3ddbd571	0.1073407
91	0xbcce8412	-0.02520946
92	0xbec4aedd	-0.3841466
93	0xc1189d5d	-9.538419
94	0xbe8f2184	-0.27955258
95	0xbfeda728	-1.8566637
96	0xbdacff3b	-0.08447119
97	0x3f6f4b91	0.9347468
98	0x3fcb16f5	1.5866381
99	0xc0908286	-4.515933
100	0xbe576258	-0.21033609
101	0x3ed0c965	0.40778652
102	0x3eb0957d	0.3448905
103	0x3eb833a5	0.35976902
104	0xbf8f0b64	-1.1175351
105	0xc12f4efc	-10.956783
106	0xbeb8f132	-0.36121517
107	0xbfae99e0	-1.3640709
108	0xbe15dba1	-0.14634563
109	0x3ead4c10	0.33847094
110	0xbdf85e6e	-0.12127386
111	0xbde30402	-0.11084749
112	0xbea48605	-0.321335
113	0xbebc8624	-0.3682109
114	0xbea7f63b	-0.32805046
115	0xbe457326	-0.19282207
116	0xbe8163d8	-0.25271487
117	0xbd087a81	-0.033319954
118	0xbe1b2c31	-0.15153576
119	0xbe94fc34	-0.29098666
120	0xbecbbff1	-0.39794877
121	0x3ea71104	0.3263017
122	0x3fe5614e	1.792032
123	0xbfbda82d	-1.4816948
124	0x3e365ae6	0.17808113
125	0x3edf1fc5	0.43578926
126	0xbecd6e74	-0.40123332
127	0x3e3f63f3	0.18690471
128	0x3e573624	0.21016747
129	0xbcf44b00	-0.029820919
130	0x3c3527f1	0.011056886
131	0xbf337927	-0.7010674
132	0xbe98b2ef	-0.29824015
133	0xbed9e5c2	-0.42558104
134	0x3e0d24f1	0.13783623
135	0xbe4ea579	-0.2018031
136	0x3d937e71	0.07201851
137	0x3effd1ca	0.49964744
138	0xbebcbd27	-0.36863062
139	0x3ed59b15	0.4171988
140	0x3fa2afa3	1.270985
141	0xbe89bca1	-0.26901725
142	0x3e94ac00	0.29037476
143	0x3eab5783	0.33465204
144	0x3e671f83	0.22570615
145	0x3cca89e6	0.024723958
146	0x3f84601d	1.0341831
147	0x40908b47	4.5170016
148	0x3e62b577	0.22139536
149	0xbffc0b07	-1.9690865
150	0x3e558e31	0.20855023
151	0xbdf676b0	-0.120343566
152	0x403871c5	2.881944
153	0xc0beca71	-5.962212
154	0xbe94483f	-0.2896137
155	0x4011f26e	2.2804217
156	0x3e178d9e	0.14800116
157	0x3eca6f2f	0.3953795
158	0xc080aa9a	-4.0208254
159	0x400b2328	2.1740208
160	0xbe603aea	-0.21897474
161	0xbf48a272	-0.7837287
162	0x3a9371d2	0.0011249131
163	0x3e455219	0.19269599
164	0x3fff47fd	1.9943844
165	0x40d66773	6.700128
166	0x3ef05d0b	0.46945986
167	0x403a4ada	2.9108186
168	0x3d93f021	0.07223535
169	0x3e39eec0	0.18157482
170	0x3df586b0	0.1198858
171	0x41074159	8.453454
172	0x3e3677e4	0.17819172
173	0x4030e756	2.7641196
174	0x3e869ac0	0.2628994
175	0x3e86c92e	0.26325363
176	0xbf5561be	-0.8335227
177	0x40a6917b	5.205259
178	0xbe444ee4	-0.1917072
179	0xbffc705b	-1.9721788
180	0x3e850f45	0.25988212
181	0x3eefc9cb	0.46833643
182	0x3fc92f40	1.5717545
183	0x40d57999	6.6710935
184	0x3da7be36	0.08190577
185	0x4033111d	2.7979195
186	0xbe6e6db8	-0.23284042
187	0xbea74744	-0.3267156
188	0xbe10f824	-0.14157158
189	0x3d9a3341	0.07529307
190	0x3dfa52f4	0.12222853
191	0x3ed9da5f	0.42549416
192	0xbbb7b457	-0.005606215
193	0xbf174028	-0.5908227
194	0xc18d02f8	-17.62645
195	0xc114ad05	-9.292241
196	0x3f0cbc35	0.5497468
197	0xbf65b468	-0.89728403
198	0x3dbf6173	0.09344759
199	0x3f173a7f	0.5907363
200	0xc01344a3	-2.3010643
201	0xc0b8c71e	-5.7743063
202	0xbe8fa355	-0.280543
203	0x4048df56	3.1386313
204	0xbea8293c	-0.3284396
205	0xbe4509df	-0.19242047
206	0x3c798e2a	0.015231648
207	0xbec03427	-0.3753979
208	0xbe92346e	-0.28555626
209	0xbdfc0e2c	-0.123073906
210	0x3e652a43	0.22379403
211	0x3e7794f5	0.24177916
212	0x3ecf2286	0.40456027
213	0x41486c66	12.526464
214	0x3e4b4c26	0.19853267
215	0x4032b0ef	2.7920492
216	0xbd653f7c	-0.055968747
217	0x3df4debf	0.11956548
218	0xc1b8b133	-23.086523
219	0xc0ea9abd	-7.331389
220	0x3e700b39	0.23441781
221	0x3e2dd4c2	0.16975692
222	0x3dfd6472	0.12372674
223	0xbea54cb8	-0.32285094
224	0x3e777cac	0.24168652
225	0xc0a89be8	-5.2690315
226	0xbe18d2a0	-0.14924097
227	0x4028c24a	2.6368585
228	0x3e822272	0.25416905
229	0x3e482a11	0.19547297
230	0xc09613e7	-4.6899295
231	0x3f2569f6	0.6461481
232	0x3e15306d	0.14569254
233	0xbf6831a4	-0.90700746
234	0xbe9ac178	-0.3022573
235	0x3eb10220	0.34571934
236	0x3e3bd19f	0.18341683
237	0x3ec3b1d9	0.38221624
238	0xbdfb3881	-0.12266637
239	0xbdd50a33	-0.10402336
240	0xbd06e0d3	-0.032929253
241	0xbe6a2808	-0.22866833
242	0xbdf827ac	-0.12116942
243	0x3da60fde	0.08108495
244	0xbec10554	-0.37699378
245	0xbe683f72	-0.22680452
246	0xbe0f4368	-0.13990557
247	0x3e9c3df0	0.30516005
248	0x3e820c3f	0.25399968
249	0xbe8310a0	-0.2559862
250	0xbe55fcf0	-0.20897269
251	0x3d99c9c8	0.0750919
252	0x3e471e45	0.1944514
253	0xbf2c50ee	-0.6731099
254	0xbee10cf7	-0.43955204
255	0xbf984f39	-1.1899177

layer1.bias f4 [200]
0	0x411765c6	9.462347
1	0x3da3c438	0.0799641
2	0xbd0bb3ba	-0.034106947
3	0xc06fdb27	-3.747751
4	0xc160ea10	-14.057144
5	0x3df18539	0.11792988
6	0x42047de4	33.12294
7	0x40f4e6fc	7.6531963
8	0x4233ef08	44.98343
9	0x41b81d0a	23.01418
10	0xc1a39211	-20.446321
11	0x41db9b86	27.45094
12	0x3e579b25	0.21055277
13	0x4006c130	2.1055412
14	0xc207fc98	-33.996674
15	0x41093bcf	8.577102
16	0xc051ceb2	-3.2782407
17	0x41219ac9	10.100289
18	0x3df3404f	0.118775
19	0x3eaee3ae	0.3415808
20	0x3ec630aa	0.38709003
21	0xbc717eef	-0.014739736
22	0xbe5c4df6	-0.21514115
23	0x3eb74638	0.3579576
24	0xc1b9de6b	-23.233603
25	0x422e3807	43.554714
26	0xc2017d40	-32.372314
27	0x40d75bd7	6.729961
28	0xc1865e45	-16.79603
29	0xc2241fcd	-41.031055
30	0xc0a58c47	-5.1733737
31	0x3e205f75	0.15661414
32	0xc0ed1b90	-7.4096146
33	0x414b037f	12.688354
34	0xbe147843	-0.14499001
35	0xc16739fc	-14.451656
36	0xc14f658d	-12.962293
37	0x423a5003	46.578136
38	0xc1ec3ba3	-29.52912
39	0x3ea62f2b	0.3245786
40	0xbe7e5a96	-0.24839243
41	0xbd46db08	-0.04854873
42	0xc193f3fb	-18.494131
43	0xbece6b6f	-0.4031634
44	0xc1516c9f	-13.089019
45	0xbe48b9a7	-0.19602071
46	0x420dae43	35.420177
47	0x40e51215	7.1584573
48	0xbf57df95	-0.84325534
49	0x3f68d22f	0.90945715
50	0xc1f6c4fd	-30.846186
51	0xbdfb0c77	-0.12258237
52	0xc072a612	-3.7913861
53	0xbe2bd1ab	-0.167792
54	0xbecb00b7	-0.39648983
55	0xbe98b49f	-0.29825303
56	0xc1a82d68	-21.022171
57	0xc06cbdd6	-3.6990867
58	0x407a6bd4	3.9128313
59	0xc0d80a0c	-6.7512264
60	0x4215f6f3	37.49116
61	0xbf6fe46b	-0.93707913
62	0xbddc92d0	-0.1077019
63	0xbe5d40bb	-0.21606724
64	0xc19584bd	-18.689814
65	0x42051c7a	33.27781
66	0xbeb8e199	-0.36109617
67	0xbe0f1ca3	-0.13975768
68	0x40b01a7e	5.503234
69	0xbe193079	-0.14959897
70	0xbe90a505	-0.282509
71	0x423ddc0d	47.464893
72	0x3eaf3cfa	0.3422621
73	0xbe233ecc	-0.15941924
74	0x41c87fed	25.062464
75	0xc00bf04c	-2.1865416
76	0xc096d492	-4.7134485
77	0xbdb80ab6	-0.08986418
78	0xc222b967	-40.681057
79	0xc22e064a	-43.50614
80	0xc20d3fc2	-35.312263
81	0x42424fb9	48.577854
82	0x419f8bdd	19.943293
83	0x41d68235	26.813578
84	0x3cc7aad5	0.024373451
85	0xc1080864	-8.5020485
86	0x411932b8	9.5748825
87	0x3ddd1c51	0.107964166
88	0x41c866d6	25.050213
89	0xc1769d5d	-15.413419
90	0xc21afcbb	-38.746807
91	0xbecc912b	-0.39954504
92	0xc0ddb93b	-6.928861
93	0xbe9c8103	-0.30567178
94	0x40db532f	6.8539042
95	0x3e057a27	0.13034879
96	0xc1347d22	-11.28055
97	0x42064f12	33.577217
98	0xc22b1d2d	-42.778492
99	0x415b8737	13.720511
100	0xc22a7b2a	-42.620277
101	0xbe9b1935	-0.3029267
102	0xc107e00e	-8.492201
103	0x418a75b7	17.307478
104	0x41b983ae	23.189297
105	0xc15eeb4a	-13.932444
106	0xc053a0cc	-3.3066893
107	0x421a8c73	38.637157
108	0xc03076a1	-2.7572405
109	0x42142fe3	37.046764
110	0xc0a0e63e	-5.0281057
111	0xbe3a656d	-0.18202753
112	0x41d74d7c	26.912834
113	0x421b7d82	38.872566
114	0xc12a15f4	-10.63036
115	0x40da0dcf	6.8141856
116	0xc1a92469	-21.142778
117	0x4250de2b	52.21696
118	0x40fe162f	7.940208
119	0x3f6f173a	0.93394816
120	0x3e1a6416	0.15077242
121	0xc08ae352	-4.340249
122	0x4195f5f8	18.745102
123	0x3fcaf746	1.5856712
124	0x42344c7e	45.0747
125	0xbf29358b	-0.66097325
126	0xc1f466da	-30.55022
127	0x419b262f	19.393644
128	0xc1774be1	-15.456025
129	0xbebcf25b	-0.36903653
130	0x3da5594d	0.080736734
131	0xbe32482c	-0.17410344
132	0x41f10a92	30.130161
133	0xc21ef14f	-39.735653
134	0x4143ba10	12.232925
135	0xbb1d23f9	-0.002397774
136	0x417a7c5b	15.65536
137	0x406e71cf	3.7256963
138	0xc16c288e	-14.759901
139	0xc20aa8bc	-34.66478
140	0xc0e3a2e5	-7.1136346
141	0x416092e3	14.035861
142	0xbd669a57	-0.056299534
143	0xc17c4f77	-15.769401
144	0xbe4845f7	-0.1955794
145	0xc01f2716	-2.4867606
146	0xc228bcf1	-42.184513
147	0x3e502250	0.20325589
148	0x42206df8	40.10739
149	0x4238a185	46.157734
150	0x4161ab72	14.104357
151	0xbe9f047c	-0.3105811
152	0x421609a1	37.509403
153	0x3ea5ebdd	0.32406512
154	0x41722232	15.133348
155	0xc158d1b3	-13.551196
156	0xc177f2b9	-15.496758
157	0xbea3afac	-0.31969965
158	0x41792f3b	15.574031
159	0x3e549127	0.20758496
160	0xc10674db	-8.403529
161	0xc15cbae6	-13.7956295
162	0x4201752a	32.364418
163	0x3e1734f5	0.14766295
164	0xbe085af4	-0.13315946
165	0xbde22acc	-0.11043319
166	0xc0fa7a90	-7.8274612
167	0xbf42ebef	-0.76141256
168	0xc090e572	-4.5280085
169	0x4232bfa4	44.68715
170	0xc16f847c	-14.969845
171	0xbe07fefb	-0.13280861
172	0x40d1df89	6.558537
173	0x4096d0d0	4.71299
174	0xbd856050	-0.06512511
175	0x4108124c	8.504467
176	0x3e0a4d3b	0.13506024
177	0x3cfcc270	0.030854434
178	0xc1f6c2d8	-30.845139
179	0x4117548a	9.458139
180	0xbdc2ba62	-0.09508206
181	0xc17313bf	-15.192321
182	0xbe7be47a	-0.24598876
183	0x41fe456d	31.7839
184	0xc1c8522b	-25.040121
185	0xc12d677a	-10.837763
186	0xbec9967d	-0.39372626
187	0xc21ab1d4	-38.67366
188	0x41dd534f	27.665678
189	0xc19346ab	-18.409506
190	0x4233ccbc	44.949936
191	0xc1867af7	-16.810041
192	0x3de94247	0.113895945
193	0xc095b31c	-4.678114
194	0xc1d90bfd	-27.130854
195	0xc1ce62b7	-25.7982
196	0xc166cd03	-14.425052
197	0xc1d3cefc	-26.476067
198	0xc09ab09b	-4.8340583
199	0xc204bbd8	-33.18344

layer2.weight f4 [200, 200]
0	0xbd0dd5da	-0.034627773
1	0x3c5946b8	0.01326149
2	0x3c42ceb9	0.011890107
3	0x3e6ba15d	0.23010774
4	0x3d34c4e4	0.044133082
5	0x3ebbac84	0.36655056
6	0xbd357155	-0.044297535
7	0xbc8b4071	-0.016998501
8	0x3cefad2a	0.029257376
9	0xbae42557	-0.0017406148
10	0x3b698fe6	0.0035638749
11	0x3d08c730	0.033393085
12	0xbb229c82	-0.0024812524
13	0xbc7560c3	-0.014976683
14	0xbd3f1f9d	-0.04666101
15	0xbe054442	-0.1301432
16	0xbf0d9728	-0.5530877
17	0x3b6bf7d6	0.0036005876
18	0x3d5b64d9	0.053562973
19	0xbb9c4f75	-0.004770214
20	0x3e0716fb	0.1319236
21	0xbdaba811	-0.083816655
22	0xbdb9e908	-0.0907765
23	0x3bb7d73e	0.0056103757
24	0xbd148950	-0.036263764
25	0xbdb3a921	-0.08772493
26	0xbcc72f1c	-0.024314456
27	0x3d308faa	0.04310576
28	0xbd05043f	-0.032474753
29	0x3b639803	0.0034728057
30	0xbbce03bd	-0.0062870667
31	0x3a917048	0.0011096084
32	0xbe52e810	-0.20596337
33	0x3c802ad5	0.015645424
34	0x3d081e84	0.033232227
35	0x3c328e7e	0.010898231
36	0xbd157105	-0.036484737
37	0xbb2cff33	-0.0026397228
38	0x3dacaf88	0.084319174
39	0x3d28f9cf	0.04125386
40	0xbd90bbd4	-0.07067075
41	0xbcce1901	-0.025158407
42	0x3c97e7d6	0.018543165
43	0xbeac2c03	-0.33627328
44	0xbdc2287e	-0.094803795
45	0x3d06dec3	0.032927286
46	0x3d6dc65e	0.058050506
47	0xbd62f643	-0.055410635
48	0xbcc8d69e	-0.0245164
49	0xbc551a36	-0.013006737
50	0xbd6e0e31	-0.058119003
51	0xbca38007	-0.01995851
52	0xbe19267b	-0.14956085
53	0x3d8cc71c	0.068739146
54	0xbd29156e	-0.041280203
55	0xbcdb878f	-0.026798038
56	0x3e540893	0.20706396
57	0x3b825f16	0.0039786203
58	0x3d50f18b	0.051011603
59	0xbd15a340	-0.03653264
60	0x3d2aa90f	0.041665133
61	0xbdb13279	-0.08652205
62	0xbb9272a9	-0.004469235
63	0x3de3c847	0.11122184
64	0x3d4ce740	0.050025225
65	0x3ba40a02	0.005006076
66	0x3cd82731	0.026385875
67	0xbd519f4d	-0.05117731
68	0x3cec357f	0.028834103
69	0xbc97a171	-0.018509598
70	0xbbfdf8fd	-0.007750629
71	0xbdbda754	-0.09260431
72	0x3c44a450	0.012002066
73	0xbbfc632e	-0.007702253
74	0xbd195bb2	-0.037440963
75	0x3e4e5b95	0.20152123
76	0xbcc73d41	-0.0243212
77	0xbc14773d	-0.009061632
78	0xbbf743b8	-0.0075459145
79	0x3c205525	0.009785925
80	0x3d761b9f	0.060084935
81	0x3c84b1ca	0.016198058
82	0xbf99c94a	-1.2014554
83	0xbd8055f8	-0.06266397
84	0x3d4a41bd	0.0493791
85	0x3dd1e94b	0.10249575
86	0x3d8e0b55	0.06935755
87	0xbbf8a7bc	-0.007588355
88	0xbd51c66b	-0.051214617
89	0x3dce54b9	0.10074753
90	0xbca5b6b5	-0.020228723
91	0x3d087258	0.03331217
92	0x3e11bed8	0.14232957
93	0xba242a78	-0.0006262432
94	0x3c3882a0	0.011261612
95	0x3caa91af	0.02082142
96	0xbc20cd02	-0.009814503
97	0xbbe01804	-0.0068388004
98	0x3da5f8ec	0.08104119
99	0x3d6fbc02	0.058528908
100	0x3d22d449	0.039753232
101	0xbced13d3	-0.028940117
102	0x3da76e2c	0.081753105
103	0xbcfd20c3	-0.030899411
104	0xbdb26511	-0.08710683
105	0x3e0366dc	0.12832206
106	0x3dca7365	0.09885291
107	0x3d546d59	0.051862095
108	0x3e0f9ee2	0.14025453
109	0xbd05835e	-0.032595985
110	0x3e861d84	0.26194394
111	0xbd3e1140	-0.04640317
112	0xbd223d23	-0.039609086
113	0x3d8384d0	0.06421816
114	0xbc958a24	-0.018254347
115	0x3dd7cfea	0.10537703
116	0x3f3b4251	0.73148066
117	0xbdaec394	-0.08533397
118	0xbd624c3b	-0.05524848
119	0x3d270cd8	0.040783733
120	0xbd5aa3d1	-0.053378884
121	0xbe522fe5	-0.20526083
122	0xbc8bc6cb	-0.017062565
123	0x3e3e97d3	0.18612604
124	0xbca7b9b0	-0.020474285
125	0xbe79d211	-0.2439654
126	0x3d46b11e	0.048508756
127	0xbcbf0c68	-0.023321345
128	0x3dafbd73	0.085810564
129	0xbd1d72f2	-0.0384397
130	0xbbd2b769	-0.0064305556
131	0xbe82aa88	-0.2552073
132	0xbd67df5a	-0.05660949
133	0xbcf810ff	-0.030281542
134	0xbc026819	-0.007959389
135	0x3cab38fc	0.020901196
136	0x3b15ed50	0.0022877045
137	0xbc6188e1	-0.013765545
138	0xbcf8bf93	-0.030364787
139	0x3b968a23	0.004594104
140	0x3cc392ec	0.023873769
141	0x3aefe1ec	0.0018301583
142	0x3d01e92e	0.031716518
143	0x3cf39d0a	0.029737968
144	0xbd82415d	-0.06360123
145	0xba3a59f5	-0.00071087416
146	0x3cd4a66d	0.025958264
147	0x3eac62e6	0.33669204
148	0x3cabe6e3	0.020984119
149	0x3cfcb555	0.030848185
150	0x3e7504c3	0.23927598
151	0x3eb29bf5	0.3488461
152	0xbd62c827	-0.05536666
153	0xbcb06edf	-0.021537242
154	0x3dc2f4f0	0.09519374
155	0xb9dd302e	-0.000421883
156	0x3d5bb253	0.05363686
157	0x3d3b7b19	0.045771692
158	0x3d7af689	0.06127027
159	0xbd4eecc6	-0.050518773
160	0x3da014f0	0.078164935
161	0xbe073835	-0.13205035
162	0xbd4f8fdf	-0.050674316
163	0xbd8234b2	-0.06357707
164	0x3d8a75c9	0.06760747
165	0xbd159e23	-0.036527764
166	0x3cbb6265	0.022874067
167	0x3c897218	0.016778037
168	0xbe9030b9	-0.28162172
169	0x3d4df672	0.050283857
170	0x3cd8c025	0.02645881
171	0x3c530294	0.012879033
172	0x3c066630	0.008203074
173	0x3d6319f9	0.05544469
174	0x3d8c9a49	0.06865365
175	0xbe005107	-0.1253091
176	0x3cdbb40e	0.026819255
177	0xbd3bb663	-0.045828234
178	0x3e42b3e6	0.19013938
179	0x3d860905	0.06544689
180	0xbc915476	-0.01774047
181	0xbd186cbe	-0.03721308
182	0x3d7a47b5	0.06110354
183	0x3da2b2fd	0.079442956
184	0x3dadd8d7	0.084886245
185	0x3cdc126b	0.026864251
186	0x3e88b292	0.26698738
187	0xbc481457	-0.012211881
188	0xbc95bc8f	-0.018278388
189	0x3d9bd17a	0.07608314
190	0xbdadeb56	-0.084921524
191	0xbdcb3700	-0.099226
192	0x3d001e12	0.031278677
193	0xbbab2cee	-0.005223862
194	0x3fdbfecd	1.7187134
195	0xbd8640bf	-0.06555318
196	0xbd8516f9	-0.06498522
197	0x3e1d7eb5	0.15380366
198	0x3e3feadb	0.18741934
199	0xbc7d690d	-0.015466941
200	0xbd5c1fb8	-0.053741187
201	0x3afcfd0b	0.0019301487
202	0xbd8e1c86	-0.06939034
203	0xbbb48dba	-0.005510059
204	0x3d287ae2	0.041132815
205	0xbd38254f	-0.044957455
206	0xbcba02a7	-0.022706343
207	0xbba86260	-0.0051386803
208	0x3d133178	0.03593585
209	0x3cd264f5	0.025682906
210	0xbd130881	-0.03589678
211	0xbd6aa2aa	-0.057284035
212	0xbc767197	-0.01504173
213	0xbd0fffc7	-0.035156038
214	0xbd0c3b3e	-0.034236185
215	0xbcbe0fd9	-0.023200916
216	0xbd1b64e7	-0.037938025
217	0xbd7d02b2	-0.06177015
218	0x3ca5b860	0.020229518
219	0x3c010dfa	0.007876867
220	0xbb24ba70	-0.002513554
221	0x3d2e836d	0.042605806
222	0x3c9f8ee0	0.019477308
223	0x3ca1ddb7	0.019759042
224	0x3c8c903a	0.017158616
225	0x3d1d1c29	0.038356934
226	0x3d74f38d	0.05980258
227	0x3d7cff5c	0.061766967
228	0x3d81cdb5	0.06338064
229	0xbd791bdb	-0.06081758
230	0xbd256f95	-0.040389616
231	0x3d8d5080	0.0690012
232	0xbb987d63	-0.004653619
233	0x3d4f9863	0.050682437
234	0xbce6f34e	-0.028192189
235	0xbd023396	-0.031787477
236	0xbd8ddf37	-0.069273405
237	0x3d77f12c	0.060532734
238	0x3ba419dc	0.0050079655
239	0xbd8ca6dc	-0.068677634
240	0x3ce35f9a	0.027755547
241	0x3d2e47aa	0.042548813
242	0xbd8bf679	-0.0683412
243	0x3c9a54bf	0.018839238
244	0xbc92b30b	-0.01790764
245	0xbcd19474	-0.025583483
246	0x3c8202a5	0.015870402
247	0x3c38e758	0.011285625
248	0xbd83fbad	-0.06444488
249	0x3d25db1f	0.040492173
250	0x3cbf5e8a	0.02336051
251	0x3d5bfd78	0.053708524
252	0xbd91abab	-0.07112821
253	0x3ce8a7d6	0.028400343
254	0xbd70ea7a	-0.058817364
255	0x3d572f87	0.05253556

layer2.bias f4 [200]
0	0x41a90465	21.127146
1	0xbd72dac0	-0.059290648
2	0x41e6c303	28.84522
3	0x3d73eca5	0.059551854
4	0xc1c8981b	-25.07427
5	0x3d850427	0.064949326
6	0xbcf5b115	-0.029991666
7	0x3d7eaf92	0.062179156
8	0x3d6759b4	0.056482032
9	0xc1b32c43	-22.396612
10	0xbcf621d4	-0.030045427
11	0x41b6f67f	22.87036
12	0x41dcf5b8	27.61998
13	0xbe5826b2	-0.21108511
14	0xba5d4f72	-0.0008442319
15	0x41497b1d	12.592557
16	0xc213a92a	-36.9152
17	0xc22787b6	-41.88253
18	0xbc9eaeb1	-0.019370409
19	0x3d7542a2	0.059878
20	0x421bdb22	38.963997
21	0xbd4a7993	-0.04943235
22	0xbc4e077f	-0.012575029
23	0xbc80f820	-0.015743315
24	0xc057effb	-3.3740222
25	0xb98c02f6	-0.00026705087
26	0x40b5e387	5.6840243
27	0xbbc7bd9a	-0.0060956003
28	0xc00fd189	-2.247164
29	0x41a0fbd4	20.122963
30	0xbf2c6d44	-0.67354226
31	0x3cabfab2	0.020993564
32	0xbd591b7d	-0.05300473
33	0x41fb9754	31.44889
34	0x415de87c	13.869259
35	0xbd8148b5	-0.06312696
36	0x3d775310	0.06038195
37	0xc1f41c66	-30.513866
38	0xc1c8932c	-25.071861
39	0xbd8b838f	-0.06812202
40	0x3d4ce1aa	0.050019898
41	0x4224836e	41.12835
42	0xb9b2e847	-0.00034123866
43	0x3c3eb789	0.011640438
44	0x3d69b956	0.057061516
45	0x41fb8c07	31.443373
46	0xc1873263	-16.899603
47	0x3d36cd69	0.04462949
48	0x3ce5c71f	0.02804905
49	0xbd0fdf08	-0.03512481
50	0xc22ae3ce	-42.722466
51	0x422fd8b6	43.96163
52	0x3cb7031b	0.022340348
53	0x3ceef891	0.02917126
54	0x41776f62	15.464693
55	0x3d57af12	0.052657194
56	0x42064a7f	33.57275
57	0x3cc578a4	0.024105377
58	0xbd8e4420	-0.069465876
59	0x3d67b4d7	0.056568947
60	0xc2471127	-49.76675
61	0x3d4b8fc6	0.04969766
62	0xc09c54b0	-4.885338
63	0xbccf93aa	-0.025338966
64	0xc17cd72a	-15.80253
65	0xc1e349d5	-28.41105
66	0x4089521e	4.291274
67	0xc1a113b1	-20.134615
68	0xbc68332c	-0.014172357
69	0x3feea01b	1.864261
70	0x40099762	2.1498647
71	0xc1e6195d	-28.762384
72	0x41af1acf	21.88809
73	0x3da72256	0.08160846
74	0xc1d7651b	-26.924368
75	0x3d1b7775	0.03795572
76	0x40552019	3.330084
77	0x4064c4b1	3.574505
78	0x41f6a95b	30.832693
79	0xc1a04f95	-20.038858
80	0x423d2665	47.287495
81	0xc1b3991d	-22.449762
82	0x3b8df4a7	0.0043321433
83	0x410db0fa	8.855707
84	0x3d34d82c	0.04415147
85	0x3d253a8a	0.04033903
86	0xbd6e5095	-0.058182318
87	0xc15357d0	-13.208939
88	0xbceb4cce	-0.028723147
89	0xbb99c4b5	-0.0046926388
90	0x4031ede0	2.7801437
91	0xc20785e4	-33.880753
92	0x3d43744b	0.047718327
93	0x4183c73e	16.472286
94	0x423152ba	44.330788
95	0x3c68bb95	0.014204879
96	0xbf268971	-0.6505347
97	0x402f5e7a	2.7401414
98	0x41a2d07c	20.351799
99	0xbd8490fa	-0.064729646
100	0xc016f592	-2.3587384
101	0xc005e45f	-2.0920637
102	0x40dd2611	6.910897
103	0xc21b9807	-38.898464
104	0x412dbbd6	10.858358
105	0xbffcb0b2	-1.9741423
106	0xc20da85a	-35.414406
107	0x4203634b	32.846966
108	0xc09c8941	-4.8917546
109	0x3b241468	0.0025036577
110	0xbc8ccfc2	-0.01718891
111	0x3d843407	0.06455236
112	0xc131b1ec	-11.105938
113	0xc1aaede5	-21.36616
114	0x3c9cb8b4	0.019131042
115	0xbd8dfdda	-0.06933184
116	0xbeaee9f7	-0.34162876
117	0xbc1b4ddc	-0.009479012
118	0x3d87d515	0.06632439
119	0xc19d9044	-19.695442
120	0xbf4f9ef2	-0.81101906
121	0xc0f67c82	-7.7026987
122	0x4218c532	38.192574
123	0x41194286	9.578741
124	0x4214b7f5	37.179646
125	0xbd85cdb9	-0.06533379
126	0xc0f0b261	-7.521775
127	0x4215b537	37.426968
128	0xc16c1415	-14.754903
129	0x3d0c6995	0.03428038
130	0x40efa5d7	7.488994
131	0x3d1b173e	0.037863962
132	0x40c909a0	6.282425
133	0xc0d2ce10	-6.587654
134	0x3d4748ba	0.04865334
135	0xbd91fd9f	-0.071284525
136	0xbd80a92f	-0.06282269
137	0xc1574bc1	-13.455995
138	0x40d6a6bc	6.7078533
139	0xc114cf4c	-9.30061
140	0xb999c463	-0.00029328754
141	0x4226f82d	41.74236
142	0x3b3c0df4	0.002869484
143	0xc1061e45	-8.38239
144	0x410eab2d	8.916791
145	0xc17a727a	-15.652948
146	0x3c054353	0.008133727
147	0x3fb4a9a4	1.411427
148	0x3d7d083e	0.06177544
149	0x41c7719a	24.93047
150	0xbd52b6d6	-0.051443897
151	0x3c6ad1c5	0.0143322395
152	0x4246239a	49.534767
153	0x39d913cf	0.00041404224
154	0x4180cf00	16.101074
155	0xc23f2dca	-47.794716
156	0x3cf45cb2	0.029829357
157	0xc1c9ca8c	-25.2239
158	0xbc7cb3ca	-0.015423724
159	0x3c279892	0.010229247
160	0x41b15ee8	22.17134
161	0xc1af911f	-21.94586
162	0xc1b15191	-22.164827
163	0x4009e626	2.1546721
164	0xbd5c6de7	-0.05381575
165	0xbd3ae382	-0.045627125
166	0xc204f48b	-33.23881
167	0xc169ac5a	-14.604578
168	0x404745d1	3.1136363
169	0x3fe93f1f	1.8222388
170	0xc18aebbb	-17.365103
171	0x3ca81bd0	0.020521075
172	0x4223ba3d	40.931873
173	0xc19af461	-19.369326
174	0xc174f6b4	-15.31023
175	0x4104af56	8.292807
176	0x40ef9a91	7.487618
177	0x3cc116b1	0.02357039
178	0x40b45d1f	5.6363673
179	0xbd8cc5f5	-0.06873695
180	0xc0dfabd8	-6.989727
181	0x41a6a496	20.830364
182	0xc116f18b	-9.43397
183	0x3cdc270c	0.026874088
184	0xbc8c2992	-0.017109666
185	0x4010f348	2.2648487
186	0xc20b6fd0	-34.85919
187	0x3b85b761	0.0040806984
188	0xc10d8726	-8.845495
189	0x413cd8fd	11.802976
190	0xbc988da6	-0.01862223
191	0xbc860bb1	-0.016362997
192	0xc175928c	-15.348278
193	0x415bb7fb	13.732417
194	0xc13cebf4	-11.807606
195	0x3ccd0eb5	0.025031427
196	0xc0c6aa19	-6.208264
197	0xbcbde926	-0.023182463
198	0x3d44b028	0.04801956
199	0xc15cc912	-13.799089

layer3.weight f4 [200, 200]
0	0x3dab2e22	0.083584085
1	0xbd38e826	-0.04514327
2	0x3d2e41e5	0.04254331
3	0xbcf55a3e	-0.029950257
4	0x3d208ea5	0.039198536
5	0xbd34816e	-0.044068746
6	0xbcb69e1a	-0.022292186
7	0x3c94b4ab	0.018152555
8	0x3cfb5106	0.030678283
9	0xbd834922	-0.06410433
10	0x3ca3cf84	0.019996412
11	0x3e2791bd	0.16364188
12	0xbc8108a5	-0.015751192
13	0xba99f45b	-0.0011745797
14	0x3c875b10	0.016522914
15	0x3cfa0c63	0.030523485
16	0x3d929cdf	0.07158827
17	0xbc4d0ab1	-0.012514756
18	0x3bf7f3eb	0.007566919
19	0x3d30c8fd	0.043160427
20	0xbc280bb4	-0.0102566965
21	0x3d4e309d	0.05033933
22	0xbd884a08	-0.06654745
23	0xbb1a0b10	-0.002350513
24	0xbd7b26c8	-0.06131628
25	0xbd8ab6db	-0.06773158
26	0x3d934e60	0.07192683
27	0x391faea2	0.00015228477
28	0x3ccf66e0	0.02531761
29	0x3d7e4820	0.062080503
30	0x3c3e8318	0.011627935
31	0xbcf3a921	-0.029743733
32	0x3d7a229e	0.06106817
33	0x3dede916	0.11616723
34	0xbb00219e	-0.0019551287
35	0xbbe25160	-0.0069066733
36	0x3cf7b2d0	0.030236632
37	0x3bf67746	0.0075215427
38	0xbd1a422d	-0.037660766
39	0x3a2adb5d	0.0006517673
40	0xbb257d75	-0.002525178
41	0x3ebddc59	0.37082174
42	0xbd569cbf	-0.05239558
43	0xbcec0000	-0.028808594
44	0x3c8a43ce	0.016878035
45	0x3d5f28dd	0.05448233
46	0x3ccc6e60	0.024954975
47	0xbd6db9a7	-0.05803838
48	0xbd788164	-0.06067027
49	0xbd39d780	-0.045371532
50	0x3b3440eb	0.0027504514
51	0x3e8d1ec5	0.27562538
52	0xbcb8f940	-0.02257979
53	0xbd0da3a4	-0.034579888
54	0x3d80e979	0.062945314
55	0xbcc9a03c	-0.024612539
56	0x3d506738	0.050879687
57	0xbd4a2d44	-0.049359575
58	0xbc077e35	-0.008269836
59	0xbd230bfe	-0.03980636
60	0x3d204263	0.03912581
61	0x3bfee33e	0.007778554
62	0xbe77ee41	-0.2421198
63	0xbd5f62f0	-0.054537714
64	0xbd8246fb	-0.06361195
65	0xbd73c38f	-0.05951267
66	0x3c9cd7cc	0.019145869
67	0x3d908864	0.070572644
68	0xbd91de43	-0.07122471
69	0xbc932d89	-0.017966049
70	0xbd00f673	-0.031485032
71	0x3d73f7bc	0.05956243
72	0x3d1b00e8	0.03784266
73	0xbd7fea0d	-0.062479068
74	0xbdd42291	-0.103581555
75	0x3d2d59b0	0.04232186
76	0x3cd7d001	0.026344301
77	0xbcc49048	-0.02399458
78	0x3d93565e	0.071942076
79	0x3dbd439f	0.09241413
80	0xbd3ca20d	-0.04605298
81	0x3e2ba617	0.16762577
82	0x391f9811	0.00015220071
83	0x3af49331	0.0018659589
84	0x3d7195f3	0.058980893
85	0x3d9024d4	0.070382744
86	0x3bf66a70	0.0075200126
87	0xbd5c443c	-0.05377601
88	0x3c932676	0.017962676
89	0xba584c1f	-0.0008251089
90	0x3d7b6729	0.061377678
91	0x3d2cb537	0.042165007
92	0xbc5942f9	-0.013260596
93	0x3dbcfeb9	0.09228272
94	0x3dcb3bff	0.09923553
95	0xbd235503	-0.039875995
96	0xbe01eec9	-0.12688746
97	0x3c979450	0.018503338
98	0x3d6e7c12	0.05822379
99	0x3c30a68f	0.010781898
100	0x3d3eb1b4	0.04655619
101	0x3e141e89	0.14464773
102	0x3dd47670	0.10374153
103	0x3ebae0b1	0.3649955
104	0x3c244b98	0.010027789
105	0xbc5b1357	-0.01337131
106	0x3e184d59	0.14873256
107	0x3d7d3866	0.061821364
108	0xbd88ed0f	-0.0668584
109	0xbd38cf48	-0.045119554
110	0x3b84d062	0.0040531615
111	0x3c8cc561	0.017183961
112	0x3dd1c829	0.10243256
113	0x3d9b3498	0.07578391
114	0xbc883221	-0.016625466
115	0x3c5a9dc6	0.01334328
116	0x3da97d07	0.082758
117	0xbd3749a8	-0.04474798
118	0x3d858d5e	0.06521104
119	0x3e0a2d73	0.134939
120	0xbd2b48fc	-0.04181765
121	0xbe9911e4	-0.29896462
122	0x3e0d1d18	0.1378063
123	0x3db45582	0.08805372
124	0xbd85af82	-0.06527616
125	0x3d1021e8	0.035188586
126	0xbfc274af	-1.5191859
127	0xbd38b93a	-0.04509852
128	0x3ce6c9f2	0.028172467
129	0xbd22e1ec	-0.039766237
130	0x3e347a91	0.1762488
131	0x3b25cf0e	0.0025300416
132	0xbd1e805a	-0.038696624
133	0xbdb27c98	-0.087151706
134	0x3b03cd4c	0.002011138
135	0xbc1e0e44	-0.009646956
136	0xbd339133	-0.043839645
137	0x3de63872	0.11241235
138	0x3d7152bf	0.058916803
139	0x3d9197f2	0.071090594
140	0x3b72d04f	0.003705043
141	0x3eb8ebc7	0.36117384
142	0xbd8d263b	-0.068920575
143	0x3ec1bb5e	0.37838262
144	0x3f42c224	0.76077485
145	0x3e0e358b	0.13887613
146	0x3cc1a954	0.023640312
147	0xbdab405d	-0.08361886
148	0x3d84cca2	0.06484343
149	0x3da9e1ed	0.08295045
150	0x3d0675f3	0.03282733
151	0xbc81092c	-0.015751444
152	0xbb3bcf48	-0.0028657485
153	0xbc550e0c	-0.013003837
154	0xbcbe29d1	-0.023213299
155	0x3dae591e	0.085130915
156	0x3cd0ff93	0.025512492
157	0x3e35d459	0.17756785
158	0x3d7e3ee7	0.062071707
159	0x3d0c066b	0.03418581
160	0x3d2cf426	0.042225026
161	0x3e46df61	0.1942115
162	0x3d334c28	0.0437738
163	0xbde2639e	-0.11054157
164	0xbcbb316b	-0.022850713
165	0xbc98de57	-0.018660707
166	0x3e346e22	0.17620137
167	0x3c7e4dd8	0.015521489
168	0xbbe28c29	-0.006913681
169	0xbf5e5239	-0.8684421
170	0x3dc32473	0.095284365
171	0x3d8d4434	0.06897774
172	0x3dfae312	0.122503415
173	0xbba5de36	-0.00506189
174	0x3dcaa023	0.09893825
175	0xbc67cf94	-0.014148612
176	0x3d6c0c2d	0.0576288
177	0xbd269b2c	-0.040675327
178	0x3b4032bd	0.0029327117
179	0xbb756b4a	-0.0037447982
180	0x3cd299ae	0.025708046
181	0x3dcb9365	0.09940223
182	0x3daac1bb	0.083377324
183	0xbba505d0	-0.0050360933
184	0xbd6d2b88	-0.057902843
185	0x3d198d05	0.037488002
186	0xbd02582e	-0.031822376
187	0x3d8493cc	0.064735025
188	0x3d9883f9	0.07447047
189	0xbce74fad	-0.028236235
190	0x3c6f136d	0.014592034
191	0x3d2f08f3	0.042733144
192	0xbc4f3126	-0.012645995
193	0x3df1ba64	0.11803129
194	0xbca18783	-0.019717937
195	0x3d0a1707	0.033713367
196	0x3dd5ceb1	0.10439814
197	0xbd686669	-0.05673829
198	0x3d4b293c	0.04959987
199	0xbccb5cd4	-0.024824537
200	0xbc1b604d	-0.009483409
201	0x3c3116c6	0.010808652
202	0xbc990e48	-0.018683568
203	0x3cc0e031	0.023544403
204	0x3cecda0c	0.028912567
205	0xbc6289a6	-0.013826763
206	0x3cf3c53c	0.029757135
207	0xbc8b5316	-0.017007392
208	0xbd17689e	-0.036965005
209	0x3d3f465c	0.04669796
210	0xbd506504	-0.050877586
211	0x3d271c45	0.040798444
212	0x3d448e81	0.047987465
213	0xbd3bb606	-0.045827888
214	0x3be29587	0.0069147977
215	0x3c1b8aaf	0.009493514
216	0x3d799704	0.060935035
217	0xbc05390b	-0.008131276
218	0xbcfd337e	-0.030908342
219	0xbcb718e0	-0.022350729
220	0x3d23c4e4	0.03998269
221	0xbd75296a	-0.05985395
222	0x3d110c0d	0.035411883
223	0x3c3c6c90	0.011500493
224	0xbd762cac	-0.060101196
225	0x3d53ab44	0.051677004
226	0x3b0243eb	0.0019876908
227	0xbb6f9794	-0.0036558853
228	0x3b05a77d	0.002039402
229	0xbd3170b4	-0.043320373
230	0x3c3b5a93	0.011435169
231	0x3bfe5ba1	0.007762388
232	0xbcb9caf0	-0.022679776
233	0x3caa92c9	0.020821946
234	0xbc87efd0	-0.016593844
235	0x3d4d6cc5	0.05015256
236	0x3c7ce8e4	0.015436385
237	0x3d7db24f	0.061937626
238	0xbd8e43e3	-0.06946542
239	0x3d8ee10f	0.0697652
240	0xbd814fd4	-0.06314054
241	0xb9e617db	-0.00043886792
242	0x3d890d12	0.06691946
243	0x3d1b15a5	0.03786244
244	0xbc9dfde4	-0.019286104
245	0xbd193314	-0.037402228
246	0xbd99b10d	-0.07504473
247	0x3d3046d5	0.0430363
248	0x3cbc71f0	0.023003548
249	0xbcf3d64b	-0.029765269
250	0xbd208b31	-0.039195243
251	0x3c0cc95c	0.00859293
252	0xbd258a58	-0.040415138
253	0xbcbd454f	-0.023104338
254	0xbdaf513e	-0.085604176
255	0x3d5db61d	0.054128755

layer3.bias f4 [200]
0	0x420812fb	34.018536
1	0x3bdbd380	0.0067085624
2	0x3bee354a	0.007269536
3	0xc11a72ad	-9.652997
4	0xbd9bc64c	-0.076061815
5	0xbd840db5	-0.06447927
6	0x3d76a747	0.06021812
7	0x41f16391	30.173616
8	0xc19d4c5b	-19.662283
9	0xc1bf197a	-23.88744
10	0xc1606d0b	-14.026622
11	0x40d3afee	6.615226
12	0x411ae9e0	9.682098
13	0xc192daa1	-18.356752
14	0xc17916b1	-15.56804
15	0xc1ffa37c	-31.954826
16	0xc0e19501	-7.049439
17	0xbc34b7a4	-0.011030111
18	0xc1149e8c	-9.288708
19	0xc14d74d2	-12.841021
20	0xc1911fa6	-18.140453
21	0x4231867e	44.38134
22	0xbc04d139	-0.008106523
23	0xbccbc6aa	-0.024875004
24	0x3ce64799	0.028110312
25	0x4222db44	40.714127
26	0xc227c4dd	-41.94225
27	0x3b168e80	0.002297312
28	0xc1dcb319	-27.58745
29	0xbda4cac3	-0.08046486
30	0x41f5dea5	30.733713
31	0xc1cfa4a1	-25.955385
32	0xc233db11	-44.963932
33	0x41bd9914	23.699745
34	0x4146941c	12.4111595
35	0xc2318997	-44.384365
36	0xbcf95b58	-0.030439064
37	0xc19e3bbe	-19.779171
38	0xbd391d7f	-0.045194145
39	0xc22b9d0b	-42.903362
40	0x3d6249c8	0.055246145
41	0xc0a003d6	-5.0004683
42	0x41dee1b6	27.86021
43	0xbd0f4bb8	-0.03498432
44	0xc11aaffb	-9.667964
45	0x4234bcef	45.184505
46	0x422c0e1a	43.01377
47	0xbc7f2da5	-0.015574847
48	0xbd270d6d	-0.04078429
49	0xbc85f084	-0.016350038
50	0x4204f386	33.237816
51	0x4221560c	40.33403
52	0xbccce6f7	-0.025012476
53	0xc1c731c0	-24.899292
54	0x41c13f61	24.155947
55	0x422dcf8d	43.452686
56	0x4231b0d9	44.422703
57	0xc211e3ac	-36.472336
58	0xc1e622d4	-28.767006
59	0x4214e720	37.225708
60	0x3df40914	0.11915794
61	0x413ee910	11.9319
62	0xc2068a12	-33.634834
63	0xc12313fb	-10.192378
64	0xc2323b9c	-44.558212
65	0xc1f4233e	-30.517208
66	0x421df76c	39.491623
67	0x40edb547	7.4283786
68	0xc1bfa72c	-23.956627
69	0x42320925	44.50893
70	0x3d1bf0e0	0.038071513
71	0xc22c6858	-43.1019
72	0xc23222e9	-44.534092
73	0xbd17bc33	-0.037044715
74	0xc100b649	-8.044503
75	0x422ebb0a	43.682655
76	0xc19e5a22	-19.79401
77	0x421bd043	38.95338
78	0x3c004a7a	0.007830257
79	0xbd232b09	-0.039835963
80	0xc1ab0d9c	-21.381645
81	0xc1234259	-10.203698
82	0x410e567d	8.896115
83	0xc154ccd7	-13.30001
84	0x3cb4fa53	0.02209202
85	0x4231c64f	44.44366
86	0x3d70f3fa	0.058826424
87	0x3d258fb2	0.04042024
88	0x3be03a93	0.00684292
89	0x422ed28f	43.705624
90	0xbcef44c7	-0.0292076
91	0x4211daef	36.463802
92	0xbda7d444	-0.08194783
93	0x42031ea5	32.779926
94	0x4221aaa0	40.416626
95	0x42258ff4	41.39058
96	0x4103570f	8.208755
97	0xc1518052	-13.093828
98	0xc1c30126	-24.37556
99	0x42295cbc	42.34056
100	0x3cef6460	0.029222667
101	0x41734d55	15.20638
102	0x421c4db5	39.075886
103	0x422aa6f5	42.663044
104	0xbd65365e	-0.05596005
105	0xbd11088a	-0.035408534
106	0x42370346	45.753197
107	0xc000326e	-2.003078
108	0xc20098f0	-32.149353
109	0xbac8f493	-0.0015331678
110	0x3d0f3a2f	0.034967598
111	0x42448852	49.133125
112	0xc0d9f23e	-6.8108206
113	0xbd12b505	-0.035817165
114	0x3c776a65	0.01510105
115	0x41d5bc15	26.716837
116	0x4226b310	41.674866
117	0x42348b6d	45.136158
118	0xbd9f3ec0	-0.077756405
119	0x3c630412	0.013855951
120	0x3cda310a	0.026634712
121	0xc1053fb9	-8.328057
122	0x42230e49	40.76395
123	0xc22cd98f	-43.21246
124	0x421d1ef4	39.280228
125	0x3d5c8691	0.05383927
126	0x3f2ec798	0.68273306
127	0x4207b804	33.929703
128	0x3bc24d0a	0.005929594
129	0xbd658710	-0.05603701
130	0x421f3aa0	39.80725
131	0x420b7783	34.86671
132	0xbc5a2d92	-0.013316529
133	0x423cba8d	47.18218
134	0x3d142a07	0.036172893
135	0x3cfe2af8	0.031026348
136	0x41173410	9.450211
137	0x4227b872	41.930122
138	0x42011af6	32.27633
139	0xbc529364	-0.0128525235
140	0x3b9ab1de	0.0047209105
141	0x4235fabe	45.494865
142	0xc1d1e86c	-26.238487
143	0x4235c4db	45.44224
144	0xc1dea0bb	-27.828482
145	0x3d663f9f	0.056213018
146	0xc22543f1	-41.31635
147	0xc2131dfc	-36.77928
148	0xc1bfbe03	-23.96778
149	0x422bcba0	42.948853
150	0xc1135ea6	-9.210608
151	0x3d5b1309	0.05348495
152	0x42316e84	44.357925
153	0x422b3f24	42.81166
154	0x3cf1923d	0.029488677
155	0xbd027cef	-0.031857427
156	0x4178fa65	15.5611315
157	0xc22a2071	-42.53168
158	0x3c3ce8c1	0.011530102
159	0x40f64d52	7.6969385
160	0xbd7061f2	-0.058687158
161	0xc203a741	-32.913334
162	0x41b9eb62	23.239933
163	0x3cc42093	0.023941314
164	0xc22de85a	-43.476906
165	0x42266e6f	41.607845
166	0xc21ece2d	-39.701344
167	0xc1d38d21	-26.44391
168	0xbd0e3673	-0.034719896
169	0x3d70db3a	0.05880282
170	0x3c0543c8	0.008133836
171	0xbd749297	-0.05971011
172	0x42337791	44.866764
173	0x42187619	38.11533
174	0x405587fb	3.3364246
175	0xc0e485bf	-7.1413264
176	0x42313486	44.301292
177	0xc1fe29da	-31.770435
178	0xc232cca7	-44.699856
179	0xc1bd5ef0	-23.671356
180	0xc222e560	-40.724
181	0xc2335dc7	-44.84158
182	0xc1f2daa6	-30.356762
183	0x422a3df2	42.560493
184	0xc22ab7cc	-42.67949
185	0x3cf396b2	0.029734943
186	0x423520d6	45.282066
187	0x3d6e4e12	0.058179922
188	0x3d2ec054	0.042663887
189	0x3c5b5e82	0.013389232
190	0x4166f029	14.433633
191	0x4227711e	41.860466
192	0x41fc9eaf	31.577482
193	0x3c3e4e69	0.011615374
194	0xc0f8e98a	-7.778508
195	0xc0bcb79b	-5.897413
196	0xc22d98a4	-43.399063
197	0x422a7eef	42.62396
198	0xbc4441ed	-0.011978609
199	0x40be2e75	5.943171

layer4.weight f4 [200, 200]
0	0x3dac8d92	0.0842544
1	0xbc39c782	-0.01133907
2	0x3b5bb550	0.0033524819
3	0xbf0e3e7b	-0.5556409
4	0xbd8fcac3	-0.070210956
5	0xbe11bd2e	-0.14232323
6	0xbd141678	-0.03615424
7	0x3d71a510	0.058995306
8	0xbec70f9c	-0.38879097
9	0xbded7b5a	-0.11595793
10	0xbd791a12	-0.06081588
11	0x3e6fce16	0.2341846
12	0x3e199743	0.14999108
13	0x3c49169f	0.01227346
14	0xbd080113	-0.03320415
15	0xbf8cbd42	-1.0995257
16	0xbbd2757a	-0.0064226957
17	0xbd6ca38c	-0.057773158
18	0xbb94d350	-0.004541792
19	0xbecf9928	-0.40546536
20	0xbb94c7f8	-0.0045404397
21	0x3d4c56ea	0.049887575
22	0xbd15f002	-0.036605842
23	0xbb130981	-0.0022436085
24	0xbbec2ce9	-0.007207502
25	0x3d06ea5e	0.032938354
26	0xbd81821d	-0.06323645
27	0xbce0026f	-0.02734491
28	0xbc860ecc	-0.016364478
29	0x3d647dbf	0.055783983
30	0x3d57cbb2	0.052684493
31	0xbcafabd9	-0.021444248
32	0x3dc2f53a	0.095194295
33	0x3daf2609	0.085521765
34	0xbcbf1bbd	-0.023328656
35	0x3d5f2b77	0.05448481
36	0x3cc905a6	0.024538826
37	0xbece0fcd	-0.4024643
38	0xbd677bdd	-0.05651461
39	0x3dded339	0.10880131
40	0xbd383881	-0.04497576
41	0x3dd407c4	0.10353044
42	0x3d356896	0.044289194
43	0x3d4800c6	0.048828863
44	0x3d0357a7	0.032066014
45	0x3c9af679	0.018916355
46	0x3e496744	0.19668299
47	0x3d5d2586	0.053990863
48	0xbc031d8e	-0.008002652
49	0xbd2530e7	-0.04032984
50	0xbcbc742f	-0.02300462
51	0x3dcf1de6	0.101131245
52	0x3d9a8f97	0.07546919
53	0x3a11c7b1	0.00055610674
54	0x3e2c4520	0.16823244
55	0x3d640c8d	0.05567603
56	0x3ddda693	0.10822787
57	0x3d018f7c	0.031630978
58	0xbda1b13e	-0.078951344
59	0x3d5b6cfb	0.05357073
60	0xba875367	-0.0010324538
61	0x3e2fa4f0	0.17152762
62	0x3c1ce3c0	0.009575784
63	0xbd7220e8	-0.059113413
64	0x3d8e5a4c	0.069508165
65	0xbdaaabf9	-0.083335824
66	0x3dda80ee	0.10669123
67	0x3e0f57f7	0.139984
68	0x3d6692a1	0.05629218
69	0x3db88923	0.09010532
70	0xbd518509	-0.051152263
71	0xbbf5bd33	-0.007499361
72	0x3d0140ca	0.03155593
73	0x3d704c8a	0.058666743
74	0xbe2e3ebc	-0.17016119
75	0x3e34082b	0.17581241
76	0xbfab397c	-1.3376918
77	0x3d9b980e	0.075973615
78	0xbecb672d	-0.39727154
79	0xbd654e65	-0.055982966
80	0x3e4973a6	0.19673023
81	0xbca4a2d5	-0.020097176
82	0x3cb3a824	0.021930762
83	0x3d1f0fdf	0.038833495
84	0x3d95eae9	0.07320196
85	0x3b8a18a2	0.0042143622
86	0x3d564fb6	0.052322112
87	0x39ac296d	0.0003283726
88	0x3ce23c46	0.027616631
89	0x3c453606	0.012036806
90	0xbcabe822	-0.020984713
91	0x3d5beef7	0.05369469
92	0xbd80a3ca	-0.0628124
93	0x3dd94be9	0.10610182
94	0x3d9e786a	0.07737811
95	0xbb15c483	-0.0022852726
96	0x3f473f38	0.7783084
97	0xbe90ef8e	-0.28307766
98	0xbe7aada7	-0.24480306
99	0x3de1e214	0.11029449
100	0x3c7c9c66	0.015418148
101	0xbcd1910d	-0.02558186
102	0x3d027fc8	0.031860143
103	0x3d922f95	0.07137982
104	0x3d00f90e	0.031487517
105	0x3d3ff329	0.046862755
106	0x3da4c5d8	0.08045548
107	0x3d57e3a7	0.05270734
108	0xbeb36540	-0.35038185
109	0x3d033bb5	0.032039363
110	0xbd4ad514	-0.049519613
111	0x3e13670d	0.1439478
112	0xbfc5388e	-1.5407884
113	0x3c0afe91	0.008483545
114	0xbd1764b0	-0.036961257
115	0x3dca5f4f	0.0988146
116	0xbdc0bcfe	-0.094110474
117	0x3c28d2c9	0.010304161
118	0x3d4e43f4	0.050357774
119	0xbcd088da	-0.02545588
120	0x3d88e4b4	0.06684247
121	0xbe0d7671	-0.13814713
122	0xbc8157b8	-0.015788898
123	0x3dc77444	0.09738973
124	0x3daebacc	0.085317224
125	0xbc6d3fc5	-0.014480536
126	0xbdc803ec	-0.09766373
127	0x3ce9cbc3	0.028539544
128	0xbd0044e2	-0.03131569
129	0x3ce66829	0.02812584
130	0xbd394c07	-0.04523852
131	0xbd137456	-0.03599962
132	0x3cefc676	0.029269438
133	0x3e212803	0.1573792
134	0x3d343696	0.04399737
135	0xbd9353c5	-0.07193712
136	0x3e9d0594	0.30668318
137	0x3cd7fb46	0.026364934
138	0x3e93a707	0.2883837
139	0xbc8758b8	-0.016521797
140	0xbcd54469	-0.026033597
141	0x3c2fcd9f	0.010730176
142	0x3d8fb468	0.07016832
143	0x3b214ad4	0.0024611251
144	0xbe2822fb	-0.16419594
145	0xbd7ec757	-0.062201824
146	0x3c5001ef	0.0126957735
147	0x3cbf86e8	0.023379758
148	0x3bee3c89	0.0072704
149	0x3e3e52f1	0.18586327
150	0x3dbd1602	0.09232713
151	0x3cd6e6ca	0.026233096
152	0x3d52d1ad	0.051469494
153	0x3cffdc3f	0.031232951
154	0x3ce46d46	0.027884137
155	0x3d62bd3d	0.055356253
156	0x3d157114	0.036484793
157	0xbd755d6c	-0.059903547
158	0x3aa8d855	0.0012881855
159	0x3e6eeec1	0.23333265
160	0xbd1447e1	-0.03620136
161	0x3de665e0	0.112499
162	0x3cd3e5f7	0.025866492
163	0xbd1f7840	-0.03893304
164	0x3bcfaf25	0.0063380175
165	0x3d01cf2c	0.031691715
166	0xbcba8efa	-0.022773255
167	0xbe858c82	-0.2608376
168	0xbc0fc037	-0.008773855
169	0xbde8495d	-0.11342118
170	0xbd2bbe47	-0.04192951
171	0x3d23b225	0.039964814
172	0x3d65b001	0.056076054
173	0x3d9c8e6c	0.07644352
174	0xbcc5e828	-0.024158552
175	0x3d28a07d	0.04116868
176	0x3d0e04f9	0.03467271
177	0xbc7d432b	-0.015457909
178	0xbce480ce	-0.02789345
179	0xbdb5d620	-0.08878732
180	0xba6eb5ed	-0.00091060885
181	0xbd2dbeae	-0.042418174
182	0xbe03b802	-0.12863162
183	0xbc86ff6b	-0.016479215
184	0x3e36dfc7	0.17858802
185	0x3ceea68f	0.029132156
186	0x3e83d91c	0.2575158
187	0x3cb94ab0	0.022618622
188	0x3d42c3c4	0.047549978
189	0x3ce8edde	0.028433736
190	0xbe95a0e2	-0.29224306
191	0x3b662399	0.0035116433
192	0x3d9829be	0.07429837
193	0xbd921bdc	-0.0713422
194	0xbe062282	-0.13099101
195	0x3a0ee917	0.0005451603
196	0xbd4d5b74	-0.050136045
197	0x3d3e2d0d	0.046429683
198	0x3d651b92	0.055934496
199	0xbe5baf32	-0.2145355
200	0xbe1b4269	-0.15162052
201	0xbd0fab03	-0.0350752
202	0xbd310b93	-0.04322393
203	0xbe23d5d0	-0.15999532
204	0x3bfc154a	0.0076929675
205	0x3eae999f	0.3410158
206	0xbd2dd1e3	-0.04243649
207	0xbdf3f914	-0.11912742
208	0x3e013acf	0.1262009
209	0x3be480c4	0.006973358
210	0xbe86659d	-0.262494
211	0x3ccc8e41	0.024970176
212	0xbd94b8bf	-0.072618
213	0x3e5be79b	0.21475069
214	0xbf901b74	-1.1258378
215	0xbcc29842	-0.023754243
216	0xbd99e2b0	-0.0751394
217	0x39934269	0.00028087504
218	0xbe662e70	-0.22478652
219	0x3d71919d	0.05897676
220	0x3dc260c6	0.09491114
221	0xbd9a3e7a	-0.07531448
222	0xbd87287a	-0.06599517
223	0xb979a8e1	-0.00023809403
224	0x3d3d4519	0.046208475
225	0x3cbe750c	0.023249172
226	0xbdcb64ef	-0.09931361
227	0xbd747a53	-0.05968697
228	0xbf2251fa	-0.63406336
229	0x3d838b11	0.06423009
230	0xbf03b341	-0.51445395
231	0x3e304047	0.1721202
232	0xbea50297	-0.32228538
233	0x3f390b3b	0.7228276
234	0xbe06aaf1	-0.13151146
235	0xbce97a56	-0.028500717
236	0xbd2576d8	-0.04039654
237	0x3e819099	0.25305632
238	0x3ba483d9	0.0050206003
239	0xbf698f8f	-0.9123468
240	0xbc4c4987	-0.012468702
241	0x3d5d2d35	0.05399819
242	0xbefa248d	-0.4885601
243	0xbdd07fc7	-0.101806216
244	0x3db21356	0.08695094
245	0xbfab9658	-1.3405256
246	0xbdfd05b2	-0.12354602
247	0x3d9227e1	0.071365125
248	0xbd816722	-0.06318499
249	0x3d537c07	0.051631954
250	0xbef068a0	-0.46954823
251	0x3e9ca968	0.30597997
252	0x3d5860d2	0.05282671
253	0xbbf588b4	-0.007493103
254	0x3dc67772	0.09690751
255	0x3e08666e	0.13320324

layer4.bias f4 [200]
0	0x42318ef2	44.389595
1	0x3e349483	0.17634778
2	0xc2274056	-41.812828
3	0x42175b53	37.839184
4	0xc04f106f	-3.235378
5	0x401feb45	2.4987347
6	0x4223530c	40.8311
7	0xc22cd999	-43.212498
8	0x3cc37fd9	0.023864673
9	0xc142157c	-12.130245
10	0x4049aa40	3.1510162
11	0x4236ab78	45.66745
12	0x4166f7cd	14.435498
13	0xc0c23bcc	-6.0697994
14	0x422180cc	40.37578
15	0xbf79eebc	-0.97629905
16	0x4107e5f3	8.49364
17	0xc216a49e	-37.66076
18	0x418c584d	17.543116
19	0xbd3b912d	-0.045792747
20	0x4216a546	37.6614
21	0x42254102	41.313484
22	0x42315169	44.329502
23	0x421105e1	36.25574
24	0x420d32d4	35.299637
25	0x4220b331	40.17499
26	0xc22dfc38	-43.496307
27	0xbd10c6f4	-0.035345986
28	0x3b056aab	0.0020357769
29	0x3bd88194	0.006607244
30	0x4232d69e	44.709587
31	0x421737ac	37.804367
32	0x421be904	38.977554
33	0xbca83b5a	-0.020536114
34	0x3d24feb9	0.040281985
35	0x4226962a	41.646645
36	0x4209db4b	34.464153
37	0xc1c05ce8	-24.045364
38	0xc13d841b	-11.844752
39	0x41bc56c3	23.542364
40	0xbe8b0a18	-0.27156138
41	0x3d25a9d0	0.04044515
42	0x42292618	42.2872
43	0xbcf2ba60	-0.029629886
44	0x4224de51	41.217106
45	0xc0ebe5e3	-7.3718123
46	0xbd6b2fd2	-0.057418652
47	0x42263139	41.54807
48	0xc228b0af	-42.172543
49	0x420983b5	34.37862
50	0x40eff277	7.4983478
51	0xc110db90	-9.053604
52	0x4236986d	45.648853
53	0xc21da603	-39.41212
54	0xbd32f214	-0.043687895
55	0x4225ee32	41.482613
56	0x3b70f7ba	0.003676875
57	0xc1d3b8b1	-26.465181
58	0xc22b368b	-42.803265
59	0xbc369674	-0.011144269
60	0x4215e603	37.47462
61	0x4113b912	9.232683
62	0x40bafa94	5.843088
63	0x3d23b025	0.039962906
64	0xc1d739e8	-26.903275
65	0x404322bd	3.0489953
66	0xbd52e456	-0.05148729
67	0x41fe75d9	31.807543
68	0xc0b4da43	-5.6516433
69	0xbd1dab84	-0.03849365
70	0xbd3f19f2	-0.046655603
71	0x3d276468	0.04086724
72	0x4225e256	41.47103
73	0xbea9cad9	-0.33162573
74	0x3b976cf4	0.0046211425
75	0x40eb337e	7.3500357
76	0x4213cd3f	36.950436
77	0x422e74be	43.614006
78	0x401c188d	2.4389985
79	0xc25858d6	-54.086754
80	0x3f882780	1.0637054
81	0xbd8d4d34	-0.06899491
82	0x421f8aa1	39.88538
83	0x42214af7	40.323208
84	0x421b75a3	38.86488
85	0x420bfb83	34.995617
86	0x3d70be0a	0.058774985
87	0xbda7c553	-0.081919335
88	0xbbe4a405	-0.0069775605
89	0x422869d5	42.10335
90	0xc0ad3f7d	-5.414
91	0x422c5642	43.084236
92	0x3d1751e6	0.03694334
93	0x41f03346	30.025036
94	0x4162bd33	14.171191
95	0xc0e58989	-7.173039
96	0x4209ae80	34.42041
97	0x3d32ae00	0.04362297
98	0x42290275	42.2524
99	0xbb011177	-0.0019694248
100	0x408e65fa	4.4499483
101	0x3a7184d3	0.0009213213
102	0xbcdac113	-0.026703393
103	0xc2292a24	-42.291153
104	0xbd0f6ea0	-0.03501761
105	0xbd8906be	-0.06690739
106	0x421452f4	37.08101
107	0x3d3184c4	0.043339506
108	0xc2151c53	-37.27766
109	0x42236d10	40.856506
110	0x42068bbf	33.63647
111	0x421227e3	36.53895
112	0x3c5fe364	0.013665054
113	0x3d2c4168	0.042054564
114	0x3d6b76e3	0.057486426
115	0x422d2755	43.28841
116	0x3c0d9009	0.008640298
117	0x42086588	34.09915
118	0xc0303ebc	-2.753829
119	0x421d0aae	39.26043
120	0x3d4f2e3f	0.050581213
121	0x422244b8	40.56711
122	0x3d217a33	0.03942318
123	0xc21762e8	-37.84659
124	0xc2240d63	-41.013073
125	0x3bee07fa	0.0072641345
126	0x3fae0c7b	1.3597559
127	0xc219b23c	-38.424057
128	0xbd166309	-0.03671554
129	0xc1c48117	-24.563032
130	0x3c043819	0.008070015
131	0xc230f3c7	-44.238064
132	0x41e64f42	28.7887
133	0x421bfa79	38.994602
134	0xbd2bf3b9	-0.04198048
135	0xbd534c3d	-0.05158638
136	0x422bb978	42.93112
137	0x4220b520	40.17688
138	0xbd00d730	-0.03145522
139	0x3d5d0431	0.053959075
140	0x4227f82a	41.992348
141	0xbcffd495	-0.031229297
142	0xc15d9f3d	-13.851377
143	0x41e5d7ef	28.730436
144	0xc11a0310	-9.625748
145	0x4216d031	37.703312
146	0xbda13fb2	-0.07873477
147	0xc222f405	-40.7383
148	0xbc1d9a8d	-0.009619367
149	0x3d6a4324	0.057192937
150	0x41b1c54c	22.221336
151	0x4202a07b	32.65672
152	0x41eee2b8	29.860703
153	0x4217ac88	37.918488
154	0xc0681058	-3.6259975
155	0x421722ba	37.783913
156	0x42078a29	33.884922
157	0x422badbe	42.91967
158	0x3c95046f	0.01819059
159	0xc178862f	-15.53276
160	0xbd1ac68a	-0.037786998
161	0x4218c46c	38.19182
162	0x4103da1b	8.240748
163	0x4230f26b	44.236736
164	0x3b781bbd	0.003785833
165	0x40cf288d	6.4737
166	0xbebe24dc	-0.37137496
167	0xbd06ecb7	-0.032940593
168	0xc12bf788	-10.747932
169	0x4210d6a1	36.2096
170	0x4158c025	13.54691
171	0x3c7175ae	0.01473753
172	0xbd47e907	-0.048806217
173	0xc1eafc2b	-29.373129
174	0xc0d1fa8b	-6.561834
175	0x3d6bbe85	0.05755474
176	0x421df649	39.490513
177	0x421593f9	37.394505
178	0xc221fc71	-40.496525
179	0x3d3525e2	0.04422558
180	0xbce42297	-0.027848525
181	0x41b862f1	23.048311
182	0x3fbda66d	1.4816414
183	0x3d06446e	0.032780103
184	0x422625a5	41.536762
185	0xc1916e4e	-18.17886
186	0xc143fc82	-12.249147
187	0x3c811a76	0.015759688
188	0x4223056e	40.755302
189	0xbd2e665d	-0.04257809
190	0xbcd5c0ad	-0.026092852
191	0x420e422b	35.564617
192	0xbd11776b	-0.035514276
193	0xbd0c2a56	-0.034220062
194	0x42263a0c	41.556686
195	0xc1e86028	-29.046951
196	0xc176bd48	-15.421211
197	0xc12a80e5	-10.656468
198	0x3d332e5a	0.043745376
199	0x4219199e	38.275017
