src/model.pth (torch, 978174 bytes, 16 tensors)

layer1.weight f4 [200, 6]
00000000: 7535 aeb9 cb76 a8c0 d7c3 3340 c6d2 133d
00000010: c06d 42c0 7915 0140 4ab5 bcba 3c87 54bb
00000020: 6639 8ebe e2d4 39c0 c99c 1d39 96fa 5640
00000030: 4b27 6abb 268c f53d fbbc fec0 cf24 efbf
00000040: 40b9 09bd 959a 2140 54d9 adb9 0fcb 5bbf
00000050: 08c4 dc3d 38d4 36c0 2e4d 783e 3aad f53f
00000060: 33e6 c8ba a7f4 7a3b 4e55 45bc 2e30 4141
00000070: ef29 e1ba 9597 1f40 b3bc 203b e564 093e
00000080: 4f6a 93c0 ae70 af40 9215 bbbe c7d6 2c40
00000090: de73 483d bedd debc 37be 68bf 676f e540
000000a0: 61cb 71bc 7a1e 12bf 3138 bebd 3b40 8fbe
000000b0: 612b 513d ac7e ad3e c2aa 8bbe 2a9b c0be
000000c0: b38f 90bb f8d1 eabf 1098 6f40 3787 8e3f
000000d0: 34c7 393e 92a7 2740 bee3 1b3d 28a3 8abd
000000e0: 40e0 b0bf e6fa e540 2fb4 183c 24d1 dabe
000000f0: fe5a e53b e76b 49bd 6752 64c1 be2a 71c1
00000100: 8fe7 0e3a f967 313d 2c7c fd3b c14a 87c0
00000110: b9dd 2e3f 68ab 91c0 493d 54c0 5d96 c33e
00000120: 0007 73bd 2cec c7be 7e86 573e 9bbf 21bc
00000130: 97bd 17be 41a2 a2be 51f8 b3b9 fe2b 1bbf
00000140: acf4 cabf 0309 6c40 ae92 f23d d2f7 4940
00000150: 104c 20be 8b44 acbe 2a21 f93c b4da 6a3e
00000160: 0666 5f3d c62e dabd 75d9 f93a 0e65 42be
00000170: 7619 3cc1 0145 dfc0 3386 3a3c 931a 3b3f
00000180: 279f dbbd 71e5 90be ba3c c83e 316f 3b3e
00000190: aacb 843d 73f3 14bc 89ea eebc 37a6 87be
000001a0: 0d49 aebb e000 a13d efa2 31be afc4 77be
000001b0: d763 8dbb 03bc ae3c eda1 c63e c503 f9be
000001c0: 2ff9 afbb b253 8a40 1a60 43be a395 1d3f
000001d0: 98cb 8ac0 c192 3fc1 37b8 98be 715b 1b40
000001e0: 74e3 13bb 8cff 5c3e 35b4 bdbe 1b89 62c0
000001f0: b93d 2fbd df54 8240 3de7 adba 26cf 98bf
00000200: c17a 6ec0 588e 31c0 bf6b a13e b7b2 26bd
00000210: 4deb ebbe 04ee d13d dfdf b13e 5d57 cabc
00000220: ddc7 963d 5f59 b7bf 748f 133e cfdd d7bf
00000230: 2e1c 833f 6768 bd40 9995 97bc 455e 6740
00000240: f623 a7bb 85f9 13bf cfd8 7340 b9f8 7ac0
00000250: fabb 51bf 0832 6540 0bde 20bb 992c 69bf
00000260: 9fb3 26bf df3b 2341 3065 333e f6c0 1940
00000270: fdd7 71be e1c7 0b3e f4f5 96bf fe42 61be
00000280: f27b 903d 4c25 34c0 9852 32be ad76 ae3e
00000290: d3e5 cf3d 9ad3 443e ed0b b3be 5b78 3c3e
000002a0: 1bd9 58be 2142 303e a3dc 503e 809d cdbe
000002b0: b6e3 9cbe 242d c83d 31a3 c53e e5a2 75bf
000002c0: 3f0f 8d3f 2597 ce40 ce14 2cbe 54f3 7d40
000002d0: 8e4a 9b38 f424 de3f 5863 0ebf 9add 0041
000002e0: 211f 01bf ecf9 973e 1c91 093a 43c1 42bf
000002f0: adc9 c1bd 400f 2d41 3f6e 1c3e f74a 04c0
00000300: 7219 813e 3ce9 1dbf 9ef8 d83f 8cf6 c440
00000310: 622d e43d bd71 6540 c9cf bc3a 16ff 973b
00000320: be57 31c1 03b1 e3c0 dae5 beba ab15 f43e
00000330: e5e8 0c39 b58c d23f 9889 32be 22c0 d640
00000340: c59d f2be faae 0c3e a504 d0bd 5ed2 683e
00000350: b762 e3bf 6584 9cbf 72c3 243e a6c2 6abf
00000360: 1236 4cbe 31e5 c9be 9a45 82be 9dcd 8ebc
00000370: ec8c f6bc 8e3e f03d c527 e1ba 2e33 49bf
00000380: ca5f 1e3f dc88 7441 3166 1b3e cfd5 eb3e
00000390: 7ff5 9aba eab4 cdbf b92a 8ebe 09aa 3241
000003a0: 38fd 9b3e f880 9c3e 5dd3 c5be e167 a33d
000003b0: 124a 133d 99f9 cbbe b0c3 b1be 8887 023e
000003c0: dd03 8cbe 71c8 c0be a46c e5bb 09d0 42be
000003d0: 602a 89be 3d1d 213e 890b 36be e72a 53be
000003e0: 805a 853e c2e3 2bbe f734 4abe 5d70 cb3e
000003f0: 2530 a8ba 4f47 c6bd 9104 e0bf b0ac e940
-0.00033227695 -5.264501 2.808828 0.03608968 -3.0379486 2.0169356 -0.001439729 -0.0032429239
-0.27778167 -2.9036183 0.00015031094 3.3590446 -0.0035728987 0.11989622 -7.960569 -1.8683108
-0.033623934 2.52506 -0.00033159053 -0.8585672 0.107795775 -2.8567028 0.24248192 1.919349
-0.0015327394 0.0038292797 -0.012044264 12.074263 -0.0017178635 2.4936268 0.0024526536 0.13417394
-4.606727 5.482505 -0.36539894 2.700609 0.048938625 -0.027205344 -0.90915245 7.169849
-0.014757962 -0.57077754 -0.092880614 -0.2797869 0.05106676 0.33885705 -0.27278715 -0.3761838
-0.0044116615 -1.8345327 3.7436562 1.1135014 0.18142396 2.6196027 0.03805899 -0.06769401
-1.3818436 7.1868773 0.009320303 -0.42737687 0.0069993725 -0.04917517 -14.270118 -15.072935
0.0005451375 0.043312047 0.0077357497 -4.227875 0.6830707 -4.5521736 -3.3162405 0.38200656
-0.059332848 -0.39047372 0.21047398 -0.009872342 -0.14818417 -0.31764415 -0.0003432655 -0.60614
-1.5855918 3.68805 0.11844383 3.1557508 -0.15654016 -0.33646044 0.030411322 0.22934991
0.054540657 -0.106534526 0.0019062 -0.18983862 -11.756216 -6.9771733 0.011384535 0.73087424
-0.10723715 -0.2830005 0.3910883 0.18304135 0.06484158 -0.009091246 -0.02916457 -0.26494
-0.005318767 0.07861495 -0.1734731 -0.24196123 -0.0043148804 0.021329885 0.38795415 -0.48635688
-0.005370281 4.3227167 -0.19079629 0.6155645 -4.3373528 -11.973329 -0.29828045 2.4274561
-0.0022565993 0.21581858 -0.3705155 -3.5396183 -0.042783473 4.0728602 -0.0013267767 -1.1938217
-3.7262423 -2.774313 0.31527516 -0.04069778 -0.46077958 0.10250476 0.34741113 -0.024699861
0.0736234 -1.4324149 0.14410192 -1.6864566 1.0242975 5.9189944 -0.01850395 3.6151288
-0.0051007224 -0.5780261 3.810108 -3.9214308 -0.81927454 3.5811787 -0.002454641 -0.91083676
-0.6511783 10.202117 0.17519069 2.4024024 -0.23617549 0.13650467 -1.1793809 -0.21998212
0.07054891 -2.8147764 -0.1741432 0.34074917 0.10151257 0.19221345 -0.34970036 0.18405287
-0.21176569 0.17212726 0.20396666 -0.40159225 -0.3064248 0.09774235 0.38601068 -0.9595168
1.1020278 6.4559503 -0.16804811 3.9679766 7.404863e-05 1.7355027 -0.55620337 8.054102
-0.50438124 0.29682863 0.0005247758 -0.76076144 -0.09462295 10.816223 0.1527643 -2.0670755
0.25214726 -0.6168401 1.6950872 6.155096 0.111414686 3.585067 0.0014405187 0.004638563
-11.083921 -7.115358 -0.0014564351 0.4767278 0.000134382 1.644919 -0.174353 6.7109537
-0.47385994 0.13738623 -0.10157136 0.22736499 -1.77645 -1.2227904 0.16090181 -0.9170326
-0.19942501 -0.39432672 -0.25443727 -0.017432028 -0.030096494 0.11730681 -0.001717799 -0.7859372
0.6186491 15.283413 0.15175702 0.4606156 -0.0011822431 -1.6070836 -0.2776697 11.1665125
0.30466628 0.30567145 -0.3863782 0.07978798 0.03595931 -0.39838865 -0.3471961 0.12747014
-0.27346697 -0.37652925 -0.0070014764 -0.19024672 -0.26790142 0.1573381 -0.17777838 -0.20621835
0.2604561 -0.16786101 -0.19746767 0.39734164 -0.0012831731 -0.0968157 -1.7501394 7.30233

layer1.bias f4 [200]
00000000: bbc2 7c41 635e 4542 2388 e6c1 0ca3 6142
00000010: 7abb 5841 1eb8 eec1 494b f241 aad0 d2bd
00000020: 538e 3d42 514b eb41 d72f 90c1 7a87 8a41
00000030: 9c1e c3be e331 3942 5459 97be bed4 dcc1
00000040: 6f84 03bd bbf3 783e fff8 3642 0089 13c0
00000050: d421 3140 671b 6bc1 fad4 4fbe d210 1942
00000060: 81e7 2142 74ee 94c0 329b 3dbf 59ba fd3d
00000070: 8607 bc3e a594 1142 104f 1cc2 98e6 31c2
00000080: f878 4c42 1b98 dac1 37f6 18c2 e419 d1be
00000090: 5ffc 203e 1456 1ac1 18e3 1041 1f32 8d3e
000000a0: 4576 35bd 1b0a aa3e 4a06 0042 6532 80bf
000000b0: 8bc0 8bc1 c7fe 7fc1 91cb d03e 3ac3 abbd
000000c0: e017 06c0 a7e0 723e 1045 80c1 315e f641
000000d0: 6623 f941 a779 cbbe c6db f841 11a8 4342
000000e0: 7ae3 5541 3b6d b43e bb86 d5bf b6a0 8dbd
000000f0: 9684 133e 61af a5be 0d9b 13c0 a07b 9d41
00000100: f26c 33c0 108c 5e42 5cdf 8cbf fa5a 1a42
00000110: 6f23 7840 97f9 dfc1 627f 2442 ff0b 673e
00000120: b904 6c42 0c98 ef3f ef64 b1be 17f5 6842
00000130: dedf c640 83be b23c 0efa 9fbe e987 9fbe
00000140: 6fb0 4142 8f84 52c1 b244 093f 5d73 01bf
00000150: 88c7 05c2 f20c 86c1 9d05 fac1 3196 663e
00000160: cb18 f43f 0498 f53e 3960 0542 dee0 9cbd
00000170: e641 9ac1 2ca3 e841 38fe 8fbd 3f3c c13e
00000180: d537 9140 da52 6042 ee9a 58bf d831 29c2
00000190: 70e1 adbe 3c1f d0bd f96f 11c0 8cf1 b13e
000001a0: eb82 ef41 6adf f3c1 d6e2 45bf 864e 2042
000001b0: 49ce 1440 332d 8141 2ef4 14be 1747 87bc
000001c0: 7fe8 b9bf b4eb e5c1 c568 d9c1 6987 45c0
000001d0: a48e 49bf 17ab 3a42 7e17 2ec1 2ef9 9e41
000001e0: ba6e 3042 0e83 95c1 a9e8 77bf bcf5 913e
000001f0: 518b ff3d 0e72 283e 08ae 0842 c2de 0e42
00000200: 0741 59bf 3054 02bd df5e ecbd 872a e9bf
00000210: da49 173d 05e1 8140 4b07 df41 c30a 36bf
00000220: cdfb 86bf 8ab1 4a3b ca7e b13e 3ece 2442
00000230: f8a9 3542 de82 a241 1fe2 ee41 bc76 583d
00000240: d269 8641 460e 10c1 4bd1 5f41 058c 4442
00000250: 2bd6 d941 fe63 d6bd 3922 82bf ae3e c9be
00000260: 31ce cac1 9f1d 91c1 2233 04be 646e 1842
00000270: b2ba 1dc1 6044 09c1 838f 2942 aacd 913e
00000280: f66a d1c1 07bf 02be 3053 4042 8c44 6fc1
00000290: 94ff f240 785e 9dbf 93fe 53c1 6e80 a0be
000002a0: 014f 19c0 b6d9 43bf 42a8 213f c086 1541
000002b0: 0ede e741 b213 0a3f 9a34 d8c1 a843 28be
000002c0: ef8d b041 2121 c53d 1f72 7a3e 13fd 3c42
000002d0: 9495 c9be 50d5 5c3e 7f36 9d3d b38c d1be
000002e0: 2dbe 8541 acdc 9041 80f0 2b42 2676 603e
000002f0: aa2a 78c1 1270 e2c1 3022 b9c1 9910 00c2
00000300: 0e57 8041 0b4b 6841 977d 28c0 3447 84be
00000310: f313 97c1 2b98 cf3e f0d2 2342 8e04 1e42
15.797542 49.342175 -28.816473 56.409225 13.545771 -29.839901 30.28676 -0.10293706
47.38899 29.411776 -18.02336 17.31615 -0.3810929 46.298717 -0.2956034 -27.603878
-0.03210872 0.24311726 45.74316 -2.3052368 2.7676897 -14.69419 -0.20296088 38.266426
40.476078 -4.654108 -0.74064934 0.123890586 0.3672449 36.39516 -39.07721 -44.47519
51.118134 -27.32427 -38.240444 -0.40840065 0.15721272 -9.646015 9.055443 0.27577302
-0.044302244 0.33210835 32.00614 -1.0015379 -17.469015 -15.9997015 0.4078031 -0.08386846
-2.0952072 0.2371851 -16.033722 30.795992 31.142284 -0.3974125 31.107311 48.914127
13.368036 0.35239586 -1.6681741 -0.06915419 0.14406046 -0.32360366 -2.3063385 19.685364
-2.8035245 55.63678 -1.1005664 38.588844 3.8771627 -27.99687 41.124397 0.2256317
59.004612 1.8718276 -0.3464732 58.239346 6.2148275 0.021819359 -0.31245464 -0.3115838
48.4223 -13.157363 0.53620446 -0.50566655 -33.444855 -16.75632 -31.25274 0.22518231
1.9070066 0.4796754 33.343967 -0.076600775 -19.282177 29.079674 -0.0703091 0.37741277
4.5380654 56.08091 -0.84611404 -42.298676 -0.33961058 -0.101622075 -2.2724593 0.34754598
29.938925 -30.484089 -0.7729925 40.076683 2.3250906 16.14707 -0.14546272 -0.01651339
-1.4524077 -28.74009 -27.176157 -3.0863898 -0.7873328 46.66708 -10.880735 19.87167
44.10813 -18.688992 -0.96839386 0.28507793 0.12477744 0.16449758 34.169952 35.717537
-0.8486485 -0.03181857 -0.11541533 -1.8216103 0.036935665 4.058718 27.878561 -0.7111017
-1.0545594 0.0030928575 0.34667045 41.20141 45.415985 20.3139 29.86041 0.05284761
16.80167 -9.003485 13.988597 49.136738 27.229574 -0.10468291 -1.0166694 -0.39305633
-25.35068 -18.139463 -0.1291013 38.107803 -9.85808 -8.579193 42.39015 0.28477222
-26.177227 -0.12768184 48.081238 -14.954235 7.5936985 -1.2294455 -13.249652 -0.31347984
-2.395447 -0.76504076 0.63147366 9.345398 28.983425 0.539363 -27.025684 -0.16432059
22.069304 0.096254595 0.24457596 47.247143 -0.39371932 0.21565747 0.0767641 -0.40927657
16.71786 18.10775 42.984863 0.2192007 -15.510416 -28.304722 -23.141693 -32.01621
16.042507 14.518321 -2.6326654 -0.25835574 -18.88474 0.40545782 40.955994 39.504448

layer2.weight f4 [200, 200]
00000000: 1772 b4bc f93a 3b3f 8be5 a9be 73af b7ba
00000010: c672 d33e 5162 9f3e 1867 4cb7 9934 2fbc
00000020: 5e20 e13d 5075 7fbb c387 ff3d 2c66 83bd
00000030: a043 ba3c 284a aa3e 8f23 19bd 645d a5bf
00000040: f15e ab3c d051 0abd f358 223f e475 d6be
00000050: 4595 813e 3ab0 a6bb 4fbd 953c c810 47bb
00000060: 6d11 2d3d 87ef 973e e9e5 c23c 907b 543d
00000070: 14b2 e03c 4df9 dcba 868a 4a3f 1d81 e03e
00000080: be50 773a 1782 ddbf bfc7 1c3e 6737 03bc
00000090: f9ab 73bb 9738 6f3e 1010 14bf 634e 3c3d
000000a0: a824 b8bc 1962 103c 7e24 c33e e06a 3fbc
000000b0: 9a50 0ebf 87ed a7be 9ea1 0e3d 0346 843d
000000c0: 1070 0ebf e389 873d 2f8e c63e 0903 963a
000000d0: 8b06 edbb 930e 4d3d d7f1 79bf 5c39 1d3d
000000e0: 9c96 a73d 610c c7ba 1e91 82bd 9b59 10bd
000000f0: 2cff 69bd 5678 bcbc d236 9dbb 444d ffbc
00000100: b571 29be ba86 b0bd f86a 363d b162 80bd
00000110: 7af5 08bb cc72 943e 2593 f1ba e623 35bd
00000120: 3939 3e3b 15dd 0f3e 7d4f a03c 6ac9 20bc
00000130: 608f a7bf 51b7 90bd 440e 23bd 8266 7ebd
00000140: deb6 003f 5372 603e 0087 3cc0 b56e 96be
00000150: 2f17 9ac0 dd30 d1bc 201d 293c f28d 40bd
00000160: 9d47 99bf 543e 81bf 1033 d3ba 1f14 32bd
00000170: a4ec 8e3d e0ab 7f3e 6d89 1a3c 71b4 1abd
00000180: ea33 113f 8df2 873c fe22 25bd 9191 2cc0
00000190: 52de 0a3d 377f 5a3d 8fe2 b9b9 3ba4 9d3c
000001a0: b772 b3bd 250a a93e 5d2f 8dbc 6218 b6be
000001b0: 6180 a3bf ab8f 573b 4f25 b6bb 67ac a0ba
000001c0: d6b5 0e3d 0718 88bf 7e0b 60bd 5f2c 99bc
000001d0: ddbd fd3c 5127 caba 0aee 9d3c a950 d6bb
000001e0: 1d34 cebb d7bd e73e d552 40bb b6e7 573b
000001f0: 32db 4abb a361 86bd 1d37 463b d70f 82bd
00000200: 5171 80be 382b 9abc 2fa0 bc3c dffc 143f
00000210: e285 abbc 0954 8dbf 2e7f f33d 9cdb 90bb
00000220: 741f b7be f8f2 9fbc 23ad f7bc f7bc e9bb
00000230: b798 84ba 1e1f f8ba 56e8 d7bb 9995 3abf
00000240: 4433 0d3f 0fbf c0bc b2a5 8dba 9c17 213e
00000250: 6f71 82bd ec3d 1e3d ecc3 8ebb 1cdc 74bd
00000260: 785b 5e3e 96d9 9dc0 052f 723c 5acd 50bd
00000270: b895 26ba 8050 043f 55bb 48be 9c85 16bd
00000280: 282d 31c0 a3cf 7fbc 036d fbb9 5843 ddba
00000290: d851 053b 12f5 28bc 93f8 76ba 9346 7cbd
000002a0: 7411 5a3d 4684 533b b0c4 4fbf fcbe 043c
000002b0: bf84 aebb 1b8c d3bc 1735 dbbe 15b1 813d
000002c0: e8cf 05be 17f1 6a3b 7e8b aeba bc81 96ba
000002d0: d2ba 79bc 5c05 9dbc 417c c83c 86c7 9bbb
000002e0: eaa4 e4ba 8515 5c3a c649 83bb f870 023d
000002f0: dd7f 693c a605 09bf f927 8a3e 3f35 18be
00000300: e60b aebd 79db 7e3d 01f3 91b9 33b7 b33c
00000310: 1986 103a 04ff c43c 8c1d 8b3c e497 293d
00000320: 3f05 3abe e911 f03c 96a7 443d 4795 383b
00000330: b534 2c3c 7af6 0f3d d8c6 273b 062a 8fbd
00000340: a19b cf3c dcd7 32bc c0d8 aebf ab24 4e3d
00000350: 5fd9 3bbd 7a83 7b3c 015c e43c 1469 dcbd
00000360: 1651 f9bb 7078 6f3d c96f d93c 08e0 07c1
00000370: d19e 863c cab5 cb3e 1138 5bbc be14 f73a
00000380: 4e19 80bc 4052 4e3d 096b 05bd 8485 fd3b
00000390: 6c35 80bd c844 3cba db58 b53d 03ad b4c0
000003a0: a2d9 6fba 67fa bfbe d36d de3d 8984 31bd
000003b0: 4e3c 273d 638d 9c3c 7620 413e 3dc5 70bd
000003c0: 05a5 02bb 288f 80bb f9f1 ea3c 431e 053b
000003d0: c4b6 b8c0 d261 8f3e 7397 7cbd dc6e 543d
000003e0: 2379 90c0 b324 963c 6bd8 5e3d 474d c43b
000003f0: 151f 63bb 068f 37bd 4e2c 893f 34f9 263d
-0.022027059 0.7313686 -0.3318294 -0.001401408 0.41298503 0.31129697 -1.2183351e-05 -0.010693693
0.10992502 -0.0038979836 0.12477066 -0.06415972 0.022737324 0.33259702 -0.037387427 -1.2919126
0.020919295 -0.03376943 0.63416976 -0.41886818 0.25309196 -0.005086926 0.018278746 -0.0030374993
0.042252947 0.29674932 0.02379127 0.05187565 0.027428664 -0.0016858965 0.7911762 0.43848506
0.0009434334 -1.7305325 0.15310572 -0.008008814 -0.003718136 0.23361431 -0.5783701 0.045973193
-0.022478417 0.008812451 0.3811378 -0.011683196 -0.5559174 -0.32798406 0.0348221 0.06458666
-0.55639744 0.06618097 0.38780352 0.0011444996 -0.007233446 0.050062727 -0.97634643 0.03838478
0.08183023 -0.0015186184 -0.06375335 -0.035241704 -0.057128116 -0.0230066 -0.004797795 -0.031164773
-0.16547282 -0.08619447 0.044535607 -0.06268824 -0.0020898269 0.28993833 -0.0018430693 -0.04422369
0.0029025807 0.1404918 0.019569153 -0.009813646 -1.309063 -0.07066215 -0.039808527 -0.062109478
0.50279033 0.21918611 -2.9457397 -0.29381338 -4.81533 -0.025535995 0.010321885 -0.04701037
-1.197498 -1.0097146 -0.001611324 -0.04347622 0.06978729 0.24967909 0.009432179 -0.03776974
0.5671984 0.01659515 -0.040316574 -2.6963847 0.033903427 0.053343978 -0.0003545475 0.01924335
-0.087621145 0.33015552 -0.017234499 -0.35565478 -1.2773553 0.003289203 -0.0055586467 -0.0012258411
0.03484138 -1.0632333 -0.05469846 -0.018697916 0.030974323 -0.0015423094 0.019278545 -0.006540377
-0.0062928335 0.45262024 -0.0029346247 0.0032944507 -0.0030953404 -0.065615915 0.0030245252 -0.063506775
-0.25086454 -0.018819436 0.0230256 0.5819835 -0.020937864 -1.104127 0.11889492 -0.0044207107
-0.35766184 -0.019525036 -0.030233925 -0.007133122 -0.0010116313 -0.0018930172 -0.006588976 -0.7288452
0.5515635 -0.023528604 -0.0010806827 0.15731663 -0.06369292 0.038633272 -0.004356852 -0.059780225
0.2171458 -4.932811 0.014781718 -0.05097709 -0.00063547073 0.51685333 -0.19602711 -0.036748514
-2.768381 -0.015613469 -0.0004795567 -0.0016881032 0.0020342972 -0.010312336 -0.0009421196 -0.061590742
0.0532393 0.0032274886 -0.81159496 0.008102175 -0.005325883 -0.025823643 -0.42813942 0.06332604
-0.13067591 0.0035849267 -0.0013316718 -0.0011482756 -0.015242295 -0.019167595 0.024473311 -0.0047540097
-0.0017444168 0.00083955406 -0.004006597 0.031846017 0.014251676 -0.53524244 0.26983622 -0.14864062
-0.08498363 0.062221024 -0.00027837607 0.021937942 0.0005513146 0.024047382 0.016981862 0.04140462
-0.18166064 0.029305415 0.048011385 0.0028165148 0.010510613 0.035147168 0.0025600698 -0.06990437
0.025342764 -0.010915723 -1.3659897 0.050327938 -0.045861598 0.015351171 0.027875902 -0.107622296
-0.007608543 0.058464468 0.026542561 -8.492195 0.016433151 0.39787132 -0.0133800665 0.0018850786
-0.015637066 0.05037141 -0.03257278 0.0077368636 -0.062601894 -0.000718188 0.088548385 -5.6461196
-0.0009149556 -0.3749573 0.10860791 -0.043339286 0.040828995 0.019110387 0.18860039 -0.05878185
-0.0019934785 -0.0039233156 0.028679835 0.0020312227 -5.7723103 0.28004318 -0.06166787 0.051863536
-4.514787 0.018328046 0.05440561 0.0059906575 -0.0034655978 -0.044814132 1.0716646 0.040765002

layer2.bias f4 [200]
00000000: c458 7341 a31b 3242 b824 3b42 917c 5942
00000010: f723 3242 5402 3642 ff71 2140 b881 2c42
00000020: c9c3 f1bf d6fe 0ac2 76bb 09c2 ff69 7641
00000030: 5fe9 03c1 9278 fa41 71eb f441 15a7 8f41
00000040: b601 e03f b1f8 7842 051b dd41 9b63 2842
00000050: ed39 32c2 77d3 3342 9d31 4ec1 a1db 1942
00000060: 87af 34c2 584b ebc1 6bf1 4642 89a5 1642
00000070: bc29 49c1 9f7b d641 a0a6 12c2 6ff6 9dbe
00000080: b4e3 38c2 8b98 2242 0052 8142 0e62 fdc1
00000090: d66a e241 169b fdbf 09e4 0e41 bcd5 2a42
000000a0: 84f7 c4c1 4ab7 4842 c61b 3742 de6a 97c1
000000b0: 25b0 2542 18c5 27c2 befd 3642 79ee 33c1
000000c0: 26a9 7041 d683 2141 ff7b 97c1 2ca8 b5bf
000000d0: 4255 b93c 6d7f 0242 8479 3342 67dd 3bc1
000000e0: ae8a 5042 dabc 8b41 96a7 dbc1 a7e0 2ac1
000000f0: 0dc6 5442 0cd9 4f41 4c7b c141 db13 8640
00000100: 18ec 5742 2b3d 49c2 ee8e 4d42 40be 2e42
00000110: b96a 5542 13a8 2941 d191 1442 3616 1dc2
00000120: aa8f 5642 835f d6c0 17a6 1f40 5311 1642
00000130: 2f1a 4d41 114e d3bf 1cf7 3742 f89c 02c0
00000140: b47c 2842 a6b4 8941 173f 5442 33b4 cabf
00000150: 9acb 5e42 525e 89bf 4fb0 0f41 36c2 0542
00000160: 3e99 0142 4057 9841 ec28 a0c0 bb31 8042
00000170: a371 5d42 050d 1742 d36d 3d42 836f 84c1
00000180: b700 37c0 4792 02c2 f57d 2842 1363 81c0
00000190: 7624 1bc2 e5e0 a941 9a04 7342 bb62 c3bf
000001a0: b0f7 bb41 f63e 96c1 463d d13f 179f 1ec2
000001b0: 004d 0042 cee0 6fbf 8c8d cdbf 6e5d 91c1
000001c0: 80d2 cd40 cde4 3a42 8077 d740 1928 0242
000001d0: 97d2 0242 d39b 2342 3170 4342 265c 1c42
000001e0: d146 2842 6191 8b41 6e90 20bf 65ff aa41
000001f0: 53bf 8cbe d651 5242 9b93 2641 cb6d e940
00000200: 20c6 5542 68e1 2e42 dbbe 3842 278e 0441
00000210: 1e10 d941 0885 11c2 f612 8540 e25c e6c0
00000220: 7deb 5142 567a 4d42 4ec5 613f c8b7 6442
00000230: d309 3742 dd51 ffc0 56e4 0cc1 69d8 6a42
00000240: 73b7 3142 5dbb 7a42 7b9b 2342 e093 2542
00000250: a00e 0d42 90a8 5242 9857 0a42 e732 9f41
00000260: ca8b 7340 ea9a fa40 372d b741 27b6 3342
00000270: c7ae edc0 5c0d 5442 f3df 7842 87b2 d83f
00000280: 5a8d 953d b336 17c0 e141 0742 2264 e040
00000290: 6576 3742 48df 5542 a7ec 2442 531a 8841
000002a0: cdc3 7bc1 2026 4abe b97e 2cc1 5a9d 1042
000002b0: 9b02 4941 25ab 0d42 6d1e 3642 eac2 fec1
000002c0: 5214 7b41 5b19 60c1 5800 3e41 9e2c 22c1
000002d0: a567 4542 769f 25c2 274f 2042 37a8 4540
000002e0: 3098 5442 4dc0 0a42 4d30 6b41 9cad 3542
000002f0: a1cb 14c2 9add 5042 6623 4e42 5399 4e40
00000300: cfe9 4342 9d12 2fc0 99bf e3c1 76e8 b940
00000310: e052 7d40 bb2e e6c0 15eb 0742 b85d 0142
15.209171 44.52699 46.78586 54.371647 44.535122 45.502274 2.5225828 43.12668
-1.8887874 -34.748863 -34.433067 15.400878 -8.244475 31.308872 30.614962 17.956583
1.7500522 62.242863 27.638193 42.09727 -44.55657 44.95651 -12.887113 38.46448
-45.171413 -29.411789 49.73576 37.661655 -12.572689 26.810362 -36.66272 -0.30852076
-46.222366 40.648968 64.66016 -31.672878 28.302166 -1.9812953 8.930673 42.708725
-24.620857 50.178993 45.777122 -18.927181 41.422016 -41.942474 45.747795 -11.245721
15.041296 10.0946865 -18.935545 -1.4191947 0.022623662 32.62444 44.868668 -11.741553
52.13543 17.467213 -27.45683 -10.679847 53.19341 12.99049 24.185204 4.189924
53.98056 -50.309734 51.38958 43.68579 53.35422 10.603534 37.1424 -39.27169
53.640297 -6.699159 2.4945123 37.51692 12.8188925 -1.6508199 45.991318 -2.0408306
42.12178 17.213207 53.06161 -1.5836242 55.69883 -1.0731909 8.980544 33.43966
32.39965 19.042603 -5.0049953 64.09713 55.360973 37.762714 47.35725 -16.55445
-2.8594186 -32.64285 42.123005 -4.043344 -38.785606 21.234812 60.754494 -1.5264505
23.495941 -18.780743 1.6346824 -39.65536 32.075195 -0.937024 -1.6058822 -18.17062
6.431946 46.72344 6.7333374 32.539158 32.705654 40.902172 48.859562 39.08999
42.069157 17.445986 -0.6272038 21.374704 -0.2748972 52.579918 10.4110365 7.2946525
53.44348 43.720123 46.186382 8.284705 27.13287 -36.379913 4.1585646 -7.198838
52.47997 51.36947 0.8819169 57.179474 45.759594 -7.978743 -8.805746 58.711338
44.42915 62.682972 40.901836 41.39441 35.264282 52.66461 34.58554 19.899855
3.805407 7.8314104 22.897078 44.927883 -7.427585 53.013046 62.2187 1.6929482
0.07302351 -2.3627136 33.814335 7.0122232 45.86562 53.46805 41.231106 17.012854
-15.735303 -0.19741106 -10.780938 36.153664 12.563136 35.417133 45.529713 -31.845173
15.692461 -14.00619 11.875084 -10.135893 49.351215 -41.405724 40.077297 3.088392
53.14862 34.687794 14.699292 45.41954 -37.198856 52.216408 51.53457 3.2281082
48.97833 -2.735511 -28.468554 5.8096266 3.9581833 -7.1932044 33.979572 32.341522

layer3.weight f4 [200, 200]
00000000: 4fa1 45bc 022e 15bc 70ce 42bd f938 373c
00000010: d984 80bd a5f8 95bc 92bf c13c 7df0 03bd
00000020: 297d 963b d5ab 88bd 435e afbf 3f77 62bd
00000030: b254 e4bd f1d9 0a3e 4317 97bb df50 ddbc
00000040: c197 f1bc 8ef2 763c 0a1f 3abd b1a9 d5bc
00000050: 5bdd 5fbf 99db cc3b 4aad bdbc 49c8 39bd
00000060: d184 94bc 728a 11bd 253f 4b3d a64b 2fbd
00000070: c9d4 acbc 2db6 3fbc 7f96 dfbf fcac 8ebc
00000080: 8d8f acbf a029 e43c fc56 aa3c f6c2 57bd
00000090: e5b1 0b3d 7e2d a8bc 16e5 7a3d eed3 4bbd
000000a0: 7a07 fc3e ffe2 5c3d 60df 92bc b270 b9bd
000000b0: 0988 8ebc afe1 22bd 5c88 63bd e98a babe
000000c0: d9dd 3abe 484d 82be 3058 8abf b5fa 5e3c
000000d0: 8ea1 8abd be35 9cbc b640 293e c52c eb3b
000000e0: b414 b3ba fa22 ebbb 6b0b 9dbc 0ebf 03bd
000000f0: 4585 a93e 68cf 8cbd 9136 5ebc e663 0a3d
00000100: b20d 853c f694 8bbd e182 213d 8dad e93c
00000110: b7ac 833e 7230 52be 4e5c c7bd 21f8 ebbe
00000120: 9e33 7fbd c1bf 78bc 7700 97bb 7059 acbc
00000130: 67f6 72bc f191 8e3c 7ac7 a9bd 56cf 8ebc
00000140: 3bb8 b33d f8c8 84bd d57e b4be da5b acbc
00000150: 4089 1c3f f733 543b 8a63 68bd 899b e6bc
00000160: e49d 023d 0ffc 0a3c 1069 cabe 81aa f73c
00000170: 5f16 1c3e 4ce8 89bd d6ee e13c 47bc 34be
00000180: b397 f4bd a777 0cbd 4ecc 95bc 8ebc 8c3b
00000190: 6b22 aabc 21c5 8cbd 1968 1c3d b855 c7bd
000001a0: 10fa 84be 52d1 edbd ffe1 9dbb 3bcb b13e
000001b0: d4ac bcbc 78db 7abc 2e06 073c 5a59 94bc
000001c0: 9986 f7bc fe99 efbd 6f38 e4bd a131 90bc
000001d0: 6923 c1bc b126 a6bc 032e 26be 4bb5 8d3d
000001e0: a4e5 013d 230a 40bc b4ba 683d 6989 ef3b
000001f0: c69e 363d fa58 55bc 4d9d b0bc 2c99 5cbc
00000200: a620 1bbc 0cf7 62be 66f4 4abe 7649 b2bd
00000210: 76af 3bbd dd9c acbf 509e c4bc 1c06 acbd
00000220: 55dc b4bc 5f1c b2bd ea4b 68bd fb4d 0bbd
00000230: 9995 15bd 294e 87bc 55c9 783c 7c6a 303f
00000240: 5e47 8cbd 318b e2bc 9201 84bd 9647 90bd
00000250: 2cd2 b7bd da6f aeba c556 633c 4163 cabe
00000260: bde3 38bc 70b2 30bd 072f 97bd eb70 333d
00000270: 5245 bcbc 965a b4bd b380 60bd 52f0 17bc
00000280: f2c0 92bc 2503 a7bd a13f 84bc cfa0 07bd
00000290: 04cf 62bd d839 61bd 2ec1 bdbd a537 8dbc
000002a0: df79 22bd 47fb 89be f17f e23e acf3 08bd
000002b0: 6417 853d 3324 61bd 5bb1 38bd 28bf 91bc
000002c0: d71d 7bbc 99cf 9fbc 2d88 6f3c 7337 a8bd
000002d0: 19aa c6bd cf61 b0bd 643a 19bd 6a96 80bc
000002e0: 150c 51bb d82c bfbd b939 17bc 0e17 abbf
000002f0: 0c7d ddbc 93c8 18bd cfb8 03bf 267b 08bb
00000300: a7dd 23bd 1270 8dbc 361f c4bc 28fc 34bd
00000310: 13bc 8ebc 6028 493c 115a eabc 19fb 56bd
00000320: 83ea 89bb 13df 843d def7 9aba 8146 853d
00000330: f5eb 54bd c5f3 c0bd 757d 87bf 55de b13b
00000340: 60f5 37bd f903 cfbe 793d ddc0 9611 4f3e
00000350: 950e c83e 55ad 473e 95f9 05bd 368c 023c
00000360: 41e4 023a e9d2 8b3d a430 b9ba 11c8 303d
00000370: 489e 70bf 2b68 ffbd ef13 fd3c 4cb8 953c
00000380: 2d4f b3bd 0fd5 8b3c 5396 c53c 1c21 85be
00000390: 42da 0c3e abe6 b73b 55d6 26c0 7208 823c
000003a0: ae9c c4bf f2bb dd3d df6d f2bd 6e59 043d
000003b0: 8757 2c3e 0ede 0b3c 8eca aebd c20c 6d3d
000003c0: 5803 70c0 f7d4 623d 2804 cc3b 0583 2abe
000003d0: b739 c23b d822 88bc 9dc5 c0bb 1912 bd3e
000003e0: 4f13 4f3d dbaf c03f a058 8ebd 0b4c a8be
000003f0: a4ec d4bc fe67 903a cc46 593e ba5f 6b3d
-0.012062385 -0.009105207 -0.047560155 0.011183017 -0.06275339 -0.01830704 0.023650918 -0.03221177
0.004592557 -0.06673399 -1.3700641 -0.055289503 -0.11148967 0.135597 -0.0046109273 -0.027016101
-0.029491307 0.015072478 -0.045439757 -0.026081892 -0.87447137 0.006251764 -0.02315392 -0.045357022
-0.018129738 -0.035532422 0.049620766 -0.042796753 -0.021097558 -0.011701149 -1.7467803 -0.01741647
-1.3481308 0.02785188 0.02079343 -0.052676164 0.0341052 -0.020529505 0.06125363 -0.04976266
0.49224454 0.053927418 -0.01792878 -0.09054698 -0.017398851 -0.03976601 -0.055549964 -0.36434105
-0.1824869 -0.25449586 -1.0808163 0.013609578 -0.06769095 -0.019068595 0.16528592 0.007176968
-0.0013662786 -0.0071758004 -0.019170484 -0.032164626 0.3310949 -0.06875497 -0.013562814 0.033786677
0.016241882 -0.068155214 0.039431456 0.028525138 0.25717708 -0.20526293 -0.097344026 -0.46087745
-0.062305085 -0.015182436 -0.0046082097 -0.02103874 -0.014829255 0.017403575 -0.0829 -0.01743285
0.087753735 -0.06483644 -0.35253015 -0.021039892 0.61146927 0.0032379606 -0.056735553 -0.028150337
0.031888857 0.008482947 -0.3953328 0.03023267 0.15242909 -0.0673376 0.027579706 -0.17649947
-0.11942997 -0.034293797 -0.018285897 0.0042949384 -0.020768365 -0.06873537 0.038185213 -0.097331464
-0.25972033 -0.1161219 -0.0048182006 0.34725365 -0.02303163 -0.0153111145 0.008241219 -0.018109012
-0.030215548 -0.116992936 -0.11143576 -0.01760179 -0.023576455 -0.020282121 -0.1622849 0.069193445
0.031713143 -0.011721167 0.05681868 0.0073100817 0.044585012 -0.013021702 -0.021559382 -0.013464253
-0.009468233 -0.22164553 -0.19819793 -0.08705418 -0.04582163 -1.3485371 -0.02400127 -0.08399603
-0.022077719 -0.086968176 -0.056713022 -0.034009915 -0.03651962 -0.016516762 0.01518472 0.6891248
-0.0684955 -0.027654262 -0.06445612 -0.07044904 -0.08975634 -0.0013308481 0.013875668 -0.3952885
-0.011284766 -0.04313892 -0.07382017 0.04380886 -0.022982273 -0.088063404 -0.054810237 -0.009273605
-0.01791427 -0.08154897 -0.016143622 -0.033112343 -0.055373207 -0.054986805 -0.09265362 -0.017238447
-0.039667007 -0.26949522 0.44238237 -0.03343551 0.06498602 -0.054966163 -0.045091014 -0.017791346
-0.015326939 -0.01950817 0.014619869 -0.08213701 -0.09700412 -0.086124055 -0.0374092 -0.015696723
-0.003189807 -0.09334725 -0.009230071 -1.3366411 -0.027037166 -0.037300657 -0.5145387 -0.0020825355
-0.040006306 -0.017265353 -0.023940664 -0.044185787 -0.017423665 0.012277693 -0.0286074 -0.05248556
-0.004208864 0.064878605 -0.0011823138 0.06507588 -0.05198284 -0.09421495 -1.0585161 0.0054281154
-0.044911742 -0.40432718 -6.913754 0.20221552 0.39073625 0.19499715 -0.032708723 0.007967999
0.0004993119 0.06827337 -0.0014128876 0.04315955 -0.9399152 -0.1247104 0.030893294 0.018276356
-0.08755336 0.017069368 0.024119532 -0.26001823 0.13755134 0.0056122146 -2.6068318 0.015873168
-1.5360315 0.10826863 -0.118373625 0.03231185 0.16830264 0.008536829 -0.08534728 0.057873495
-3.750204 0.05537888 0.0062260814 -0.16651542 0.0059272903 -0.016618177 -0.0058829323 0.3692787
0.050555523 1.5053667 -0.069504976 -0.32870516 -0.025991745 0.001101732 0.21218413 0.05746434

layer3.bias f4 [200]
00000000: c996 4542 f9af 5b42 f3b6 0b42 711d 1742
00000010: d743 4ac2 dce6 5442 6d00 70c1 e970 6c42
00000020: 4d0c 5842 7cee 3b42 d31f 6a42 b858 5542
00000030: da95 1542 b49c 4ac0 aa4f 1142 3dde 5542
00000040: c840 0640 df64 6b42 ca01 2d42 b0d9 79c1
00000050: 40d4 dc41 b497 1742 d3aa 04c2 40d3 2542
00000060: f0a7 1542 9f98 3c42 63d1 0cc0 4b8c 0142
00000070: a06e 3342 7832 4f42 4dab 4e42 02bf 2f42
00000080: b133 5d42 7a5a 2d42 3d8f 2d42 f469 4942
00000090: 570d 7142 38e7 2042 95c4 1342 7a38 6542
000000a0: 79e6 3f42 e08d 5142 1696 45c2 a94c 3b42
000000b0: c33f 1942 a66c fd41 6c7a f941 3fe1 0c42
000000c0: 2000 5142 084c 2841 3ace b0c1 702c 55c0
000000d0: 567e 08c0 f4ee 3842 7906 3d41 6941 26c2
000000e0: 9365 0342 9b36 3742 4eb9 4442 9134 3642
000000f0: 30c0 4642 8728 36c2 5108 0742 37ea 2ec2
00000100: 3725 1442 7259 3442 bd55 bfc1 916e f541
00000110: 062f 11c2 36f3 0e42 954e 3842 2edf 4042
00000120: 7845 6542 e02d 29c0 ecd6 4642 76b6 1842
00000130: fefc 4442 e13c f4c1 de31 47bf f972 6342
00000140: 7230 e1c1 4b99 62c1 7525 f8c1 36b9 6642
00000150: 3b84 5c42 3cc6 5c42 2b53 4042 d271 0e42
00000160: cf46 6f42 41ea 5d41 25fb 1b42 2a0c 2342
00000170: f707 2842 5186 3442 70d4 3c42 81a5 2f42
00000180: eff7 d041 eb8a e3c0 af37 dc41 de57 8e41
00000190: 1241 5c42 5d26 3f42 2f44 6342 0929 2642
000001a0: 0b1b ff41 3abf 4942 8651 2b42 941d 4a42
000001b0: e1e0 3c42 43d1 5842 1c2d 5c42 3dc6 1ec2
000001c0: 1a5f 1dc2 7a80 4542 7a2d 1742 4e07 3742
000001d0: 3076 0e42 bad6 2f42 5fd1 5c42 3c36 4142
000001e0: 4e73 0242 5272 e6c0 b1cb 1b42 9e8e 5e42
000001f0: 5c12 2b42 80a1 2542 1cbc 3f42 a7e8 4342
00000200: af19 5442 e7cf 8542 1a6a 4e42 99b2 5440
00000210: fc22 5342 a9ed 7442 7c3f fa41 8580 5042
00000220: 433f 4742 8cac 1942 f684 3042 0071 5742
00000230: b769 3c42 bb27 6b42 d8aa 5542 bc50 0642
00000240: 2189 ba40 2376 2b42 9f5a d1c0 0447 56c0
00000250: 0385 4642 d937 2e42 14c4 8542 7421 1c42
00000260: d6a0 03c2 743a 0042 4b4e 38c2 50a2 5a42
00000270: f7d9 ee3f 17d0 5b42 d83c 1342 c2cd 3942
00000280: 079b 7c42 68e0 7542 c554 6142 e882 8a41
00000290: 2668 17c2 282e 4f41 0b5e 3c42 c544 a041
000002a0: 1fd0 6142 8b1f 4642 0182 4742 4f0c 5e42
000002b0: 72f6 2242 9ec2 7b41 479d 2842 c6ff 22c2
000002c0: 3160 5040 9047 6842 b2fb 5442 165d b741
000002d0: f2f0 a8c1 fa2e 3f42 291a 2942 16f1 5242
000002e0: b9e6 2c42 495a 2342 8dce 6142 b433 4c42
000002f0: 1b24 28c2 b0c5 5c42 a277 4242 1201 7b42
00000300: ed87 8042 22d7 2142 b1df 22c1 28b3 4142
00000310: 919b 0e41 1028 2b42 90c9 b441 0a85 2742
49.39725 54.92185 34.92866 37.77875 -50.56625 53.22545 -15.000104 59.110264
54.012012 46.982895 58.53108 53.33664 37.39634 -3.1658144 36.327797 53.46703
2.097704 58.848507 43.251747 -15.615646 27.603638 37.898148 -33.16682 41.4563
37.414 47.149044 -2.20028 32.387005 44.858032 51.799286 51.667286 43.93653
55.30048 43.338356 43.38988 50.35347 60.263027 40.2258 36.941975 57.305153
47.97507 52.38855 -49.39657 46.824863 38.312267 31.678051 31.184776 35.219967
52.250122 10.518562 -22.100697 -3.3308372 -2.132711 46.233353 11.81408 -41.563877
32.849194 45.803326 49.18096 45.551334 49.687683 -45.539577 33.75812 -43.728725
37.036343 45.08735 -23.916864 30.678988 -36.29592 35.73751 46.07674 48.21795
57.31784 -2.643425 49.709885 38.178185 49.247063 -30.529726 -0.77810466 56.862278
-28.148655 -14.162425 -31.01829 57.68087 55.12913 55.19359 48.08122 35.611153
59.81915 13.869691 38.99526 40.76188 42.00778 45.13117 47.20746 43.911625
26.121061 -7.1107078 27.52719 17.792904 55.063545 47.787464 56.816586 41.540073
31.888205 50.436745 42.829613 50.528885 47.21961 54.204357 55.044052 -39.693592
-39.342873 49.375465 37.79441 45.757133 35.615417 43.959694 55.204464 48.302963
32.612602 -7.201455 38.948917 55.639275 42.76793 41.407715 47.9337 48.9772
53.02508 66.90606 51.603615 3.3234007 52.784164 61.23209 31.280998 52.125507
49.81178 38.418503 44.129845 53.86035 47.103237 58.7888 53.41684 33.578842
5.8292394 42.865368 -6.542312 -3.3480844 49.629894 43.55454 66.882965 39.03267
-32.907066 32.057083 -46.076458 54.65851 1.8660268 54.953213 36.809418 46.450935
63.151394 61.469147 56.332783 17.31392 -37.851707 12.948769 47.09184 20.033579
56.453243 49.530804 49.876957 55.51202 40.74067 15.735014 42.15359 -40.74978
3.255871 58.069885 53.245796 22.920452 -21.11765 47.795876 42.275547 52.735435
43.225315 40.83817 56.45171 51.05049 -42.03526 55.193054 48.61683 62.751045
64.26548 40.46009 -10.179612 48.424957 8.91298 42.789124 22.59842 41.87992

layer4.weight f4 [200, 200]
00000000: fdd1 22be ed36 21bc b4e0 773e c48a ddbe
00000010: a9b3 de3e 4057 4a3e 9274 4b3e e384 c6be
00000020: 97c1 b2bc c08f 96bc 3d0e 893b e2b4 a93c
00000030: d7f3 733d 50e2 eebf 0669 ae3e 78cf 67bd
00000040: c685 d4bd dd0e e9be 0c51 65bf f1d4 a4be
00000050: f706 9f3e 57b0 ee3c 4fdb b03d 251f 4b3f
00000060: 287b 983e d527 66bc aebc acbd 7fd2 993e
00000070: 39dc 2dbf 88b8 8d3e 130c 873e 1501 883e
00000080: 5594 ea3b 6199 c4bc 7aaf 4abc c732 473c
00000090: ed5e e9be bbc4 cd3d 9121 34bf 1f38 4bbc
000000a0: 0ae7 153e d293 d3bc a20d f73e 6ffe 34be
000000b0: 3129 6b3d 15f4 39bf 3166 4e3d edf4 833e
000000c0: 2655 17be 567e 42bf 2729 2cc0 2d7b d7be
000000d0: 1344 77be 0eb8 2fbe cbbd 443e abe9 343e
000000e0: 39dd 8b3e 726f 81be 7618 02be c791 5cbd
000000f0: 2e43 c93d abaa 6c3f cc26 3abc 83f3 9e3f
00000100: 0343 cebc 2b7b b4bd 4eb9 0d3d 9a98 b7bc
00000110: 2c11 05c0 2528 303d 8ab3 7d3d c904 15bd
00000120: 3477 b93d b5ae b9bd bcee b63e 1480 e53d
00000130: 43ef d8bd 021d 183f 5d14 023f db8c 25be
00000140: 602d 19c0 fd06 c7bf 8d15 32bf f20d 79bd
00000150: 632e 13be 37c2 94bb e065 a23c 0dc8 fbbe
00000160: 0534 17bd 07ab 3fbf deef df3e 5433 a93e
00000170: 00db 2b3d 019b c3bd 61d7 c73e 1769 6e3e
00000180: 09d4 4dbe 1cc1 15b8 25c0 1f3d 9049 893c
00000190: 8f53 6a3d 2f9c 98bd 42e9 423c 5f3e 073e
000001a0: 4dcc 913d b7bc e2be e332 893e 907f d2bd
000001b0: e5a9 553f bde1 a23d cdef a33b 123c 04bf
000001c0: 62f6 613e e6ab a1bd bc93 b2be 242d 8f3d
000001d0: 28bb 3d3e a731 9a3e 5418 2cbe b736 b43e
000001e0: c6bd d93e ffa7 b1bd 0ce8 29bf e713 9fbf
000001f0: e69e f5bf 2855 543e 2c0d 753d 4aa4 8d3e
00000200: 08d7 083e cd59 80bf 4d7f 103d 6a81 cfbf
00000210: b284 5ebe b971 83be 37fb 493e ecea d33c
00000220: be06 333e ed67 813e ef37 c5bd 265a b43e
00000230: 5834 9ebd dc52 ddbb 0f87 a63c b521 8c3e
00000240: 8190 343e 5530 b2be 719e 40bf 957c acbe
00000250: 47d0 d6bd 2c9f 963e 9cdc c1be 9873 cd3e
00000260: 0408 02be 32dc 18bc 3925 2abe 2063 d5bd
00000270: 01ce 9cbb e12f 11bb 9f54 083d bbc5 303e
00000280: 2c41 47bf 4dc4 efbe 4562 8dbd b587 ce3c
00000290: 4e64 c43d 3a96 4cbe 2805 33bd 995d 7e3e
000002a0: a8df 86be 8d08 e03c 8d6a 663e d23d 6f3a
000002b0: 2626 813d 006c 243c 8549 7eba 64e4 333e
000002c0: 8a89 36c0 ae2c 00bb 2c43 803d 928a dd3d
000002d0: 8caa 89bf 4d93 07bc 5a38 b43d 425a 7fbd
000002e0: d66b c7bc f031 8ebe 2c58 1aba d717 153c
000002f0: a184 d63e 9fce c43b d867 5c3c c945 2dbe
00000300: 6d42 02bf e3b3 8ebf 4904 513e 5958 d13d
00000310: 5d4f 81bf 25e2 3d3f c230 4f3f 0ddd 5cbc
00000320: b586 e93c 2e0f 483d 68eb edbc 100c e2bc
00000330: 8f7a e0bc ee74 1d3e 422c 353c c88f b3ba
00000340: 6fff 2ebd 2b44 053e 5639 d8bd 986c 6ebc
00000350: e5fc 45bd 5321 d13e 4270 88bd 7bd0 cb3a
00000360: 566d b2bc eba8 66bd 5847 153f 7b0b 88bc
00000370: 8c7b 6b3c 2e50 47bd 84f8 7e3e 6bf6 8a3e
00000380: a482 f63d 811d c7bd bbac 84bc 631c dabd
00000390: 9c00 2ebd 6b84 9f3d 956e 303e aa00 eebe
000003a0: c9db 913e 54ce 393d ace4 7bbd ac19 54bd
000003b0: c58b 0c3e 9f47 90bc dc32 433d 621d 93bd
000003c0: 78d6 5abe 4f9e 6cbc 0ba5 42be 74d7 01bd
000003d0: 2cf8 02bb e69b 98bd 3722 a03b 795e 433e
000003e0: 97bb f83c 9b8f c13d 002e 94c0 e5ac 29be
000003f0: dfba 04bd 816f 6abc dd8b e0bc cdfb 53bd
-0.15900417 -0.0098397555 0.24206811 -0.43269932 0.43496445 0.19759846 0.19868687 -0.3877326
-0.021820826 -0.018379092 0.0041826055 0.020716134 0.059558716 -1.8662815 0.34064502 -0.056594342
-0.10377078 -0.45519152 -0.8957679 -0.3219371 0.3106 0.02913682 0.0863558 0.793444
0.2978146 -0.014047583 -0.08434425 0.30043408 -0.6791416 0.2767985 0.263764 0.26563326
0.007158796 -0.023998918 -0.012370938 0.012158102 -0.45580235 0.10047289 -0.7036372 -0.012403517
0.14638916 -0.025827322 0.4825259 -0.17675184 0.05741233 -0.72638065 0.050390426 0.257728
-0.14778575 -0.75974023 -2.6900117 -0.42086163 -0.24147062 -0.17160055 0.19213025 0.17667262
0.27317217 -0.2528034 -0.12704644 -0.05384996 0.09827267 0.9244792 -0.011361789 1.2418064
-0.025178438 -0.08812555 0.03460055 -0.022411633 -2.079173 0.043007035 0.0619388 -0.036381517
0.09055939 -0.09066526 0.35729015 0.112060696 -0.105925106 0.5941926 0.5081232 -0.16167013
-2.3933945 -1.5549008 -0.69564134 -0.060804315 -0.14373164 -0.004539754 0.019823968 -0.49176064
-0.036914844 -0.7487034 0.43737692 0.33046973 0.0419569 -0.09551049 0.3903151 0.23282276
-0.20100416 -3.5704215e-05 0.039001603 0.01675871 0.057208594 -0.07451665 0.011896433 0.13207386
0.071190454 -0.44284603 0.26796636 -0.10278237 0.83462363 0.079532124 0.0050029517 -0.5165416
0.22066644 -0.07894115 -0.34878337 0.06991032 0.18528426 0.30116007 -0.16806155 0.35197994
0.42527598 -0.08674621 -0.663697 -1.2427949 -1.9189117 0.2073561 0.059827015 0.27664405
0.13363278 -1.0027405 0.035277653 -1.6211369 -0.21730307 -0.256727 0.19724737 0.025868855
0.1748304 0.25274602 -0.09629809 0.35225028 -0.077248275 -0.0067542624 0.020328073 0.27369466
0.17633249 -0.348025 -0.7524176 -0.336888 -0.104889445 0.29418314 -0.37863624 0.40127254
-0.1269837 -0.009329842 -0.16615762 -0.10419297 -0.0047852998 -0.0022153782 0.033283826 0.17262928
-0.7783382 -0.46829453 -0.06903509 0.025211195 0.09589444 -0.19979182 -0.04370609 0.24840392
-0.2634251 0.027347827 0.22501583 0.00091263384 0.06306104 0.010035515 -0.00097002863 0.17567593
-2.8521447 -0.0019557881 0.06262812 0.10817446 -1.0755172 -0.008274865 0.08799811 -0.062341936
-0.024343412 -0.27772474 -0.00058877724 0.009099922 0.41898063 0.0060060765 0.013452493 -0.16921152
-0.5088261 -1.1148647 0.20411791 0.10221929 -1.0102345 0.74173194 0.80933774 -0.013480437
0.028506616 0.0488426 -0.029042915 -0.027593642 -0.02740219 0.15376636 0.011057915 -0.0013699466
-0.04272407 0.13014285 -0.10557811 -0.014552258 -0.048336882 0.40845737 -0.066620365 0.0015549803
-0.021780651 -0.056313436 0.58311987 -0.016607037 0.014372718 -0.04866045 0.24899489 0.27141127
0.120366365 -0.09722424 -0.016195646 -0.106499456 -0.04248105 0.077889286 0.17229684 -0.46484882
0.28487995 0.045362785 -0.061497375 -0.051782295 0.13725193 -0.017612277 0.047655925 -0.07183339
-0.21370876 -0.014442041 -0.19008271 -0.031699613 -0.0019984348 -0.0745161 0.004886891 0.19079007
0.030362887 0.09451219 -4.630615 -0.1656986 -0.032404777 -0.014308811 -0.027410442 -0.051753808

layer4.bias f4 [200]
00000000: 6462 38c2 a2fb 1942 bedd 0442 7250 fa41
00000010: 8752 46c2 c9df 4e42 37a9 6d42 14ee 4b42
00000020: 4f9f 4342 4901 4a42 dafb f441 beb0 9cc1
00000030: 3230 f641 01cb 6b42 6478 1b42 66e9 ba41
00000040: bb80 6ec2 dc28 6c42 059a 73c1 0a35 4142
00000050: 822c 0b42 b0c0 6442 e8d3 c041 dcdf b541
00000060: 67f1 3542 79e5 e341 4b37 4d42 2e7f 5442
00000070: f4d6 6642 bca0 4f42 2c40 acc1 4bca 3842
00000080: 300f 3e42 6376 59c2 8366 6d42 1ba5 1642
00000090: 2bd7 6342 99e6 4f42 f91a 4b42 c8cc 2e42
000000a0: 43b5 3242 53f8 1542 7937 6142 51ea 5942
000000b0: 658b 4a42 0cbb 5d42 cc08 1942 c490 5342
000000c0: 4ad3 0442 09b5 7742 d849 4442 e90b 0942
000000d0: 3275 1742 78a3 6a42 6d27 5642 972a 5e42
000000e0: c4ee 4642 f2f2 0842 72a1 6642 c8cd ff41
000000f0: 5959 a83c d8cb be3f 0bc6 4e42 7004 1dc2
00000100: 8f0b 3042 0be0 e641 8d78 4542 e9c0 6c42
00000110: 2bf8 6642 84e8 4e42 8345 4542 28b8 1642
00000120: f7da 6a42 5a64 1cc2 2884 4a42 71fe 5342
00000130: bd7b f3c1 5aa6 6942 21e9 5742 99b4 1142
00000140: 205b 4642 4757 1d42 d02c 6542 7b69 6a42
00000150: bd4f 4a42 d3ee 7a42 246b 4342 9d5f 7c42
00000160: 42f3 1c42 e05a 6342 43fe 5d42 3cb9 5042
00000170: 60c3 5142 260a 4442 2e44 6242 662e 4342
00000180: 6600 4f42 a25a 5e42 6dba 5b42 693f 5f42
00000190: befa a5c1 35e4 0b42 f314 1b42 ce77 6c42
000001a0: 8f77 6b42 407e 4b42 a03b 6542 e1f3 4842
000001b0: 118b 75c2 0690 5642 fec1 1cbd 7957 1f41
000001c0: 872d 1fc2 fea2 4e42 65e3 6942 cd65 5d42
000001d0: 4aad 5e42 4321 1ac2 6709 2642 5365 6642
000001e0: 7bee dec1 4af9 f941 959a 5442 3360 2c42
000001f0: b7bb 0442 3251 5c42 0007 fb41 2b15 abc1
00000200: b305 46c2 4381 5fc2 21c2 e241 fc24 3842
00000210: 01ee 4842 27f6 5642 a316 12c2 a156 6442
00000220: 88e2 5e42 b614 7a41 0983 36c2 be7f 0a42
00000230: 4b0e 6242 7660 c341 41a8 5042 47d4 5e3d
00000240: 1eb6 0942 611b 6442 a5e7 5a42 cac1 5a41
00000250: 952b 2e42 0237 2142 a8ee 5042 505a e341
00000260: db3d 49c2 fd92 0042 f7a9 4342 98e7 f0c1
00000270: edd3 ed41 5454 36c2 43f7 b5c1 996b 4042
00000280: 8e70 6f42 05a8 14c2 9a0c 2c42 b555 6f42
00000290: 2f6f e3c1 bd99 09c2 10b2 1c42 06b9 e7c1
000002a0: a2d0 dd41 5510 5d42 1f74 6c42 05ae f93f
000002b0: 387f 2942 2380 5942 5f1e 51c2 cb4f 5842
000002c0: 9c6f 5f42 7a4d 9241 d551 13c2 b858 1f42
000002d0: 94a5 6642 7628 783f 65b1 2142 7321 eb41
000002e0: 2860 6042 0bfc 3c42 cc73 4d42 a83c 7942
000002f0: 0105 df41 595f ea41 76f7 4e42 1abd 6a42
00000300: 5fab 5c42 02a2 5442 b5f5 5d42 3f77 5d42
00000310: 40b2 4342 fffe 5942 65f4 4e42 e6bc 03c2
-46.096085 38.495735 33.216545 31.28928 -49.580593 51.71854 59.41525 50.9825
48.905575 50.501255 30.622974 -19.5863 30.773533 58.948246 38.86757 23.363964
-59.625713 59.0399 -15.225102 48.301796 34.793465 57.18817 24.10347 22.734306
45.485744 28.487047 51.303997 53.1242 57.709915 51.906967 -21.531334 46.19755
47.51483 -54.365612 59.35011 37.661236 56.960125 51.975193 50.77634 43.69998
44.677013 37.492504 56.304173 54.478825 50.636127 55.432663 38.25859 52.891373
33.206337 61.926792 49.072113 34.26163 37.86445 58.659637 53.5385 55.54159
49.73317 34.23725 57.65766 31.97548 0.020550417 1.4905958 51.6934 -39.254333
44.011288 28.859396 49.367725 59.18839 57.74235 51.727066 49.317883 37.67984
58.713833 -39.098 50.62906 52.998478 -30.43542 58.412453 53.977665 36.426365
49.58899 39.33523 57.293762 58.60301 50.57787 62.733227 48.85463 63.093372
39.237556 56.838745 55.498302 52.180893 52.440796 49.00991 56.56658 48.79531
51.75039 55.58851 54.932056 55.811924 -20.747433 34.97286 38.77046 59.116997
58.866756 50.87329 57.308228 50.238163 -61.385807 53.640648 -0.038270943 9.958856
-39.79446 51.659172 58.472065 55.349415 55.669228 -38.532482 41.509182 57.59895
-27.866446 31.246723 53.15096 43.093945 33.183315 55.079292 31.378418 -21.385336
-49.505566 -55.876232 28.34479 46.036118 50.232426 53.740383 -36.522106 57.0846
55.721222 15.630056 -45.627964 34.62475 56.513958 24.4221 52.16431 0.054401662
34.42785 57.026737 54.726215 13.672312 43.54256 40.30372 52.233063 28.419098
-50.310406 32.143543 48.91598 -30.113083 29.72848 -45.58235 -22.745733 48.105076
59.859917 -37.16408 43.012306 59.8337 -28.429289 -34.400135 39.17389 -28.965343
27.726871 55.26595 59.1134 1.9506232 42.374237 54.375134 -52.27966 54.077923
55.858994 18.28783 -36.829914 39.83664 57.661697 0.9693674 40.423237 29.391333
56.093903 47.246136 51.363083 62.309235 27.877443 29.296556 51.74166 58.68467
55.167355 53.15821 55.48995 55.36645 48.924072 54.49902 51.738667 -32.93447

layer5.weight f4 [200, 200]
00000000: 0873 fe3a 265d 56bc f7c8 0e3d a400 b8bc
00000010: 1e4a a4bb 08ec 28bc f8b8 21bd 6ede 52bc
00000020: c928 66bd 2745 ac3b 3aa0 ab3a ca18 0a3c
00000030: a241 a9bc 3be4 1cbd 46e7 f53b 42c2 3ebd
00000040: f57c 1d3d bea1 9abc a078 cf3c 9f89 e9bc
00000050: 1839 f6bb 4477 75bd 767e 37bc d002 6c3c
00000060: b45b babc be2e 54bd 16f6 4dbc 783d df3c
00000070: 57a7 6fbc de9e 82bd ae7a 04bc 1a62 c7bc
00000080: f181 5abc 2976 9ebd 7955 a7bc df4b 543d
00000090: fd53 733c c619 85bb 3f1b 0cbc 9e08 a13c
000000a0: 4e9a dfbc 6942 81bd 6957 49bd cf49 063d
000000b0: f163 b3bb 94da 983c a811 993c 59dc a0bc
000000c0: 36be 123d 366e 0bbd 6c7a 2f3d 330e b33c
000000d0: 2c4d 6c3d 28c4 5e3d 4d74 16bc 38cb adbc
000000e0: a22b e5bc c746 873d 9f0a abba b741 1f3c
000000f0: 2e67 3e3d c031 c3bc b24d 843c fb0b 26bb
00000100: bdb2 e23a 7859 83bd 2b2c 03bd 4cf9 15bc
00000110: 70d0 23bd d3b0 12bb b83b 3abd 2ae7 773a
00000120: c8d3 1dbd f0ad 093d ad80 7bbd f50f 593c
00000130: 74fb 3abd 8fc8 40bc 89ab 1b3d 0738 373d
00000140: 550e 5fbc 667d 8e3c d78c 61bd 5a31 41bd
00000150: a080 f73c 5c91 903c 7a4f 98bd 34d1 efbc
00000160: f8c1 2cbd ba51 8ebd 2293 b13b fd07 693b
00000170: 2608 b03c 1dfa 3c3d b0a6 873b 74d6 3f3c
00000180: 937c 23bd 4b30 2e3d e080 17bd 00ff 3bbd
00000190: bb74 4abc cd43 11bc c991 99bd ce99 e5bc
000001a0: 7719 11bd bdf9 183c f111 1abd d780 5f3c
000001b0: 2929 85bd c0f1 eb3a 8594 e2bc 4dd3 313d
000001c0: 0994 23bb 6862 93bd 481b 14bd 30b6 8c3c
000001d0: 6dc7 e2bc dc23 73bd 82b8 abbd ef98 85bd
000001e0: 92fc abbd 9c41 c1bb 305e 06bd 44cb 8d3c
000001f0: ccb7 6ebd 1557 93bd eca1 64bd 2b9f 323d
00000200: 65d3 c4bc 4daa 98bd e454 fabc ed88 673d
00000210: aba8 c93c 32aa 373d c676 8abd 43a3 97bd
00000220: 417d 6e3d e184 8dbd 2770 8abd f284 f5bc
00000230: fc5b 2dbc 38e5 4fbc 2daf 11bd 8780 1ebd
00000240: b6c2 fdbc 949b 9ebb 3a0f ed3c 06f1 153d
00000250: a1b8 47bd c4b5 cb3c 1826 37bd f071 9fbd
00000260: fadb 713d 6193 013a cfed 6cbd 029d ce3c
00000270: 1632 2dbd 3874 993c 56d0 2abd 4743 5abc
00000280: 2522 7abd bd59 98bd b505 a0bc e361 01bd
00000290: 1fce 2c3d 53f5 80bd 8e59 f53c edac 49bd
000002a0: 605c 2cbc f924 353d 35c0 38bd bf0e debc
000002b0: 6ce7 3e3d d984 52bd f286 303d 0bc9 12bd
000002c0: 479e 3abc 72e3 9cbd 27b9 853d baa8 7f3d
000002d0: 0180 403d c693 6ebd d519 b23c b153 6f3c
000002e0: 53c0 36bd 5f8b 00bd aad2 b0bc 5531 d4bc
000002f0: b23d 713d 9ea8 27bb 3d40 163d 3903 66bd
00000300: d7c2 623d 72bd 8fbd 73ca 5c3d 24b1 793b
00000310: 8f71 3cbc b8ea 013d 238f 5d3c 81d7 6dbc
00000320: 0331 033b cadd 813b fd8b f1bb a844 66bc
00000330: 6f24 62bd 41d0 9b3d 4cbf 4ebe 011b 903a
00000340: d740 a1bc bfe0 a83e 4199 bfbd f7bc 4d3d
00000350: ef95 723e 9c4d e83d cbf5 883b 583e 2fbd
00000360: 892b b3bc a83e d6be de86 4abe ed53 933e
00000370: 8cff 01bc 9829 d5be eda9 2dbe 17c6 3b3d
00000380: 4a2d 9ebc cfc6 c2bd 2fe0 13bd 56d2 1ebe
00000390: dd68 72bc b3c8 29bd 8aff 69be 516f 8e3c
000003a0: 144c 7abc ae57 90bb bd5a a9bd cb0f 8c3e
000003b0: 6062 0b3e e7c2 bdbc 89ee 09bd 6d2a 8dbe
000003c0: 1be6 4bbc 167a 17be 56d2 83be 8530 b03e
000003d0: f4fc 88bc 98e4 9abd f6a5 4ebe 26a1 893d
000003e0: 579b 83bc 42b6 4ebd fa9e 28bd ca1f 963d
000003f0: fdd0 803d b1e3 57bc e7c7 313e 67c8 78bd
0.0019412944 -0.013083732 0.034859624 -0.022461243 -0.0050137183 -0.0103101805 -0.03948304 -0.012870414
-0.05619124 0.005257267 0.0013094016 0.008428762 -0.020661179 -0.038303595 0.0075043766 -0.046571977
0.038449246 -0.018875953 0.025326073 -0.028508006 -0.0075141303 -0.059928194 -0.011199584 0.014404967
-0.022748806 -0.05180239 -0.0125708785 0.02725099 -0.014627299 -0.06377958 -0.00808589 -0.02433877
-0.0133366445 -0.07737381 -0.020426499 0.05183017 0.014851567 -0.0040619103 -0.008551418 0.01965743
-0.027295258 -0.06311495 -0.049155626 0.032785233 -0.0054745604 0.018658914 0.018685177 -0.01963632
0.03582593 -0.034040652 0.04284136 0.021857357 0.057690784 0.054386288 -0.009183002 -0.021215066
-0.027974907 0.066052966 -0.001304943 0.0097202575 0.04648512 -0.023827434 0.01615033 -0.002533673
0.00172957 -0.06413549 -0.032024544 -0.009153675 -0.039993703 -0.0022383227 -0.04546711 0.00094567484
-0.03853205 0.033613145 -0.06140201 0.013248433 -0.04564996 -0.011766567 0.038005386 0.044731166
-0.013614257 0.017393779 -0.055065956 -0.047166206 0.0302127 0.017647438 -0.07437034 -0.02927456
-0.04217717 -0.06949182 0.005419151 0.003555774 0.02148826 0.046136964 0.0041397437 0.011708844
-0.039913725 0.042526525 -0.03698814 -0.045897484 -0.012356932 -0.008866263 -0.074985094 -0.028027441
-0.035424676 0.009336886 -0.037614767 0.013641558 -0.06501991 0.0018001124 -0.02765871 0.043414403
-0.0024960062 -0.07196504 -0.03615883 0.017176718 -0.027682984 -0.05936037 -0.083848014 -0.065233104
-0.08397783 -0.005897714 -0.032804668 0.017308839 -0.05828075 -0.07194344 -0.055818483 0.043608826
-0.024026582 -0.07454357 -0.030558057 0.056527067 0.02461656 0.044840045 -0.067609355 -0.074041866
0.05822492 -0.0691011 -0.067596726 -0.02997062 -0.010581013 -0.012688927 -0.03556745 -0.038696792
-0.030976634 -0.0048403237 0.028937925 0.03660681 -0.04876006 0.024866946 -0.044714063 -0.07785404
0.059047677 0.00049429206 -0.05784398 0.025221352 -0.042284094 0.018732175 -0.04170259 -0.013321704
-0.06106772 -0.07438991 -0.019533971 -0.031587493 0.04218876 -0.06296792 0.02994993 -0.04923718
-0.010520071 0.044224713 -0.045105178 -0.02710664 0.04660742 -0.051396225 0.043097444 -0.03583626
-0.011390275 -0.07660569 0.06529456 0.06241677 0.046997074 -0.058246396 0.021740833 0.014607356
-0.04461701 -0.031382915 -0.021584827 -0.02590243 0.058896728 -0.0025582681 0.036682356 -0.056155417
0.055361595 -0.07018556 0.053904008 0.0038099969 -0.011501684 0.031717986 0.013522896 -0.014516712
0.0020018227 0.003963207 -0.007371424 -0.014054455 -0.055210527 0.07608081 -0.20190161 0.0010994376
-0.019684238 0.32983968 -0.09355403 0.05022904 0.23690008 0.11342928 0.0041796914 -0.042784065
-0.021871345 -0.41844678 -0.1977801 0.28774968 -0.007934462 -0.41633296 -0.16959353 0.04584321
-0.019308705 -0.09510576 -0.03610247 -0.15509924 -0.014795509 -0.041451167 -0.22851387 0.017387064
-0.0152769275 -0.0044049835 -0.0826926 0.273558 0.13611746 -0.023164226 -0.03367475 -0.2757143
-0.012444998 -0.14792666 -0.2574641 0.34412017 -0.01672218 -0.07563132 -0.20180497 0.0672019
-0.016065283 -0.050466783 -0.041167237 0.07330282 0.06289861 -0.013176844 0.17361413 -0.060737994
