src/model.pth (torch, 978174 bytes, 16 tensors)

layer1.weight f4 [200, 6]
0	0x397fe6a6	0.00024404618
1	0xc09fe427	-4.9966006
2	0x407a9095	3.9150746
3	0x3f8182d7	1.0118054
4	0xc033489b	-2.8013065
5	0x3ff5a563	1.9191097
6	0xba2230e5	-0.00061870954
7	0xbe42186a	-0.18954626
8	0x3e1002f5	0.14063628
9	0xbec570f3	-0.38562736
10	0x3d1d523d	0.038408507
11	0x406c529c	3.692542
12	0x3a88b4c0	0.0010429844
13	0x3dfd9db9	0.12383599
14	0xc0e9bfd4	-7.3046665
15	0xbf874a8b	-1.0569624
16	0xbd2d0e97	-0.042250242
17	0x4032b79f	2.7924573
18	0xbaabdb55	-0.0013111631
19	0xbf2bece7	-0.6715836
20	0x3eca3cf5	0.39499632
21	0x3e8ef6dc	0.27922714
22	0x3e447094	0.1918357
23	0x40370330	2.8595695
24	0xbaac9c6c	-0.0013169176
25	0x3c326f4d	0.010890794
26	0x3f4a2d0e	0.78975
27	0x4106cb7a	8.424677
28	0xbb5c6f63	-0.0033635728
29	0x40473d33	3.1131103
30	0x3af7e9c4	0.0018914272
31	0x3e45ff10	0.1933558
32	0xc07e5e81	-3.974518
33	0x404851e0	3.1299973
34	0xbe397cf9	-0.1811408
35	0x405a6e95	3.4129994
36	0x3db69f32	0.08917083
37	0xbdd47026	-0.10372953
38	0xbfb57623	-1.4176677
39	0x40c85fcf	6.2616954
40	0x3dae4f82	0.08511259
41	0x3ee49e0e	0.44651836
42	0xbdbe3831	-0.092880614
43	0xbe8f403b	-0.2797869
44	0x3d512b61	0.05106676
45	0x3ead7eac	0.33885705
46	0xbe8baac2	-0.27278715
47	0xbec09b2a	-0.3761838
48	0xbafde88a	-0.001937167
49	0xbfc27d28	-1.5194445
50	0x4054e849	3.3266776
51	0x400149d2	2.0201306
52	0x3dece76c	0.11567578
53	0x4043fd45	3.0623333
54	0x3da52ef5	0.08065597
55	0xbe3ec38a	-0.1862928
56	0xbfe6bcb5	-1.8026339
57	0x40c791f0	6.2365646
58	0x3d645011	0.05574042
59	0x3f2c3f95	0.6728452
60	0x3bfc30ab	0.0076962314
61	0x3d421d92	0.04739148
62	0xc1662dbe	-14.386168
63	0xc139bc78	-11.608513
64	0xbcab06a4	-0.02087719
65	0x3d205808	0.039146453
66	0x3c02c926	0.007982528
67	0xc085b1c2	-4.177949
68	0x4013e967	2.3111207
69	0xc021bbb6	-2.527082
70	0xc03e5cdd	-2.974418
71	0x3e07923e	0.1323938
72	0xbd730700	-0.059332848
73	0xbec7ec2c	-0.39047372
74	0x3e57867e	0.21047398
75	0xbc21bf9b	-0.009872342
76	0xbe17bd97	-0.14818417
77	0xbea2a241	-0.31764415
78	0x39914428	0.00027707336
79	0xbf16a5d1	-0.58846766
80	0xbfac17c3	-1.3444752
81	0x4082fa33	4.093042
82	0x3de5be36	0.112179205
83	0x40577dea	3.3670602
84	0xbe204c10	-0.15654016
85	0xbeac448b	-0.33646044
86	0x3cf9212a	0.030411322
87	0x3e6adab4	0.22934991
88	0x3d5f6606	0.054540657
89	0xbdda2ec6	-0.106534526
90	0x3aa44141	0.0012531654
91	0xbda7179b	-0.08158799
92	0xc11c09d8	-9.752403
93	0xc0a7b5f3	-5.2409606
94	0x3c5466a0	0.012963921
95	0x4006e80f	2.1079137
96	0xbddb9f27	-0.10723715
97	0xbe90e571	-0.2830005
98	0x3ec83cba	0.3910883
99	0x3e3b6f31	0.18304135
100	0x3d84cbaa	0.06484158
101	0xbc14f373	-0.009091246
102	0xbceeea89	-0.02916457
103	0xbe87a637	-0.26494
104	0xbbae490d	-0.005318767
105	0x3da100e0	0.07861495
106	0xbe31a2ef	-0.1734731
107	0xbe77c4af	-0.24196123
108	0xba7a3f6d	-0.00095461943
109	0xbe128514	-0.14308578
110	0x3f8c615b	1.096721
111	0x3fa98c6c	1.3245978
112	0x3d0d0edc	0.034438
113	0x408d93f1	4.4243093
114	0xbe431ba8	-0.19053519
115	0x3ee1cd22	0.44101816
116	0xc0708e6d	-3.758693
117	0xc136dce9	-11.428933
118	0xbe89031d	-0.26760188
119	0x401a9fc7	2.416002
120	0xbaaedc08	-0.0013340721
121	0x3ea72e29	0.32652405
122	0xbe9250d1	-0.28577283
123	0xbfd1d530	-1.6393185
124	0xbd82cbff	-0.063865654
125	0x4084c592	4.1491175
126	0x38d94745	0.00010360641
127	0xbf79becf	-0.97556776
128	0xc066f5da	-3.6087556
129	0xc05f7492	-3.49149
130	0x3e853707	0.26018545
131	0xbf8a5752	-1.0807898
132	0xbf015a5e	-0.50528514
133	0x3dc7db44	0.097586185
134	0x3ef75cc4	0.48312962
135	0xbd6debe7	-0.058086302
136	0x3d8cb4da	0.06870432
137	0xbf9dc2d4	-1.2325082
138	0x3eab026b	0.33400282
139	0xbfd33130	-1.6499386
140	0x3e389bf0	0.18028235
141	0x40e16185	7.0431542
142	0xbe80c7dc	-0.2515248
143	0x40791006	3.891603
144	0xba74a0d0	-0.0009331824
145	0xbf3d3a2d	-0.73916894
146	0x40600b4a	3.500689
147	0xc036b652	-2.854878
148	0xbf4d7f3a	-0.8027226
149	0x4070c225	3.7618496
150	0xbb3d5fda	-0.0028896243
151	0xbf4346be	-0.7627982
152	0xbf56000a	-0.8359381
153	0x40f13a93	7.5384
154	0x3e1d5709	0.15365233
155	0x403308bb	2.7974079
156	0xbebd5aa4	-0.36983216
157	0x3e2a0f66	0.16607437
158	0xbfa351f1	-1.2759382
159	0xbe5af06d	-0.21380778
160	0x3dcf0542	0.10108425
161	0xbfe5ddf7	-1.7958363
162	0xbe325298	-0.1741432
163	0x3eae76ad	0.34074917
164	0x3dcfe5d3	0.10151257
165	0x3e44d39a	0.19221345
166	0xbeb30bed	-0.34970036
167	0x3e3c785b	0.18405287
168	0xbe58d91b	-0.21176569
169	0x3e304221	0.17212726
170	0x3e50dca3	0.20396666
171	0xbecd9d80	-0.40159225
172	0xbe9ce3b6	-0.3064248
173	0x3dc82d24	0.09774235
174	0x3ee11f6a	0.4396928
175	0xbf28908b	-0.65845555
176	0x3dbc85f6	0.092052385
177	0x40ddc714	6.9305515
178	0xbd7d1797	-0.061790075
179	0x40817c00	4.0463867
180	0x3a37d3a2	0.0007012432
181	0x3fa3cab8	1.279624
182	0xc0020308	-2.031435
183	0x40b7f18b	5.748235
184	0xbec38da7	-0.3819401
185	0x3fbd60cf	1.4795169
186	0x3a67e91f	0.00088466884
187	0xbf56c59f	-0.83895296
188	0x3d8c3aee	0.068471774
189	0x4103ba03	8.232913
190	0x3e2c8086	0.16845903
191	0xc0527a05	-3.2886975
192	0x3eeb9b16	0.4601676
193	0xbf048395	-0.5176328
194	0x3f82a1d2	1.0205634
195	0x40db6076	6.855525
196	0x3e4a0c5a	0.19731274
197	0x407046e3	3.7543266
198	0x3a92c801	0.0011198522
199	0x3bd549b0	0.0065090284
200	0xc10e5acc	-8.897167
201	0xc0a41a8c	-5.1282406
202	0xbb1db7b9	-0.0024065806
203	0x3fcfffd6	1.624995
204	0x3a540bc1	0.00080889097
205	0x3fa09134	1.2544312
206	0xbfffffed	-1.9999977
207	0x4090db6b	4.5267844
208	0xbeba4cd1	-0.3638673
209	0x3f95f5f3	1.1715683
210	0xbdd21c50	-0.102593064
211	0x3e28024f	0.1640713
212	0xc04d6aed	-3.2096512
213	0xbf7a58e1	-0.9779187
214	0x3e1a2501	0.15053178
215	0xbf9d55a7	-1.2291764
216	0xbe4c3612	-0.19942501
217	0xbec9e531	-0.39432672
218	0xbe82459a	-0.25443727
219	0xbc8ecd9d	-0.017432028
220	0xbcf68cec	-0.030096494
221	0x3df03e8e	0.11730681
222	0xbadfefc7	-0.0017085009
223	0xbf20a460	-0.62750816
224	0x3f790e2b	0.97287244
225	0x413ea9a4	11.916416
226	0x3dfdb8c7	0.12388759
227	0x3fec92be	1.8482282
228	0xbad273d0	-0.0016056243
229	0xbfb7ff03	-1.4374698
230	0x3cf3d789	0.029765861
231	0x410ef760	8.935394
232	0x3e88ca19	0.26716688
233	0x3f97aa86	1.1848915
234	0xbec5d35d	-0.3863782
235	0x3da367e1	0.07978798
236	0x3d134a12	0.03595931
237	0xbecbf999	-0.39838865
238	0xbeb1c3b0	-0.3471961
239	0x3e028788	0.12747014
240	0xbe8c03dd	-0.27346697
241	0xbec0c871	-0.37652925
242	0xbbe56ca4	-0.0070014764
243	0xbe42d009	-0.19024672
244	0xbe892a60	-0.26790142
245	0x3e211d3d	0.1573381
246	0xbe360b89	-0.17777838
247	0xbe532ae7	-0.20621835
248	0x3e855a80	0.2604561
249	0xbe2be3c2	-0.16786101
250	0xbe4a34f7	-0.19746767
251	0x3ecb705d	0.39734164
252	0xb9e4552b	-0.00043551004
253	0xbe7685e6	-0.24074516
254	0xbfb91f2d	-1.4462639
255	0x40b96bc7	5.7944064

layer1.bias f4 [200]
0	0x41668359	14.407067
1	0x42157813	37.36726
2	0xc1b13cd2	-22.154697
3	0x421aad5b	38.669292
4	0x418518bf	16.637083
5	0xc181703f	-16.179808
6	0x41beff98	23.874802
7	0xbdd2d0aa	-0.10293706
8	0x4208e42b	34.22282
9	0x41bfefb5	23.992044
10	0xc18f9363	-17.946966
11	0x416ff7de	14.998014
12	0xbec31e9c	-0.3810929
13	0x420863ae	34.097343
14	0xbe975954	-0.2956034
15	0xc1a55815	-20.668009
16	0xbd03846f	-0.03210872
17	0x3e78f3bb	0.24311726
18	0x4212fdff	36.748043
19	0xc00e488c	-2.223178
20	0xbee60ec0	-0.44933128
21	0xc15d9167	-13.847999
22	0xbe54e02b	-0.20788638
23	0x41c99202	25.196293
24	0x41f7b80a	30.964863
25	0x409b1ef1	4.847527
26	0xbf35ae55	-0.70969135
27	0x3dfdba59	0.123890586
28	0x3ebc0786	0.3672449
29	0x41e010f0	28.00827
30	0xc1bfff48	-23.99965
31	0xc1fa56a7	-31.29231
32	0x4206f427	33.73843
33	0xc19bfb43	-19.497686
34	0xc1b6cfda	-22.85149
35	0xbf74a077	-0.9555735
36	0x3e20fc5f	0.15721272
37	0x409f3219	4.9748654
38	0x417b798e	15.717176
39	0x3e8d321f	0.27577302
40	0xbd357645	-0.044302244
41	0x3eaa0a1b	0.33210835
42	0x41c75b88	24.919693
43	0xbf36a562	-0.71346104
44	0xc1523973	-13.139026
45	0xbfc867b1	-1.5656644
46	0x3ed0cb91	0.4078031
47	0xbdabc33a	-0.08386846
48	0xc00051a2	-2.0049825
49	0x3e72e0a7	0.2371851
50	0xc1141054	-9.253986
51	0x41d880d6	27.062908
52	0x41c659cf	24.793852
53	0xbec03222	-0.37538248
54	0x41b1eb78	22.239975
55	0x41fb566c	31.417198
56	0x4188e1da	17.11028
57	0x3eb46d3b	0.35239586
58	0x407b6d01	3.928528
59	0xbd8da0b6	-0.06915419
60	0x40f2f5fe	7.5925283
61	0xbea5af61	-0.32360366
62	0xbfe19b5a	-1.7625535
63	0x418f47e9	17.910112
64	0xc0002c0b	-2.0026882
65	0x4219210e	38.28228
66	0xbf247211	-0.6423655
67	0x41ef6531	29.92441
68	0x408b57a7	4.3544497
69	0xc1908d11	-18.06888
70	0x41cd6022	25.67194
71	0x3e670bff	0.2256317
72	0x421ff4b8	39.988983
73	0x3d3ed20e	0.046587043
74	0xbeb164ef	-0.3464732
75	0x421c350e	39.05181
76	0x41148bd9	9.2841425
77	0x3cb2be83	0.021819359
78	0xbe9ffa0e	-0.31245464
79	0xbe9f87e9	-0.3115838
80	0x4214431f	37.065548
81	0xc093580a	-4.604497
82	0xbf0c1a1d	-0.54727346
83	0xbebe909f	-0.37219712
84	0xc1b68d96	-22.819134
85	0xc137c502	-11.485598
86	0xc1bf8de8	-23.94429
87	0x3e669631	0.22518231
88	0x4038b766	2.8861938
89	0x3f24ebe2	0.6442243
90	0x41d92a3a	27.145618
91	0xbd9ce0de	-0.076600775
92	0xc1656c30	-14.338913
93	0x41b57af3	22.685034
94	0xbd8ffe38	-0.0703091
95	0x3ec13c3f	0.37741277
96	0x4116b920	9.420197
97	0x421f872b	39.882
98	0xbee1ffcd	-0.44140473
99	0xc1e4f71a	-28.620655
100	0xbea6aa8c	-0.32551992
101	0xbdd01f3c	-0.101622075
102	0x3fb91efb	1.446258
103	0x3eb1f18c	0.34754598
104	0x41adf277	21.743391
105	0xc19bb4a7	-19.46321
106	0xbf121881	-0.5706864
107	0x41fc4b78	31.53685
108	0x4068cc3d	3.6374657
109	0x4197eb81	18.989992
110	0xbe14f42e	-0.14546272
111	0xbc874717	-0.01651339
112	0xc03b9255	-2.9308064
113	0xc1a14d5e	-20.162777
114	0xc175f216	-15.371603
115	0xc008d178	-2.137785
116	0xbec0ed06	-0.37680835
117	0x41fae485	31.361582
118	0xc0ab48c6	-5.3526335
119	0x418d0953	17.629553
120	0x41d5ac32	26.70908
121	0xc0940770	-4.625908
122	0xbe0ae2bc	-0.13563055
123	0x3e91f5bc	0.28507793
124	0x3dff8b51	0.12477744
125	0x3e28720e	0.16449758
126	0x41efd01d	29.976618
127	0x41cfac26	25.959057
128	0xbf0613f1	-0.5237418
129	0x3e39c8cf	0.18143009
130	0xbdec5edf	-0.11541533
131	0x3d90db2c	0.07073054
132	0x3d1749da	0.036935665
133	0x4087fc32	4.2495356
134	0x418277ec	16.308556
135	0xbf2d8fc3	-0.6779749
136	0xbf00b648	-0.5027814
137	0x3dbdc8d7	0.09266823
138	0x3eb17eca	0.34667045
139	0x41f25f67	30.296583
140	0x41f8d292	31.102818
141	0x418ef518	17.869675
142	0x41b845ff	23.034178
143	0x3dabd545	0.08390287
144	0x418f5421	17.916079
145	0xbfecbec2	-1.8495715
146	0x4154df70	13.30455
147	0x4213b6a8	36.928375
148	0x41d74d1e	26.912655
149	0x3c3f8401	0.011689187
150	0xbf7c9a34	-0.98672795
151	0xbec93eae	-0.39305633
152	0xc19e6f2a	-19.80428
153	0xc16777b1	-14.466722
154	0xbe043322	-0.1291013
155	0x41f4a1c9	30.578997
156	0xc11d9442	-9.848696
157	0x40beed30	5.9664536
158	0x4206e698	33.72519
159	0x3eb78384	0.35842526
160	0xc1a6cbe8	-20.849564
161	0xbe02bf07	-0.12768184
162	0x4203280e	32.789116
163	0xc1733c3b	-15.202205
164	0x412f9b30	10.975388
165	0xbffbaa49	-1.9661342
166	0xc129f1d2	-10.621538
167	0xbea0806e	-0.31347984
168	0xbf815b32	-1.0105956
169	0xbf170dda	-0.5900551
170	0x3f061cb1	0.5238753
171	0x4131bb80	11.108276
172	0x41b9b54b	23.213522
173	0x3fcc27f2	1.594969
174	0xc19cbd6f	-19.592497
175	0xbe2843a8	-0.16432059
176	0x41a24a5c	20.286308
177	0x3dc52121	0.096254595
178	0x3e7a721f	0.24457596
179	0x42015805	32.335957
180	0xbec12c75	-0.3772923
181	0x3e72cf4f	0.23711894
182	0x3d9d367f	0.0767641
183	0xbfb5bdcb	-1.4198545
184	0x4175baa2	15.358065
185	0x41816af0	16.177216
186	0x420b8592	34.88044
187	0x3e607626	0.2192007
188	0xc12610ef	-10.379134
189	0xc1a5b2d3	-20.712317
190	0xc1a71b44	-20.888313
191	0xc1b095f4	-22.07322
192	0x416ccaed	14.799542
193	0x41500ab1	13.00261
194	0xbfe3b3b9	-1.7789222
195	0xbe844734	-0.25835574
196	0xc146fbba	-12.436457
197	0x3ecf982b	0.40545782
198	0x421aae11	38.669987
199	0x41faec41	31.365358

layer2.weight f4 [200, 200]
0	0xbd91a71a	-0.0711195
1	0x3eddebf8	0.43344092
2	0x3d557326	0.052111767
3	0xbc8694be	-0.016428348
4	0x3ea0e5e6	0.314254
5	0x3e829c6e	0.2550997
6	0xbb0f560b	-0.0021871354
7	0xbc2f3499	-0.010693693
8	0x3dcc2452	0.09967865
9	0xba823c36	-0.0009936157
10	0x3e52e2f8	0.20594394
11	0x3d35bb15	0.04436787
12	0x3cba43a0	0.022737324
13	0x3e87dd20	0.26535892
14	0xbd19238f	-0.037387427
15	0xbe037c37	-0.12840353
16	0x3cab5ef1	0.020919295
17	0xbd0a51d0	-0.03376943
18	0x3e817d7f	0.25291058
19	0xbf3080aa	-0.68946326
20	0x3daac887	0.08339029
21	0xbaf73429	-0.001886015
22	0xbcbb07ed	-0.022830928
23	0xba41870c	-0.0007382489
24	0xbca45828	-0.020061567
25	0x3ebef3e1	0.3729544
26	0x3c15b357	0.009136996
27	0x3d547b90	0.05187565
28	0x3ce0b214	0.027428664
29	0xba5c23b6	-0.00083976553
30	0x3f2233b2	0.6336013
31	0xbdab6676	-0.08369152
32	0xb92f642c	-0.00016726617
33	0xbe65e24d	-0.22449608
34	0x3efc8efc	0.49327838
35	0x3ba0314f	0.0048886905
36	0xbb73abf9	-0.003718136
37	0x3ece30b5	0.40271536
38	0x3f207f26	0.62694013
39	0x3d3c4e63	0.045973193
40	0xbcb824a8	-0.022478417
41	0x3c106219	0.008812451
42	0x3ea56097	0.32300255
43	0xbbb8351b	-0.005621565
44	0x3dae9cd6	0.08526008
45	0x3ec022da	0.3752659
46	0x3d0ea19e	0.0348221
47	0x3d844603	0.06458666
48	0xbf310f5b	-0.69164056
49	0x3d8789e3	0.06618097
50	0x3ec73772	0.3890949
51	0x3bbf1beb	0.0058321855
52	0xb9f11647	-0.000459837
53	0x3d343375	0.043994386
54	0xbe6dc945	-0.2322131
55	0x3eec8756	0.46197003
56	0x3e419e4b	0.1890804
57	0xbac70c61	-0.0015186184
58	0x3c63a9cc	0.013895463
59	0xbd10599b	-0.035241704
60	0xbb9fe621	-0.0048797284
61	0xbcbc7856	-0.0230066
62	0xbc402676	-0.01172792
63	0xbcdeb268	-0.02718468
64	0xbcee9fbc	-0.029128902
65	0xbcbfd213	-0.0234156
66	0xba5683f4	-0.00081831147
67	0x3e0ee57a	0.13954726
68	0x3b1ae9f3	0.002363798
69	0x3f17b4b9	0.59260136
70	0xba67fac5	-0.0008849318
71	0xbd3523e6	-0.04422369
72	0x3b08a8b5	0.002085251
73	0x3e18d1aa	0.1492373
74	0x3ca04f7d	0.019569153
75	0xbcbec4a6	-0.023287129
76	0xbf55d540	-0.8352852
77	0xbd90b751	-0.07066215
78	0xbd230e44	-0.039808527
79	0xbd7e6682	-0.062109478
80	0x3eaf04de	0.341834
81	0x3e9280b5	0.2861382
82	0xbfcff1d1	-1.6245672
83	0xbf864611	-1.0490133
84	0xc0b1645d	-5.5435014
85	0xbc101a78	-0.008795373
86	0x3d390a8a	0.045176066
87	0xbd408df2	-0.04701037
88	0xbf4911c4	-0.78542733
89	0xbf33b2c9	-0.7019468
90	0xbb535f8a	-0.003225299
91	0xbd32141f	-0.04347622
92	0xbe76ec4b	-0.24113576
93	0x3e33bb0f	0.17551826
94	0x3c1a896d	0.009432179
95	0xbd1ab471	-0.03776974
96	0x3ee62469	0.44949654
97	0x3a0be39e	0.0005336347
98	0xbd0af161	-0.033921603
99	0xc011ca8f	-2.2779882
100	0x3c88f710	0.016719371
101	0x3d5a7f37	0.053343978
102	0xbb3d2e38	-0.002886666
103	0x3c9da43b	0.01924335
104	0xbc86d7ce	-0.016460326
105	0x3f388a8e	0.7208642
106	0xbc518b0f	-0.012789502
107	0xbe1d79eb	-0.1537854
108	0xbf503043	-0.8132364
109	0x3b963cab	0.004584869
110	0xbbb6254f	-0.0055586467
111	0xbaa0ac67	-0.0012258411
112	0xbb3b2192	-0.0028553945
113	0xbe1a98c8	-0.15097344
114	0x3e593fa0	0.21215677
115	0x3b9d9dd2	0.0048100734
116	0xbc71fe66	-0.014770126
117	0xb97e6aa6	-0.00024263057
118	0xbcbe0c45	-0.02319921
119	0xba803298	-0.0009780703
120	0x39aa0a7d	0.0003243274
121	0x3f14e06f	0.5815496
122	0xbcfc2043	-0.030777102
123	0x3b57e7b6	0.0032944507
124	0xbb4adb32	-0.0030953404
125	0xbd8661a3	-0.065615915
126	0xb73d8d73	-1.1298212e-05
127	0xbe063946	-0.13107786
128	0xbf8e66c3	-1.112511
129	0x3b51225a	0.0031911344
130	0x3cbca02f	0.0230256
131	0x3e738279	0.2378024
132	0xbcab85e2	-0.020937864
133	0xbf45f303	-0.7732393
134	0x3e36a69a	0.17836991
135	0xbbb9ec3f	-0.0056739147
136	0xbeb1428e	-0.3462109
137	0x38904272	6.8788315e-05
138	0xbcf7ad23	-0.030233925
139	0xbd9841d6	-0.07434432
140	0xba839118	-0.0010037748
141	0xba6095c3	-0.0008567238
142	0xbb2143ce	-0.0024607065
143	0xbf1a550d	-0.6028603
144	0x3eb261fe	0.34840387
145	0x3ab679cf	0.00139218
146	0x38074cf4	3.2258176e-05
147	0x3ea73da4	0.32664216
148	0xbd4104ce	-0.047123723
149	0xbb9d681e	-0.0048036715
150	0xbba27db3	-0.004958832
151	0xbd74dc1c	-0.059780225
152	0xbfb5e80a	-1.4211438
153	0xc056e19a	-3.3575196
154	0x3c722f05	0.014781718
155	0xbe498f13	-0.19683485
156	0xba960305	-0.0011444992
157	0x3f3e6472	0.7437202
158	0xbeb43868	-0.35199285
159	0x3c7b7eea	0.015350083
160	0xbf38efe9	-0.72241074
161	0xbc7fcfa3	-0.015613469
162	0xba8339fd	-0.0010011789
163	0xbb0034f3	-0.001956281
164	0xbb8a665f	-0.0042236294
165	0xbc0c9bea	-0.008582095
166	0xbb550995	-0.0032506932
167	0xbd7c4693	-0.061590742
168	0xbc2478c4	-0.010038558
169	0xbbf5d5cd	-0.0075022937
170	0xbf8d2755	-1.1027628
171	0xbc0e0e67	-0.008670426
172	0xbb27417d	-0.0025521212
173	0x3d1df79e	0.038566224
174	0x3ebd8a57	0.37019607
175	0x3d81b115	0.06332604
176	0xbb84faf2	-0.0040582353
177	0x3b6af117	0.0035849267
178	0xbaae8b7e	-0.0013316718
179	0xbaba7ea8	-0.001422842
180	0xbb352251	-0.0027638862
181	0x3bc2ad02	0.0059410343
182	0x3cc87c41	0.024473311
183	0xbc38e104	-0.011284117
184	0x3c863a05	0.016385088
185	0x3b252fa0	0.0025205389
186	0x39da8527	0.00041679406
187	0x3d0270f8	0.031846017
188	0x3d3fd0af	0.046829876
189	0xbccc8c7a	-0.024969328
190	0x3ee5f1a2	0.44910914
191	0x3f88da02	1.0691531
192	0xbdafa338	-0.085760534
193	0x3dd9ada6	0.10628824
194	0x3c3d7245	0.0115628885
195	0x3cb3b733	0.021937942
196	0xbd04fa1f	-0.032465097
197	0x3cc4ff04	0.024047382
198	0xbce4974d	-0.027904177
199	0x3e3638ec	0.17795151
200	0xbe39bb32	-0.18137816
201	0x3cabb85f	0.020961938
202	0x3c8e6822	0.017383639
203	0x3cca703c	0.02471172
204	0x3c9f60ec	0.019455396
205	0x3d2c2bc7	0.042033937
206	0xbb150ecd	-0.0022744418
207	0xbd8f2a06	-0.06990437
208	0x3d2c8f68	0.04212895
209	0xbb021b62	-0.0019852747
210	0xc00b58a9	-2.1772864
211	0x3e842bf6	0.2581479
212	0xbd3bd95f	-0.045861598
213	0x3d3e1905	0.04641058
214	0x3ce45c01	0.027875902
215	0xbd1d64e0	-0.03842628
216	0xbbf95116	-0.007608543
217	0x3d6f7870	0.058464468
218	0x3cb7e062	0.022445861
219	0xc0c6a65a	-6.2078066
220	0x3d13dd4e	0.036099724
221	0x3ef5862a	0.47953922
222	0xbc5b3811	-0.0133800665
223	0x396d5344	0.000226331
224	0xbd02cffc	-0.03193663
225	0x3d5e6256	0.054293
226	0xbd056b09	-0.03257278
227	0x3bfd8584	0.0077368636
228	0xbd80356c	-0.062601894
229	0xbb23b909	-0.0024982116
230	0xbd6c7245	-0.057726163
231	0xc0b359c4	-5.6047077
232	0xba0f2ba8	-0.00054615224
233	0xbdbdd66e	-0.09269415
234	0xbd06dbd7	-0.0329245
235	0xbd4b8a43	-0.049692404
236	0x3d273c4e	0.040828995
237	0xbd6ca083	-0.057770263
238	0x3e073075	0.13202079
239	0xbd70c53d	-0.05878185
240	0xbb02a505	-0.0019934785
241	0xbb808f28	-0.0039233156
242	0x3d16ed86	0.036847614
243	0x3b051e43	0.0020312227
244	0xc0992814	-4.7861423
245	0x3c8c9cde	0.017164644
246	0xbd7c9773	-0.06166787
247	0x3d546edc	0.051863536
248	0xc07e3956	-3.9722495
249	0x3c9624b3	0.018328046
250	0x3d06733b	0.032824736
251	0x3ca160d8	0.019699499
252	0xba4a77a4	-0.00077235163
253	0xbd378f06	-0.044814132
254	0x3f8a51dc	1.0806231
255	0x3d4af487	0.049549606

layer2.bias f4 [200]
0	0x411f3096	9.949362
1	0x420b0707	34.756863
2	0x4207d4da	33.957863
3	0x4212c487	36.69192
4	0x41fbf716	31.495647
5	0x420851b7	34.0798
6	0x406832be	3.628097
7	0x41e0aeeb	28.08541
8	0xbf73f03e	-0.95288455
9	0xc1dee61f	-27.862364
10	0xc1cc77ee	-25.55856
11	0x41560235	13.375539
12	0x3f9871e4	1.1909757
13	0x41a89ae6	21.075634
14	0x41bb5bf0	23.419891
15	0x4137ccbb	11.487483
16	0x40955ca7	4.66756
17	0x42237ef2	40.87397
18	0x41801e3e	16.014767
19	0x41ffe344	31.98597
20	0xc2042e03	-33.044933
21	0x4202d388	32.706573
22	0xbfa5bde3	-1.2948574
23	0x41ff1535	31.885355
24	0xc1e71c2f	-28.888762
25	0xc191feb3	-18.249365
26	0x4207246a	33.78556
27	0x42006e64	32.107803
28	0xc0f98f44	-7.7987385
29	0x41c1d4e2	24.228947
30	0xc1d710dd	-26.883234
31	0x402bc799	2.6840575
32	0xc1e52744	-28.644173
33	0x41c95b18	25.16948
34	0x42290f11	42.264713
35	0xc12f1164	-10.941746
36	0x41a97d65	21.186228
37	0x3fce01ad	1.6094261
38	0x4069940f	3.6496618
39	0x41ffd3ac	31.978355
40	0xc1885956	-17.043621
41	0x420232e7	32.54971
42	0x41e98de0	29.194275
43	0xc0adc15d	-5.429854
44	0x41e1ecae	28.240566
45	0xc1bcf02a	-23.617268
46	0x4203b5f3	32.927685
47	0xc0a8238c	-5.254339
48	0x41857580	16.682373
49	0x40c70613	6.2194915
50	0xc1693d7e	-14.577513
51	0xbd822db4	-0.063563734
52	0x3cb95542	0.022623662
53	0x41e3b60d	28.463892
54	0x420bb7bd	34.929432
55	0xc05e0be9	-3.469477
56	0x420b57c1	34.835697
57	0x41232ca0	10.198395
58	0xc1c70735	-24.87852
59	0xc0455bc6	-3.0837264
60	0x421011ef	36.017513
61	0x4182dc63	16.35761
62	0x41a88bd0	21.068268
63	0x3f5dad44	0.8659251
64	0x4219bf1f	38.43664
65	0xc1fae971	-31.363985
66	0x420879f1	34.119083
67	0x41e0fd17	28.123579
68	0x420dfc2f	35.496273
69	0x40b7b3fb	5.7407203
70	0x41f7cfb5	30.97642
71	0xc1deb5dd	-27.8388
72	0x42182990	38.04059
73	0xc082bca4	-4.0855274
74	0x409bd89c	4.8701916
75	0x41c94eeb	25.163534
76	0x41702fc9	15.011666
77	0xbf442848	-0.76623964
78	0x41fa8c16	31.318401
79	0x40147e13	2.320195
80	0x41dcf4a6	27.619457
81	0x41a49797	20.574018
82	0x42149534	37.145706
83	0x40a9c0e1	5.304795
84	0x4218db9a	38.214455
85	0x403369fe	2.8033442
86	0x411801a2	9.500399
87	0x41ce4ae9	25.786577
88	0x41d8a977	27.082747
89	0x41776b76	15.463736
90	0xbdf739a8	-0.12071544
91	0x421fcfae	39.952812
92	0x4217498c	37.821823
93	0x4206cf9d	33.702747
94	0x41fa9fbe	31.328
95	0xc10f70bd	-8.965024
96	0xc00db55a	-2.2141938
97	0xc1807d92	-16.061314
98	0x41e3e131	28.484957
99	0xc002e2e0	-2.0450974
100	0xc1be1d49	-23.7643
101	0x41a47a31	20.559664
102	0x42225a32	40.58808
103	0x418c9ba2	17.575993
104	0x415a3ffa	13.640619
105	0xc18ce594	-17.612099
106	0x40355eb7	2.833906
107	0xc1d273da	-26.306568
108	0x41d49e03	26.577154
109	0x3f2deb8b	0.67937535
110	0xbf5e2e6f	-0.867896
111	0xc0bfb2c7	-5.9905734
112	0x413b4fcf	11.7069845
113	0x41f61e2f	30.764738
114	0xbd6b12d8	-0.057391018
115	0x41bc2c98	23.521774
116	0x41cd9b83	25.700933
117	0x41ffc3f5	31.970682
118	0x421004d3	36.00471
119	0x41d2bb8a	26.341572
120	0x41ebd00b	29.476583
121	0x41800b19	16.005419
122	0xc0d57527	-6.670551
123	0x41546920	13.275665
124	0x40fced85	7.903994
125	0x42114051	36.31281
126	0x416711e1	14.441865
127	0x41258467	10.344825
128	0x420e3456	35.55111
129	0x420b0ee1	34.76453
130	0x42020863	32.50819
131	0x4090f9b6	4.5304823
132	0x4194e150	18.610016
133	0xc1ef1058	-29.88298
134	0x41050809	8.314462
135	0x4016fdea	2.3592477
136	0x420b96b3	34.897167
137	0x4212f629	36.74039
138	0x408fcb69	4.4935803
139	0x42120ecf	36.51446
140	0x420c5fb6	35.093468
141	0xc0a6889c	-5.204176
142	0x3f9a3db3	1.2050079
143	0x42235619	40.83408
144	0x42025837	32.586147
145	0x4229ec0c	42.480515
146	0x41d86d0f	27.053251
147	0x41f0c22a	30.094807
148	0x41fbbd79	31.467516
149	0x420d1d67	35.278713
150	0x41c70c78	24.881088
151	0x41b751be	22.914913
152	0x40a5f81b	5.1865363
153	0x410eb394	8.918842
154	0x416e552c	14.895794
155	0x41f30858	30.379074
156	0xc08557ce	-4.1669683
157	0x420d0310	35.25299
158	0x42200d92	40.013252
159	0x3ff68d2f	1.9261836
160	0x406ecf6b	3.7314098
161	0x4106c332	8.422655
162	0x41a399e4	20.450142
163	0x4062f8f0	3.546444
164	0x4203558e	32.83355
165	0x420a3d72	34.560005
166	0x41eacc93	29.34989
167	0x415633dc	13.387661
168	0xc107eafa	-8.494867
169	0x40928f11	4.579964
170	0xc134f49f	-11.309722
171	0x41f6d100	30.85205
172	0x40cae7f3	6.340814
173	0x41d55cb6	26.670269
174	0x42130da0	36.763306
175	0xc18fd3ca	-17.978413
176	0x411108d9	9.06466
177	0xc1117b34	-9.092579
178	0x4168fd0f	14.561782
179	0xc10c1660	-8.755463
180	0x421036db	36.05357
181	0xc1ce5c10	-25.794952
182	0x41d081c0	26.063354
183	0x40009c0a	2.0095239
184	0x420cc078	35.187958
185	0x41b7cdb0	22.975433
186	0x4121457a	10.079462
187	0x420183f3	32.378857
188	0xc1edae19	-29.710009
189	0x420e7825	35.61733
190	0x42155945	37.337177
191	0x409fa43c	4.988798
192	0x420639ed	33.55657
193	0x3ffba6f5	1.9660326
194	0xc185ad06	-16.709484
195	0x40f0891d	7.5167375
196	0x40bc69d2	5.8879175
197	0xc0b70375	-5.719172
198	0x41b63849	22.777483
199	0x41d0d04b	26.101706

layer3.weight f4 [200, 200]
0	0xbc3d159b	-0.011540796
1	0x3d35f24e	0.044420533
2	0xbd3c11e4	-0.0459155
3	0x3d23d3f8	0.03999707
4	0xbcee4a29	-0.029088097
5	0xbad1cbb8	-0.0016006147
6	0x3c75d1c4	0.015003625
7	0xbcf0f513	-0.029413735
8	0x3ba5d6cf	0.0050610076
9	0xbd032043	-0.03201319
10	0xbf2b6de2	-0.6696454
11	0xbd201a11	-0.03908736
12	0xbbdd713d	-0.006757884
13	0x3e928462	0.28616625
14	0x3d0f1029	0.03492752
15	0xbc87fd04	-0.01660014
16	0xbcba390b	-0.022732278
17	0xbd34d8e3	-0.04415215
18	0xbd2420a7	-0.040070202
19	0xbc0ca308	-0.008583792
20	0xbf23a967	-0.6393036
21	0xbd26ffdd	-0.040771354
22	0xbc4697a2	-0.012121113
23	0x3b29cea2	0.0025910516
24	0xbb470123	-0.0030365668
25	0xbcee97cb	-0.029125115
26	0x3d358cb6	0.044323646
27	0xbd799b2a	-0.06093899
28	0x3e9b77b1	0.30364755
29	0xbc644254	-0.0139318295
30	0xbf3abab0	-0.7294111
31	0xbc224c63	-0.009905907
32	0x3d03df5d	0.032195438
33	0x3e8d8c6d	0.276462
34	0xbc7d5cc6	-0.015464013
35	0xbcdb39cc	-0.026760958
36	0x3c0658be	0.008199869
37	0xbc65408e	-0.013992442
38	0x3e137256	0.14399084
39	0xbd16bab9	-0.036799166
40	0x3e8e299c	0.2776612
41	0xbca8d876	-0.02061103
42	0xbc3a2c65	-0.011363124
43	0xbd2aa766	-0.04166355
44	0xbc460f81	-0.012088657
45	0xbcc69cda	-0.024244715
46	0xbd5e48cd	-0.054268647
47	0x3d9c7e65	0.07641295
48	0xbe9168dc	-0.28400314
49	0xbe695481	-0.22786142
50	0xbef03c39	-0.46920946
51	0x3b57aacc	0.00329082
52	0xbd8aa18e	-0.06769095
53	0xbc988a7b	-0.01862072
54	0xbc92a293	-0.017899787
55	0xbc0bf0ff	-0.008541345
56	0xbbbb24ac	-0.0057111587
57	0xbc2cf3ad	-0.010556144
58	0xbd96362e	-0.07334553
59	0xbd19dddc	-0.037565097
60	0x3e96b670	0.29436064
61	0x3cc90295	0.024537364
62	0xbc94fc77	-0.01818679
63	0xbc009482	-0.007847907
64	0xbcd9d965	-0.02659292
65	0xbd4b3e5a	-0.04962001
66	0x3dd3bb03	0.10338404
67	0xbd210b93	-0.03931768
68	0x3e5aa396	0.21351466
69	0xbe6cf774	-0.23141271
70	0xbdee438f	-0.116339795
71	0xbeadd1da	-0.33949167
72	0xbd2dc356	-0.042422615
73	0xbd7e9938	-0.06215784
74	0xbc2a2b40	-0.010386288
75	0xbc77c5b9	-0.015122824
76	0xbd32b705	-0.043631572
77	0x3ca10ec6	0.019660365
78	0xbd6e795a	-0.0582212
79	0xbc41ca3e	-0.011828003
80	0x3e19bbb2	0.15013006
81	0x3c9093d2	0.017648611
82	0xbe8cd5d1	-0.2750688
83	0xbc5d1027	-0.013492621
84	0x3e6d801d	0.23193403
85	0xbb4b164a	-0.0030988627
86	0xbcc19ebd	-0.023635263
87	0xbc79d247	-0.015247888
88	0x3ce6414b	0.028107306
89	0x3cad5f0a	0.021163482
90	0xbd342494	-0.043980196
91	0x3d67df6a	0.05660955
92	0x3e4efb32	0.20213011
93	0xbd93e6ac	-0.072217315
94	0xbd9e67f4	-0.07734671
95	0xbda8f749	-0.08250291
96	0xbe3a0ab3	-0.18168144
97	0xbc94f14f	-0.018181471
98	0xbc73183a	-0.014837319
99	0x3a330ee4	0.0006830527
100	0xbc03d8b4	-0.0080472715
101	0xbe01123b	-0.1260461
102	0xbc0095b2	-0.00784819
103	0xbe00d05b	-0.12579481
104	0xbe855042	-0.26037794
105	0xbc800cb3	-0.015631055
106	0xbba09e73	-0.004901701
107	0x3ee48f97	0.446408
108	0xbce6a0a9	-0.02815278
109	0xbc366837	-0.011133245
110	0x3c15a2c2	0.009133043
111	0x3ba5d0b5	0.00506028
112	0xbd796e8c	-0.06089644
113	0xbdb859bc	-0.090014905
114	0x3d012ce7	0.031536963
115	0xbc16b4ff	-0.009198426
116	0xbcf10b2b	-0.02942427
117	0xbc945b76	-0.018110018
118	0xbe85622b	-0.2605146
119	0x3e3bb0f9	0.18329228
120	0xbcdd0faa	-0.026985008
121	0xbc65a69e	-0.014016775
122	0x3de9a626	0.114086434
123	0xbc6ce4fb	-0.01445889
124	0x3c397485	0.011319284
125	0xbc2b1cb8	-0.010443859
126	0xbd5c09dd	-0.053720344
127	0xbc4d9267	-0.012547112
128	0xbc4b0c64	-0.012393091
129	0xbe3d8699	-0.18508376
130	0xbe23be61	-0.15990593
131	0xbdf326e1	-0.1187265
132	0xbdc2e71f	-0.09516739
133	0xbf4c75fd	-0.79867536
134	0xbc66ea17	-0.014093897
135	0xbd624db4	-0.055249885
136	0xbc9a3ddc	-0.018828325
137	0xbe06a109	-0.13147368
138	0xbd8a7a2a	-0.06761582
139	0xbcc900ea	-0.024536569
140	0xbcd1556d	-0.02555343
141	0xbc142d55	-0.009044011
142	0xbc0dcb6f	-0.008654459
143	0x3f927a1b	1.1443514
144	0xbd1bd191	-0.038041655
145	0xbdb78b96	-0.08962171
146	0xbdcd7002	-0.100311294
147	0xbd8e2324	-0.06940296
148	0xbd0b2b14	-0.03397663
149	0xbc090ba9	-0.008364596
150	0x3d4f6f1f	0.050643083
151	0xbddbc6a8	-0.1073125
152	0xbc2d5e46	-0.010581559
153	0x3c9f4840	0.019443631
154	0xbe7837f8	-0.242401
155	0xbcc2d12f	-0.023781387
156	0xbc88bdac	-0.016692005
157	0xbd0d199a	-0.034448244
158	0xbce36ca2	-0.027761761
159	0xbc626e3c	-0.013820227
160	0xbc5322ea	-0.012886742
161	0xbd5d2533	-0.053990554
162	0xbda127f3	-0.07868948
163	0xbb9051ad	-0.0044042678
164	0xbce4dda2	-0.027937714
165	0xbd3c2c77	-0.045940842
166	0xbdd62377	-0.10455983
167	0xbc7d4421	-0.015458138
168	0x3d09f422	0.03368009
169	0xbd4d5d9f	-0.050138112
170	0x3e5781a3	0.21045546
171	0xbc52468b	-0.012834202
172	0xbbb31eec	-0.0054663327
173	0xbc6697ac	-0.014074247
174	0xbdb394c6	-0.08768611
175	0xbc095123	-0.008381161
176	0xbc4d66ea	-0.012536744
177	0xbcc15516	-0.023600142
178	0x3d1397ed	0.03603356
179	0xbe04b2ea	-0.12958875
180	0xbd94f5bf	-0.07273435
181	0x3c671b03	0.014105561
182	0xbd0c26ec	-0.034216806
183	0xbc3e1f0c	-0.011604082
184	0xbc03f06d	-0.008052927
185	0xbe2515ea	-0.16121641
186	0xbe0c37ee	-0.1369321
187	0xbf1ef44e	-0.6209153
188	0x3d10a3bd	0.035312403
189	0xbcd236c1	-0.025660874
190	0xbe4117b5	-0.188567
191	0x3aa0dfd3	0.0012273736
192	0xbcc4a514	-0.024004497
193	0xbc4c1c06	-0.012457853
194	0xbcdf6710	-0.027270824
195	0xbda32773	-0.07966509
196	0xbce5492e	-0.027988996
197	0x3cfaa74a	0.030597348
198	0xbccdc981	-0.025120499
199	0xbd4b4046	-0.049621843
200	0xbadcf8eb	-0.0016858851
201	0x3d714db6	0.058912
202	0x3d30042c	0.04297273
203	0xbc1a2882	-0.009409072
204	0x3c87a9da	0.016560484
205	0xbd0a6833	-0.03379078
206	0xbf49cc34	-0.78827214
207	0x3c28247f	0.010262608
208	0xbdf338d7	-0.11876076
209	0xbe5eec41	-0.21769811
210	0xc09f3fcf	-4.976539
211	0x3d8aae42	0.06771518
212	0x3d8f9467	0.070107274
213	0x3eb9b6d9	0.36272314
214	0x3cf1173e	0.029430028
215	0xbbe730e9	-0.007055391
216	0x3c4ab290	0.012371674
217	0xbbe0e96b	-0.006863763
218	0x3c05aa0d	0.008158219
219	0x3c73913f	0.014866172
220	0xbefb8879	-0.49127558
221	0xbdc0170f	-0.09379398
222	0x3c89d3aa	0.016824562
223	0x3cfdd6c2	0.030986194
224	0xbcd6ebf2	-0.026235554
225	0x3c645e22	0.013938459
226	0xbd043008	-0.03227237
227	0xbd832bc3	-0.06404831
228	0xbdbeda9a	-0.09319039
229	0xbb27c116	-0.0025597266
230	0xbf9bd8a1	-1.2175485
231	0x3c8b58ef	0.01701018
232	0xbddc4462	-0.107552305
233	0x3ddc86cd	0.10767899
234	0xbcd3e2f1	-0.02586505
235	0x3d1b8ba1	0.037974957
236	0x3e873da3	0.26414213
237	0x3bf95e96	0.0076101525
238	0x3cfa6a76	0.030568343
239	0x3d36cde7	0.044629958
240	0xc010f25c	-2.2647924
241	0x3d167695	0.036734182
242	0x3be75d87	0.00706071
243	0xbe494aca	-0.19657436
244	0x3c05e0c8	0.008171268
245	0xbcc4de35	-0.024031738
246	0xbc63525f	-0.013874619
247	0xbe76c22e	-0.24097511
248	0x3d0eb113	0.03483684
249	0x3fb39cea	1.4032261
250	0x3fb76894	1.432879
251	0xbe34f3f9	-0.17671193
252	0xbcd4eca4	-0.025991745
253	0x3c638869	0.013887503
254	0x3daad057	0.08340519
255	0x3c6c7326	0.01443175

layer3.bias f4 [200]
0	0x4200f984	32.243668
1	0x42127d5f	36.622433
2	0x41b7642f	22.923918
3	0x41d14805	26.160166
4	0xc206a43c	-33.660385
5	0x42106cd6	36.106285
6	0xbf93d4a4	-1.1549268
7	0x421efbcd	39.7459
8	0x420d45eb	35.31828
9	0x42065c67	33.590237
10	0x42209c92	40.1529
11	0x420d78ce	35.367973
12	0x42096405	34.347675
13	0xc06ecff8	-3.7314434
14	0x41d309e0	26.379822
15	0x420e9e03	35.65431
16	0x41277092	10.464983
17	0x421b9a84	38.900894
18	0x418f88cb	17.941793
19	0xc0dfbd0c	-6.991827
20	0x41aa9fd1	21.328035
21	0x41ef4ee2	29.913517
22	0xc1a6f6fc	-20.870598
23	0x42087b53	34.120434
24	0x41f30659	30.3781
25	0x41ef666e	29.925014
26	0x3fb9a6b1	1.4503995
27	0x41d14aa3	26.161444
28	0x41fe1387	31.759535
29	0x420886b2	34.13154
30	0x420a7bed	34.62102
31	0x41f62391	30.767366
32	0x4213bf8c	36.937057
33	0x41e4cc66	28.599804
34	0x41f78539	30.94005
35	0x42167e4a	37.62333
36	0x42230a58	40.7601
37	0x42040602	33.005867
38	0x41f9102e	31.1329
39	0x4217c451	37.941715
40	0x420ab848	34.679962
41	0x420cecba	35.23118
42	0xc20e044a	-35.50419
43	0x421293b6	36.64425
44	0x41f29cab	30.326498
45	0x41e1ac38	28.209091
46	0x41fef7af	31.87094
47	0x41d065e0	26.049744
48	0x4207df90	33.968323
49	0x4125edbf	10.3705435
50	0xc10a6c29	-8.651406
51	0xbe350f4e	-0.1768162
52	0x40e1ed62	7.0602274
53	0x41f0847d	30.064692
54	0x4196f83f	18.871214
55	0xc1e83175	-29.024149
56	0x41d4fc5e	26.623226
57	0x41fac785	31.347422
58	0x421a0291	38.502506
59	0x41d97997	27.18437
60	0x41f7471a	30.909718
61	0xc1ff1d75	-31.889383
62	0x420791d2	33.892403
63	0xc1fb42e6	-31.407665
64	0x41bf8bda	23.943287
65	0x41dcd343	27.603155
66	0xc17bb44b	-15.731517
67	0x419d9bcc	19.701073
68	0xc19c5134	-19.53965
69	0x420667e4	33.601456
70	0x420a7429	34.613438
71	0x41f7d7c9	30.980364
72	0x421447d1	37.070133
73	0xbf3aceb3	-0.7297165
74	0x42114949	36.321568
75	0x41c2f298	24.368454
76	0x42116a2b	36.35368
77	0xc1540e18	-13.253441
78	0x404ee157	3.2325037
79	0x4213cadb	36.9481
80	0xc1a21b16	-20.263226
81	0xc13f13df	-11.942351
82	0xc1b3d91b	-22.481009
83	0x421ab881	38.68018
84	0x4217920d	37.892628
85	0x4214c791	37.19489
86	0x420855bc	34.083725
87	0x41ee13fa	29.759754
88	0x421c5a9b	39.08848
89	0x406e55ef	3.723995
90	0x41df3409	27.900408
91	0x41ed0ef1	29.632296
92	0x41dad8d9	27.355883
93	0x4202317c	32.548325
94	0x420de4f9	35.473606
95	0x420737c6	33.804466
96	0x41aeb67b	21.839102
97	0x3ea92403	0.33035287
98	0x41d1acbd	26.209345
99	0x414d7006	12.839849
100	0x420f3b86	35.80813
101	0x420adff9	34.718723
102	0x4212afb2	36.671577
103	0x4202dba8	32.714508
104	0x41e64070	28.781464
105	0x42236347	40.84695
106	0x41e91f7e	29.140377
107	0x42057246	33.361595
108	0x420c6cab	35.10612
109	0x421a8f6e	38.640068
110	0x4214c177	37.18893
111	0xc1c1ea3d	-24.239374
112	0xc1d9b57a	-27.213612
113	0x41fee86e	31.863491
114	0x41c5ac74	24.709206
115	0x41f2247c	30.267815
116	0x41e4bb52	28.591465
117	0x420557f5	33.335896
118	0x421cc17e	39.188957
119	0x42003719	32.053806
120	0x41de917a	27.821033
121	0x3edc5897	0.4303634
122	0x4208fe76	34.248497
123	0x42172437	37.785366
124	0x41f925ff	31.143553
125	0x41dc6070	27.547089
126	0x42049a6e	33.15081
127	0x4207f519	33.989353
128	0x4215f493	37.488842
129	0x42268990	41.63434
130	0x42130075	36.750446
131	0x3e7618b8	0.24032867
132	0x42108921	36.133915
133	0x422730ec	41.797775
134	0x41c3d866	24.480663
135	0x42024255	32.564777
136	0x41efe468	29.986526
137	0x41b68d16	22.81889
138	0x42083ba0	34.058228
139	0x4207f08a	33.9849
140	0x42122451	36.535465
141	0x42163bb9	37.558323
142	0x420c1bdd	35.02721
143	0x41bcda3a	23.606556
144	0x41567f17	13.406028
145	0x41f2084e	30.254055
146	0x40fbb762	7.8661356
147	0x3e97b627	0.2963116
148	0x4205402b	33.312664
149	0x42041918	33.024506
150	0x4230534e	44.081352
151	0x41e2c437	28.345808
152	0xc1bc1185	-23.508554
153	0x41b0d0bd	22.101923
154	0xc200521d	-32.08019
155	0x421f2ed5	39.795734
156	0xc08a501f	-4.3222804
157	0x4213c486	36.941917
158	0x41c22101	24.266115
159	0x41f0a46a	30.08028
160	0x42248a40	41.13501
161	0x4222630f	40.596737
162	0x421483f3	37.128857
163	0x41bb963f	23.448362
164	0xc1dce809	-27.613298
165	0x413796bc	11.4743
166	0x4213e3d8	36.972504
167	0x4181de14	16.233437
168	0x421207ca	36.507607
169	0x42154537	37.317593
170	0x41fbe045	31.484507
171	0x42152764	37.288467
172	0x41f30186	30.375744
173	0x41b8ee01	23.116213
174	0x41ccea0f	25.614286
175	0xc1eb140c	-29.384789
176	0x41280ae4	10.502659
177	0x4214180b	37.02348
178	0x420bffc8	34.999786
179	0x41c99d72	25.201878
180	0xc10ef5fc	-8.935055
181	0x4210abc4	36.16774
182	0x41ec1ee2	29.51508
183	0x421a28c8	38.539825
184	0x4210c078	36.187958
185	0x420d1649	35.271763
186	0x421769a8	37.85318
187	0x420e44e9	35.567295
188	0xc1e66376	-28.798565
189	0x4213670d	36.850636
190	0x42052ed7	33.295742
191	0x422557fc	41.335922
192	0x4231fd6f	44.497494
193	0x41ec5f1b	29.546438
194	0xbd547650	-0.051870644
195	0x4206c706	33.69436
196	0x40f301c6	7.5939665
197	0x420e923f	35.64282
198	0x419beb2b	19.489828
199	0x4204d8b2	33.211617

layer4.weight f4 [200, 200]
0	0xbe1f92a3	-0.15583281
1	0xbcf6a0a0	-0.030105889
2	0x3e7de5f0	0.24794745
3	0xbed1fe39	-0.4101427
4	0x3ef38516	0.47562474
5	0x3d06c524	0.03290285
6	0x3d6fd5b6	0.05855342
7	0xbdf99323	-0.12186267
8	0x3c04684d	0.008081508
9	0x3da3cb3d	0.07997749
10	0xbb46f0b2	-0.0030355868
11	0xbab6d67c	-0.0013949419
12	0x3cbb0bbb	0.022832742
13	0xbf9a435a	-1.2051804
14	0x3e0a44fb	0.13502876
15	0xbd1eacf6	-0.038739167
16	0xbe391c19	-0.18077125
17	0xbe9791cf	-0.2960343
18	0xbefbbd30	-0.49167776
19	0xbdfeaef9	-0.12435717
20	0x3e606ea9	0.21917213
21	0x3d1d55f3	0.038412046
22	0xbd194b58	-0.03742537
23	0x3e497d83	0.19676785
24	0x3e8512fa	0.2599104
25	0xbdebe15e	-0.11517595
26	0xbd46b558	-0.048512787
27	0x3e5b27ff	0.21401976
28	0xbe2dca1d	-0.16971631
29	0x3dda7820	0.10667443
30	0x3db96821	0.09053064
31	0x3e05a43a	0.13050929
32	0x3c17b8d0	0.009260371
33	0x3d58c400	0.052921295
34	0xbd982b86	-0.074301764
35	0xbccd6cec	-0.025076352
36	0xbd8130d1	-0.06308139
37	0x3d336d1a	0.04380522
38	0xbdf9dedf	-0.122007124
39	0x3c993694	0.018702783
40	0xbcee9695	-0.029124537
41	0x3ccc95d2	0.024973784
42	0x3ed7fa52	0.42183167
43	0xbcef7933	-0.029232597
44	0x3dd4b7c0	0.1038661
45	0xbf46d7f8	-0.7767329
46	0x3d257d8c	0.040402934
47	0x3ce3ec2d	0.027822578
48	0xbe47a194	-0.19495231
49	0x3d58d3d3	0.052936386
50	0xc00a0819	-2.1567442
51	0x3f002d1d	0.5006884
52	0xbdcc0d1e	-0.099634394
53	0xbd5fe6ec	-0.054663584
54	0x3e4ae691	0.19814517
55	0x3e5deec3	0.21673112
56	0x3e4be8df	0.19913052
57	0xbeb69011	-0.3565679
58	0x3d464211	0.04840285
59	0xbe16c47e	-0.14723393
60	0xbdcadaa0	-0.09904981
61	0x3f4d73c3	0.80254763
62	0x3d082898	0.03324184
63	0x3f548e78	0.8302989
64	0x3c601d5a	0.013678873
65	0xbd7956b2	-0.060873695
66	0xbea5ebd0	-0.32406473
67	0xbd0a58c6	-0.033776067
68	0xbfb9c63b	-1.451362
69	0x3d3d1430	0.04616183
70	0xbd5fd437	-0.054645743
71	0xbd45ed3b	-0.048321944
72	0x3d54d598	0.05196151
73	0x3da7c88d	0.08192549
74	0x3d77dad3	0.06051142
75	0x3ce4b782	0.027919535
76	0xbdcdc4e0	-0.100473166
77	0x3ef4fe60	0.47850323
78	0x3ec158a2	0.37762934
79	0xbe823c24	-0.2543651
80	0xc00f386f	-2.2378194
81	0xbf7208d0	-0.94544697
82	0xbe91c689	-0.28471783
83	0x3d60e657	0.05490717
84	0xbdb9140e	-0.09037028
85	0xba82898c	-0.0009959205
86	0xbcba324a	-0.022729058
87	0xbf9be5e7	-1.2179536
88	0xbcd929a9	-0.026509123
89	0xbf6fb3b1	-0.9363356
90	0x3d91bb9b	0.07115861
91	0x3c9e45fb	0.019320479
92	0x3ddab806	0.10679631
93	0xbe2104af	-0.15724443
94	0x3dd0daad	0.10197959
95	0x3d97fd6f	0.074213855
96	0xbe356382	-0.1771374
97	0xbbbcd425	-0.0057625943
98	0x3d951f58	0.07281369
99	0xbdd119e3	-0.102100156
100	0x3becaaf9	0.00722253
101	0xbd0e9096	-0.034805857
102	0x3c70551a	0.014668727
103	0x38f9d59b	0.00011913032
104	0x3cab8ad8	0.02094023
105	0xbe845972	-0.2584949
106	0x3ce3da44	0.027814038
107	0xbd96e7ed	-0.07368455
108	0x3ec4834e	0.38381428
109	0xbb8e1f95	-0.004337261
110	0x3c53d9c2	0.0129303355
111	0xbe94d59e	-0.29069227
112	0x3c174c00	0.009234428
113	0xbc2d9ebb	-0.010596926
114	0xbecc193b	-0.39863
115	0x3d5b155a	0.05348716
116	0x3df86d8d	0.1213027
117	0x3e234717	0.15945087
118	0xbe262e87	-0.16228686
119	0x3d8e98aa	0.06962712
120	0x3e53bcdf	0.20677517
121	0x3db9955b	0.090616904
122	0xbefc1887	-0.49237463
123	0xbfb7d057	-1.4360455
124	0xbf5544b2	-0.83307946
125	0x3e1c1bc9	0.15244974
126	0x3ca7c7e7	0.020481063
127	0x3e2e1eba	0.17003909
128	0x3da59327	0.08084708
129	0xbf16c342	-0.5889169
130	0x3cebf9cb	0.028805634
131	0xbf8fabd2	-1.122431
132	0xbe2377aa	-0.15963617
133	0xbe85256f	-0.26005122
134	0x3e8e9123	0.27845106
135	0x3d1fdd51	0.039029423
136	0x3d36aed1	0.04460031
137	0xbb89f499	-0.0042100665
138	0xbdb6066b	-0.08887943
139	0x3d3e457b	0.04645298
140	0xbc4fd5a6	-0.012685215
141	0xbd93254a	-0.07184847
142	0x3c7d644e	0.015465809
143	0x3e72fbc2	0.2372885
144	0xbef9070a	-0.48638183
145	0xbe997391	-0.29970983
146	0xbf78c996	-0.97182596
147	0xbd91db8c	-0.07121953
148	0xbe74aa14	-0.23893005
149	0x3dbd1ce1	0.09234024
150	0xbed8f8fd	-0.42377463
151	0x3e28b650	0.16475797
152	0xbf8d0700	-1.1017761
153	0x3d80664e	0.06269513
154	0xbf66f438	-0.902164
155	0xbd83bef0	-0.06432903
156	0xbcd7815e	-0.026306804
157	0x3ba5210a	0.005039339
158	0x3e09202b	0.13391177
159	0x3dd25d2f	0.102716796
160	0xbf3749e6	-0.71597135
161	0xbda36b0d	-0.07979403
162	0x3dcc1be6	0.09966259
163	0x3db2297f	0.08699321
164	0xbf53ae48	-0.8268781
165	0xbda4f766	-0.08055
166	0xbd50b6a5	-0.050955433
167	0x3e047355	0.1293462
168	0xbe336441	-0.17518713
169	0x3ca9da0a	0.020733852
170	0x3e09688a	0.13418785
171	0x3b66945a	0.003518364
172	0x3d10ce7d	0.035353173
173	0x3d340839	0.043953154
174	0xbe03106e	-0.12799236
175	0x3e0b854c	0.13625067
176	0xbfe826ab	-1.81368
177	0xbcff4837	-0.031162364
178	0xbc990e20	-0.018683493
179	0x3e31e3a8	0.17372
180	0xbf78706e	-0.97046554
181	0xbdc7631e	-0.09735702
182	0x3d13b2dd	0.03605925
183	0xbd766780	-0.0601573
184	0x3ce3ee6a	0.027823646
185	0xbf20eac2	-0.6285821
186	0x39ad7fac	0.00033092254
187	0x3cce62fe	0.025193688
188	0x3e24c85a	0.16092053
189	0x3c4f9eef	0.01267217
190	0x3c3a2a8b	0.011362682
191	0xbe718fd5	-0.23590024
192	0xbedd6084	-0.43237698
193	0xbf0aa54c	-0.54158473
194	0x3e46eab9	0.19425477
195	0x3d71af7c	0.059005246
196	0xbf11e37f	-0.56987756
197	0x3eba44e5	0.36380687
198	0x3ec706d4	0.38872397
199	0x3d0aecb3	0.03391714
200	0x3db3bd24	0.0877631
201	0x3da64cc9	0.08120114
202	0xbd402820	-0.046913266
203	0xbcaafc1a	-0.020872165
204	0xbd261412	-0.040546484
205	0xba851bee	-0.0010155418
206	0xbd962510	-0.07331288
207	0x3dbae8bf	0.09126424
208	0xbdbbd98f	-0.091723554
209	0xbe319436	-0.17341694
210	0x3c666a3e	0.014063416
211	0x3d09ec11	0.033672396
212	0xbd6a7f39	-0.057250235
213	0x3f2543b6	0.64556444
214	0xbdac125e	-0.08401941
215	0x3da89d57	0.08233135
216	0xbbd9c2bb	-0.006645528
217	0x3d602947	0.054726865
218	0x3e8cf76f	0.27532527
219	0x3d947d62	0.072504774
220	0xbcb91d6c	-0.022597037
221	0xbd6282e6	-0.055300616
222	0xbf1e076a	-0.6173006
223	0x3e7312bd	0.23737617
224	0x3d99d89d	0.07512019
225	0xbd83481a	-0.06410237
226	0xbc7b72b2	-0.01534717
227	0x3d1b4e4a	0.03791646
228	0x3bd0a42e	0.006367228
229	0x3d5a069f	0.05322897
230	0x3e23d7fb	0.16000359
231	0xbd838733	-0.064222716
232	0x3e3dee33	0.18547897
233	0x3cde2699	0.027118014
234	0xbc2c086b	-0.010500054
235	0xbdc2c287	-0.095097594
236	0xbc88f1b4	-0.016716816
237	0xbd286f21	-0.041121606
238	0xbd1a59e7	-0.037683394
239	0xbdc05edf	-0.09393095
240	0xbdb4fcdf	-0.08837294
241	0xbd24e9ea	-0.04026214
242	0xbde00553	-0.109385155
243	0xbaad22b3	-0.0013209194
244	0x3cd9afb6	0.026573043
245	0xbd0d4d19	-0.034497354
246	0x3ce57542	0.028010014
247	0x3d9f6432	0.077827826
248	0x3d864b69	0.06557352
249	0x3e0d7099	0.13812484
250	0xc07681e7	-3.8516786
251	0xbf10af4e	-0.56517494
252	0xbd08bf6d	-0.033385683
253	0x3d81104f	0.06301939
254	0xbc513c88	-0.012770779
255	0x3c51bdbf	0.012801587

layer4.bias f4 [200]
0	0xc1f4cab4	-30.598976
1	0x41e8af80	29.085693
2	0x41ef43f7	29.908186
3	0x41f7da5e	30.981625
4	0xc1f99a4b	-31.200338
5	0x420bbd5b	34.934917
6	0x42248c3d	41.13695
7	0x42169b45	37.65163
8	0x421209f6	36.509727
9	0x4203bb79	32.93308
10	0x41d2ab94	26.333778
11	0xc19d1ffc	-19.640617
12	0x41cdbdb4	25.717628
13	0x421a7822	38.617317
14	0x41e3260d	28.39358
15	0x419ee88a	19.863544
16	0xc217e989	-37.97806
17	0x4215a5c0	37.411865
18	0xc0ab8bab	-5.3607993
19	0x420c2a64	35.041397
20	0x41e92c45	29.146616
21	0x4215e836	37.47677
22	0x41885e69	17.046099
23	0x401c0e48	2.4383717
24	0x4206fdce	33.747856
25	0x41bd4ba9	23.661943
26	0x4214cf28	37.2023
27	0x420c8d97	35.13827
28	0x42190765	38.25722
29	0x4211b324	36.424942
30	0xc1a47160	-20.555359
31	0x41f73fad	30.906092
32	0x420e64b1	35.59833
33	0xc20cfac4	-35.24489
34	0x421d340a	39.30082
35	0x41f6878e	30.816189
36	0x4217233d	37.784412
37	0x42139708	36.89749
38	0x420a12ed	34.518482
39	0x41d98699	27.190722
40	0x420556cc	33.334763
41	0x41e94391	29.157991
42	0x4220de1f	40.216915
43	0x4216f8c7	37.742947
44	0x421640e1	37.56336
45	0x4218502f	38.078304
46	0x41efd162	29.977238
47	0x42172a7f	37.7915
48	0x41ceb80f	25.839872
49	0x42297873	42.367626
50	0x420a1f6c	34.530685
51	0x41c702dc	24.876396
52	0x41cf252c	25.89315
53	0x4219d9a2	38.462532
54	0x420a686f	34.601986
55	0x420d037e	35.25341
56	0x42089045	34.14089
57	0x41ca6937	25.301374
58	0x42177f9c	37.87462
59	0x41d18825	26.191477
60	0x3ca85959	0.020550417
61	0xbea0c1a8	-0.31397748
62	0x42167a40	37.619385
63	0xc1dba40c	-27.455101
64	0x42093cee	34.3095
65	0x41d24ca6	26.287426
66	0x4217dc80	37.965332
67	0x42190f8f	38.265194
68	0x42155975	37.33736
69	0x420b4cea	34.82511
70	0x42117eb8	36.37375
71	0x418f3013	17.898474
72	0x42194d2e	38.32537
73	0xc1bcc8cc	-23.598045
74	0x420f46a9	35.819004
75	0x420e146a	35.519936
76	0xc16136ed	-14.07591
77	0x421f059d	39.75548
78	0x420e8e82	35.639168
79	0x41e4c426	28.595776
80	0x42057a9d	33.36974
81	0x41d529e2	26.64545
82	0x421a9122	38.64173
83	0x421a6f79	38.60886
84	0x4202dd3a	32.71604
85	0x4226b082	41.67237
86	0x4210949a	36.14512
87	0x42225615	40.584064
88	0x41cc2398	25.51738
89	0x42162251	37.533512
90	0x420ff4db	35.989117
91	0x42082269	34.033604
92	0x42195e16	38.34188
93	0x41ffc1fb	31.969717
94	0x421a26e0	38.537964
95	0x4210c76e	36.194756
96	0x420c018d	35.001514
97	0x4218f545	38.23952
98	0x420eaeb3	35.670605
99	0x4218a0de	38.157097
100	0xc133e162	-11.242525
101	0x41b9bfe9	23.218706
102	0x41e67399	28.806444
103	0x4218e56e	38.224052
104	0x421a4b9f	38.57385
105	0x4216736f	37.61273
106	0x42197105	38.36037
107	0x420d04a3	35.254528
108	0xc21ea876	-39.664513
109	0x420d11be	35.267326
110	0xbd1cc1fe	-0.038270943
111	0x41270e00	10.440918
112	0xc1e3ab4c	-28.458641
113	0x420dd777	35.460415
114	0x421a45eb	38.56828
115	0x421855e2	38.08387
116	0x421a0b27	38.51089
117	0xc1bb89d7	-23.442305
118	0x420999ee	34.400322
119	0x42186651	38.09992
120	0xc15faccb	-13.979686
121	0x41ff5072	31.91428
122	0x4216130d	37.518604
123	0x4203d8e3	32.961803
124	0x41dadea7	27.358717
125	0x42208ec4	40.13942
126	0x41ab0d80	21.381592
127	0xc105280f	-8.32228
128	0xc201795b	-32.36851
129	0xc2094cac	-34.324875
130	0x41b15328	22.165604
131	0x420f8183	35.876476
132	0x4204d63a	33.209206
133	0x420b9595	34.896076
134	0xc183e1e7	-16.485304
135	0x4215557b	37.333477
136	0x4214bf8d	37.18706
137	0x4183a114	16.453651
138	0xc205070c	-33.25688
139	0x41e0eb2b	28.114828
140	0x420f22e9	35.784092
141	0x41fb33b4	31.400246
142	0x4211aad4	36.416824
143	0x3d5ed76d	0.054404665
144	0x41d3953d	26.44787
145	0x4216b70e	37.678764
146	0x4215d75f	37.460323
147	0x4165b6df	14.357146
148	0x4207a467	33.91055
149	0x41df3949	27.902971
150	0x420feaa2	35.979134
151	0x42030c1b	32.76182
152	0xc20ba9d7	-34.91586
153	0x41fc8ccd	31.56875
154	0x42129c07	36.65237
155	0xc194b04d	-18.586084
156	0x41b59a79	22.700426
157	0xc1f45bcf	-30.544828
158	0xc0e57815	-7.1709085
159	0x420a77aa	34.61686
160	0x421bff8a	38.99955
161	0xc1c7de6a	-24.9836
162	0x41df83be	27.939327
163	0x421acfc2	38.70289
164	0xc186b7ae	-16.839687
165	0xc1bebe7f	-23.843016
166	0x420ff058	35.98471
167	0xc1a31f43	-20.390265
168	0x41d3a091	26.453402
169	0x420a2c54	34.54329
170	0x421b02ce	38.75274
171	0x40900259	4.5002866
172	0x420cfb97	35.245693
173	0x4223cd63	40.950573
174	0xc2076cb2	-33.856148
175	0x4209cf75	34.452595
176	0x4211d4da	36.457863
177	0x416b0e75	14.69103
178	0xc19afa7f	-19.372313
179	0x41f1bb91	30.216585
180	0x4219e602	38.474617
181	0x403f8077	2.9922159
182	0x4202f01c	32.73448
183	0x41bedca7	23.85774
184	0x42142890	37.03961
185	0x4209b639	34.42795
186	0x420daecf	35.42071
187	0x4225ce7f	41.451656
188	0x4204c10c	33.188522
189	0x41b878f0	23.059052
190	0x420d12a7	35.268215
191	0x421a40d2	38.5633
192	0x421691be	37.642326
193	0x420c403f	35.06274
194	0x42116032	36.34394
195	0x42193896	38.30526
196	0x420564f9	33.348606
197	0x421b9d9a	38.903908
198	0x421391e4	36.89247
199	0xc1a950b2	-21.164402
