src/model.pth (torch, 978110 bytes, 16 tensors)

layer1.weight f4 [200, 6]
00000000: 51a0 51be c589 bc3d 29d9 4abe 4086 8ebd
00000010: 23fd 98be 25f3 4f3e 69af babe 88d2 84be
00000020: 0f05 42be a7b4 f5bd 7d66 4b3d c189 8d3e
00000030: 16eb c13b a7bd ba3d 8edc 34c0 8fa3 28bf
00000040: f7f8 cfbb dfaa 60c0 d74c 3d3c bbbd bdbe
00000050: fb89 1840 3420 9c40 39b6 8a3e e6f5 3140
00000060: afa7 3f3e 60b7 213f d7f0 b7bf 6276 49c0
00000070: b717 abbe 07bb bebf c37d 883e adfd 6c3f
00000080: 49f1 39c0 db9b c740 b07f a83e 5378 8bbf
00000090: fdf4 143e 66e8 843d a11d fc3e c257 aac0
000000a0: 02d8 a5be 86d9 1840 a915 8cbe bd47 243e
000000b0: 1637 25be 15c6 80be 1815 b0be 3aab 55be
000000c0: 21b2 cabe 0571 893c 7d76 b8bf 2f41 0b3f
000000d0: 4185 893e a110 97c0 d1ef 463e b4b8 193f
000000e0: a811 41bf e479 3cc1 8100 94be 4772 5040
000000f0: 4b02 bcbe 320b 4b3e ba00 cbbe 2ddb b33e
00000100: f71f b7be 9324 093e bb3b 1a3d 7470 03bf
00000110: 293c 1b3f 6a61 9fc0 9cb6 b13e a7be 5bc0
00000120: eb29 dabe a46f 48be f675 8b40 dda7 10c0
00000130: f4c3 8a3e 27e0 1c40 1b38 873e 42b6 12bf
00000140: 1f75 d43d 51ef d840 8839 91be 3fd1 913f
00000150: 8dd4 b33d 5653 213f 2538 d93f 828c 7e40
00000160: 1a7c e13e 9803 1140 ecd6 97be 8f49 b5bd
00000170: ff7a 9d3e 6b9d d1be 7632 2e3d 60db 7c3d
00000180: ebc0 a73e 48dd c13c da11 03c0 327c 033f
00000190: 6e69 c83d ffbd acbf 41c6 3c3d fde9 203f
000001a0: 724d 0fc0 d049 36c1 e8e1 9abe bc2b adbf
000001b0: 4235 533e d4f4 e3be e9e0 76be 77e1 3441
000001c0: 526a a9bd a888 1040 cf28 533e 6644 30bf
000001d0: c7b5 5bc0 4bcd bac0 1557 363e 8247 55bf
000001e0: ce4d 993e 8bf7 553d 448a 9abf 7f71 8dc0
000001f0: cd2f c83e 00df 89c0 fb68 ed3d de37 68bf
00000200: faeb 1a40 ca07 a53f 4c74 aebe f6a1 e53f
00000210: f294 dd3c 7f4d 14bf 8e39 8740 00b4 423f
00000220: b4ef b23e 6761 46c0 befd 623e f9bc 873e
00000230: f38f e7bd 71ba 5e3f 607d 9b3e d125 d73f
00000240: e1c4 e63d 8f14 3d3f 33f0 81c0 64ee 96bf
00000250: 5063 25be ba8c 4c40 16a7 25be 5cea d23d
00000260: cd6a 90be 9e09 25bb 59a9 bfbe 3777 c7bd
00000270: beaa 193e d377 ecbe 909e 023f dda0 2e41
00000280: 543f 00be a07d 1e40 228f aa3d 372c 57bf
00000290: 318b 193f c261 eec0 835c febe f3c5 1440
000002a0: 35a3 bcbe c582 a43d 20ea 993e e532 593e
000002b0: 4171 d0be 02ba dbbd fcb1 09be f99c 483d
000002c0: f2ee 5dbe 6eae b53e 997f c2ba 13b0 a5be
000002d0: cd20 a4be a55d e33d 1dc9 44be c769 433d
000002e0: 4e71 3abe 7e17 d0be 1f9c cebe 7432 103f
000002f0: 04fb 69c0 89a7 0ec0 7338 4b3e 9b1f 2840
00000300: 355c 89be 5556 013f 98bf aabf 6504 b0c0
00000310: b344 09be 9106 3840 05a1 b9bd 5439 b13e
00000320: 3258 203e 3c7a 843d d7ad 83be bfd7 24be
00000330: 90cf fc3d 1558 033e d00e 4b40 eee4 ce40
00000340: cf89 0abf d1b2 0c40 ad1d b2be 73e5 24be
00000350: 667c 20bf 9660 35bd a0c1 fe3d 042f 50c0
00000360: a9e9 a53c fa85 15bf e66d 1dc0 3cbb cf40
00000370: cdf8 ba3e 43df 7440 4869 0cbe c14e 293f
00000380: ff99 4ebf bf74 583f 1d4f bd3e 91d1 3940
00000390: 8135 1dbe 53aa a6be fecb 55bf a598 373f
000003a0: e6a3 183e 07b5 b2c0 2c1d 7dbe 4dbf 8dbd
000003b0: 276b a6c0 e9ce 7d3f abba 993e 7bb6 ddc0
000003c0: 9024 313d b3f4 d7be 8a1f b740 acf1 3141
000003d0: 16c9 723e b75f da3f bd6e abbe c8b6 bb3d
000003e0: ab26 adbe 66d6 a2be bd8b 51be 2085 72be
000003f0: e0da 823e 57d5 843e 5e9e 3640 8eb0 07c0
-0.20471312 0.09205965 -0.19809403 -0.069592 -0.29880628 0.20307596 -0.36461952 -0.25941873
-0.18947242 -0.11997347 0.049658287 0.2764416 0.005917917 0.091182046 -2.8259616 -0.6587457
-0.0063468176 -3.5104291 0.011553965 -0.37058815 2.3834217 4.878931 0.2709215 2.7806334
0.1871631 0.63170433 -1.4370373 -3.1478505 -0.3341653 -1.4900826 0.2665845 0.9257458
-2.9053519 6.2377753 0.32909918 -1.0896095 0.1454658 0.06489639 0.49241355 -5.3232126
-0.32391363 2.3882766 -0.27360275 0.16042991 -0.16134295 -0.25151125 -0.34391093 -0.20866099
-0.39589027 0.016777525 -1.441116 0.5439634 0.26859477 -4.72078 0.1942742 0.6004746
-0.75417566 -11.779758 -0.28906634 3.256975 -0.367205 0.1982849 -0.39648992 0.35128155
-0.35766575 0.13392858 0.03765462 -0.51343465 0.6063867 -4.9806414 0.34709632 -3.4335115
-0.42610106 -0.19573838 4.3581495 -2.2602456 0.27102625 2.4511812 0.26409993 -0.57309353
0.103739016 6.7792134 -0.28364205 1.1391982 0.08780775 0.63017786 1.6970259 3.977326
0.44039994 2.2658443 -0.2965616 -0.08851921 0.307579 -0.40940413 0.042528592 0.06173265
0.32764372 0.023665085 -2.0479646 0.5136138 0.09785734 -1.3495482 0.046087507 0.6285704
-2.239102 -11.393021 -0.30250478 -1.3528972 0.20625785 -0.44522727 -0.24109234 11.305045
-0.08272232 2.2583408 0.20621036 -0.6885437 -3.4329698 -5.83756 0.17806657 -0.8331224
0.29942173 0.05223803 -1.2073445 -4.4201045 0.3909897 -4.3084717 0.11592289 -0.90710247
2.4206529 1.2893002 -0.34073102 1.7940052 0.027048562 -0.5793075 4.2257757 0.7605591
0.34948504 -3.099695 0.22167107 0.26511362 -0.11306753 0.87003237 0.3036909 1.6808416
0.112680204 0.73859495 -4.060571 -1.1791501 -0.16151166 3.1960893 -0.1617702 0.10298607
-0.28206483 -0.0025182734 -0.3743389 -0.09739535 0.15006539 -0.4618517 0.510232 10.914273
-0.12524158 2.4764175 0.08328082 -0.8405184 0.59978014 -7.4494333 -0.49679956 2.3245819
-0.36843267 0.08032755 0.30061436 0.21210821 -0.40711406 -0.107288375 -0.13446802 0.048977826
-0.21673182 0.35484642 -0.0014839052 -0.32360896 -0.32056275 0.11101846 -0.19217344 0.0477083
-0.18207285 -0.40642923 -0.40353486 0.56326985 -3.6559458 -2.2289755 0.19845752 2.626929
-0.2682816 0.5052236 -1.333972 -5.5005364 -0.13405113 2.8754008 -0.09063915 0.3461405
0.15658644 0.06468627 -0.25718567 -0.16097926 0.12344277 0.1282657 3.172779 6.4654455
-0.5411653 2.198414 -0.34788266 -0.16103153 -0.62689817 -0.044281565 0.12439275 -3.2528696
0.02025302 -0.58407557 -2.4598327 6.4916058 0.36517945 3.8261268 -0.13712037 0.66135794
-0.8070373 0.8455314 0.3697442 2.903416 -0.15352441 -0.32551822 -0.8351439 0.7171729
0.14906272 -5.584598 -0.2471816 -0.06921253 -5.20058 0.99143845 0.3002523 -6.9285254
0.04324776 -0.42178878 5.7226 11.121502 0.2370952 1.706046 -0.33482924 0.09165722
-0.33818564 -0.31804198 -0.20463462 -0.23683596 0.25557613 0.25944015 2.853416 -2.120151

layer1.bias f4 [200]
00000000: cd4b 393c 93a4 65bb 954e 04c2 0169 b741
00000010: 8989 10c2 10ba 19c2 e7a7 3fbf e48d a43d
00000020: 955c 89bb 330d e741 a2db b4be d69e 81c1
00000030: 2709 9b3f 2340 fd41 1cfb f841 57f2 c13d
00000040: f836 1cc2 941a 1ac0 0867 e7c0 fd3f fbc0
00000050: a52c 8041 62a7 0342 4380 533f b3af 2242
00000060: a05c 84c1 06b2 a83e fa90 e0c0 06da 1642
00000070: 5670 b3be b7fd 8f3e 1f06 4abe e35c c2c0
00000080: e731 bcc0 02d1 183d e5a4 8dc1 2f0f 823e
00000090: 9310 d1bf fd0c 77c0 f091 5d3e 1e7c 58bf
000000a0: 118b 2341 3dc4 2abe fff8 9141 3dc7 79c1
000000b0: 855a c33e e58c 8abd b06f f7c1 a4ba 7dc1
000000c0: 6008 9441 d5f9 bcbe 882d 83c1 cefb 7ebe
000000d0: 06d7 0d3f 67ce cfbe 9695 62c0 90eb bd40
000000e0: fa45 babf 485c 2142 a972 0ac0 2444 c43c
000000f0: 5b62 21c2 7916 6fbd e27e a63e 97a2 7641
00000100: b67c 2240 2887 68be 80b6 1cc2 ec09 a040
00000110: 1596 b640 a17f 74c1 27de e340 ae5d a541
00000120: ace9 5abc 43b6 273e c54f 46be 5d4b 8c3d
00000130: d2d1 aac1 130c a73f 001b 0642 e0f6 5fbe
00000140: 2fc3 513e bab2 cfbe 8923 923e 6037 1142
00000150: 935f a0c1 0bce bfc1 843f cfc1 1a5d 3dbe
00000160: 5ed5 87bc 7d27 c341 a111 ebbe 71f5 623e
00000170: 9f2c 0042 12f7 9abd 1275 a8bf ccb4 97c1
00000180: 11f1 f83e 76f0 3b3e 927d ae40 46be 6b3d
00000190: 4f2b 7641 f959 0942 8761 8cc1 b324 a5c0
000001a0: b681 a5c0 a680 713e 8149 8b3e ce3d fdbf
000001b0: 57ac 36be 64a5 5f41 19fe 123e 2104 5041
000001c0: a1c0 8ebe c9f6 1942 3685 b141 c546 cc3d
000001d0: 3832 a6c1 d82c 0642 1211 3841 2a67 8e3e
000001e0: e6cd d4c1 6088 0c3f 2966 30be a667 28c1
000001f0: 211e 6a3e f65f 16c2 dcf0 d53d d61d f440
00000200: 3c8f 1f3e 12cc a9c0 3a87 f1bf ab65 71bd
00000210: 0fe8 4c41 8f8c 9d3e d4e8 0bc1 d534 afbf
00000220: dcea afbe d0d3 7ebf 4ad7 acbf 642a 7c3e
00000230: 2860 5141 67c3 a6be 4ec8 cfbf db4a b641
00000240: 3eee 6c3e 72e5 1fc2 2c21 75c0 71e5 90c1
00000250: 5392 e3c1 6430 d341 48fd dc40 57c5 c7c1
00000260: 74d2 ddc1 0776 97be 2024 25c1 9e39 54c0
00000270: 0767 b43e a08b 0dc2 b70e 7e3e c1d3 f33e
00000280: b043 4abe a43e 0bc2 1e5d 01c2 8d26 57be
00000290: 5193 22c0 0038 6fc0 b363 b941 2c43 1542
000002a0: caf3 eac0 efda fc3d ac76 64c0 27d8 bdc1
000002b0: dbc2 9ebe f684 0d3e 866e 04c2 d459 61c1
000002c0: 58ac 7bbe 4c0c 493f a37e d4bf 96a4 7341
000002d0: dee9 d041 2aea 2d42 01c9 8ebe 3efc c4be
000002e0: 0d4b babf a0da 46bf 4411 bfbf 5f48 5141
000002f0: 5c18 d841 0895 c741 f9ec b041 cdf6 9f41
00000300: 2777 3841 d0a1 8241 263f 203e 0857 13c2
00000310: 13fe bcbe 6750 ffc1 3973 5cbe 2829 02c2
0.011309576 -0.003504072 -33.07674 22.926271 -36.13431 -38.4317 -0.74865574 0.08034876
-0.004191945 28.881445 -0.35323817 -16.202557 1.2112168 31.656317 31.122612 0.09470051
-39.05368 -2.4078722 -7.231327 -7.851561 16.0218 32.91346 0.82617587 40.67158
-16.545227 0.3294832 -7.0176973 37.712914 -0.35046643 0.28123257 -0.19728898 -6.0738387
-5.8810916 0.0373087 -17.705515 0.2540221 -1.6333183 -3.8601677 0.21637702 -0.8456439
10.221452 -0.16676421 18.24658 -15.611142 0.38154998 -0.06765155 -30.929535 -15.858067
18.50409 -0.36909357 -16.397232 -0.24900743 0.55406225 -0.4058716 -3.54038 5.935005
-1.4552605 40.34012 -2.1632483 0.023958273 -40.34605 -0.05837104 0.3251868 15.414695
2.5388618 -0.22707808 -39.178223 5.001211 5.7058206 -15.281159 7.120868 20.670742
-0.013361376 0.16378121 -0.19366367 0.06850312 -21.352451 1.305056 33.526367 -0.21871519
0.20484613 -0.40566045 0.28542736 36.304077 -20.046667 -23.975607 -25.906013 -0.18492547
-0.016581234 24.394281 -0.45911887 0.22163941 32.043575 -0.07566656 -1.3160727 -18.96328
0.4862142 0.18353447 5.4528284 0.057554506 15.385573 34.337864 -17.54762 -5.16073
-5.172084 0.23584232 0.27204517 -1.9784486 -0.1783918 13.977879 0.14354743 13.001008
-0.2788134 38.491 22.190044 0.09974436 -20.77452 33.543793 11.504168 0.27813083
-26.600536 0.5489559 -0.17226471 -10.525305 0.22863056 -37.59371 0.10446331 7.628642
0.15581983 -5.306161 -1.8869393 -0.05893485 12.806655 0.307713 -8.744343 -1.3687998
-0.3435887 -0.9954195 -1.3503201 0.24625546 13.085976 -0.32570955 -1.6233003 22.78655
0.23137757 -39.974068 -3.8301497 -18.112032 -28.446447 26.398628 6.905918 -24.971357
-27.72776 -0.29582235 -10.32132 -3.3160167 0.35234854 -35.386353 0.24810301 0.47622493
-0.19752383 -34.811172 -32.340935 -0.210108 -2.5402415 -3.737793 23.173681 37.315598
-7.3422594 0.12346446 -3.5697432 -23.730543 -0.31008038 0.13820252 -33.107933 -14.084431
-0.24577463 0.7853439 -1.6601146 15.227682 26.114193 43.478676 -0.2788773 -0.38473696
-1.4554154 -0.77677345 -1.4927144 13.080169 27.011894 24.94777 22.11571 19.995508
11.52909 16.32901 0.15649089 -36.83499 -0.36912593 -31.914259 -0.21528329 -32.54019

layer2.weight f4 [200, 200]
00000000: fd32 48bd bc93 1e3d 7329 d5bb f774 3fbc
00000010: d40c 2a3d 29f2 86bd 5d2c 81bd 34a7 223d
00000020: babd 88bd ceb4 49bd a424 a0ba 9963 833d
00000030: 8b4c 53bd 62b3 31bd 58a7 4c3d f11e 54bd
00000040: bc9a 60bc 96c4 863d f8b5 72bb b4c1 c4bb
00000050: a3e5 8f3c 889c 1d3d cd48 e5bc 06cf 56bc
00000060: c9cc 883d 39ca c53a 2e17 fb3c a905 9fbc
00000070: d681 863d 1aae bf3b ec00 2abd adab 22bc
00000080: 9004 8cbd 1ee3 2bbd acef da3c 3f42 2c3d
00000090: c488 f53c d027 edbb 3531 adbc d43b 11bd
000000a0: 8a77 843c cfea 08bd a061 03bd 1d53 653d
000000b0: 35c3 6b3d 2521 6f3d 514d 06bd d9cb 08bd
000000c0: dc16 fbbc b89d 3c3d 9e5d 96bd 2a88 01bd
000000d0: 05ed 4fbb 501e 733d d529 823c b3dc cc39
000000e0: d7cd e6bc 4653 24ba 5907 86ba 7390 713c
000000f0: c2f9 90bc d7ab ca3c 73bf 4f3d de03 1c3d
00000100: 25b7 e73c b5a3 83bd ae81 863c a9c2 b93c
00000110: 0ef6 4b3d 8401 283d fe09 7fbc 0e62 62bd
00000120: db25 4fbd 7419 273c 9998 9f3c de98 21bd
00000130: 570f 153d 8eb4 273d 53cb 853d 0042 2dbd
00000140: 452b 353d f8cc 1bbd 5309 45bc b64a 83bd
00000150: 9159 2dbc a1a5 1a3d f7d8 47bd 3ea9 303d
00000160: c285 4dbd 6a93 383d 0381 593c fbd4 7b3d
00000170: 9293 80bd 48c9 083d 8122 863c 43ed 2e3d
00000180: a5c7 87bd 604d 583d e981 c63c 45e2 ebbc
00000190: 02e1 5f3d 3ea6 00bc acd7 833d b64b a4bc
000001a0: 7803 5fbd c369 543d 507f 653c 2a98 55bd
000001b0: 4752 32bd 7067 b73c b3c2 5a3d b4f5 a03c
000001c0: f711 28bd 7421 85bc fe5b 1f3d 424d 193d
000001d0: 8f5b 5dbd f4ab 333c 5fdf 873d f9b1 853d
000001e0: 8305 1abd 618b 453d 5c39 f6bc 60d4 85bd
000001f0: 1547 aebc 7ecd 0a3d 1ebd 16bc ec55 643d
00000200: f3e6 0cbd df83 dc3c 01b5 f73c 4333 5ebd
00000210: d865 79bd af15 8fbd 9e41 90bd 9b99 4abd
00000220: 930a 493d eead 313a 0373 25bd a4e3 133d
00000230: 34a5 37ba 9644 49bd dc14 f33b bd14 c0bc
00000240: 9c0c b3bc bf6d 2ebd 520e e73c b261 5abd
00000250: a4db 9fbb 4ff5 673c d499 87bd b8bc 703d
00000260: f813 5bbd bbf7 603c ff83 1ebc a51e 86bd
00000270: dd52 e43b f385 edbc 4b41 413c 6a01 643d
00000280: e1b9 18bc 44cf 0abd 1047 57bd 27bf 35bd
00000290: c053 84bd 4fd5 a6bc bf9a 46bc 5507 54bd
000002a0: 1229 b3bc ba81 7c3b f344 f3bc f15a 2abd
000002b0: 8fbb 2f3d a556 253d 06ba 2fbd 9f25 85bc
000002c0: 3b71 5e3d 3228 95bc 49f4 773c 8856 5a3c
000002d0: de6b 6fbd 0ff9 bcbb 7ad3 023d cc7c 17bd
000002e0: c617 a9bb 433e 78bc f2fd 5e3d 5eaf 563d
000002f0: 0d5c 873d 4527 3ebd f0bf 103c 78d9 6e3c
00000300: ed7e d8bc 489a 65ba a7b1 a23b 5968 053d
00000310: 1dfc eb3c d5d9 e83c b39f 463d f7b8 96bd
00000320: d720 90bd 41d0 933c aaba c4be d417 8f3b
00000330: 777a f23c 556f ac3c 942d 523d 54b3 72bd
00000340: f8f7 f6bd 584b 5cbc 1ca8 86bd ba26 adbd
00000350: 5bbe c53d 1d3c 363d badb 873d b781 013c
00000360: 45a5 37bd a36e 6abc 3a3d 7d3d d239 543d
00000370: cfe0 f2bb adfe 943d a86f 85bd e713 9bbc
00000380: 99b2 ac3d 26ab b6bc bd8d 14bd 0d1a d93d
00000390: d3ac e63c 802a 0a3d 28a0 853d e244 043e
000003a0: 630c e73c a4b2 6dbd 9331 5fbd 8900 41be
000003b0: fadb 1bbd ec4f d83b 253b a7be 5915 81bd
000003c0: 0122 53bc 8f99 f83c 3d6d 13bc c17e 6ebd
000003d0: 740a 873a 7a4d d33c 39b2 aabc 588a 383d
000003e0: 120d 903a adde b4be fb07 b2bd b2d8 c2bc
000003f0: a011 e83e 981c e4bc 8ef9 82bc e54b ba3d
-0.04887675 0.03871511 -0.0065051853 -0.011685601 0.04151614 -0.06589157 -0.0630729 0.03971024
-0.066768125 -0.049244694 -0.0012217951 0.06415481 -0.05158667 -0.043383963 0.04996428 -0.05178732
-0.013708767 0.065804645 -0.0037034731 -0.0060045365 0.017565554 0.038479358 -0.027988816 -0.013110882
0.06679685 0.0015090174 0.030650701 -0.019411879 0.06567733 0.005849612 -0.041504785 -0.009928626
-0.06836808 -0.041964643 0.026725613 0.042055365 0.029972441 -0.007237412 -0.021141628 -0.035457447
0.016170282 -0.033427056 -0.032075524 0.055987466 0.05755921 0.05838122 -0.03278858 -0.03339753
-0.030650549 0.04604885 -0.07342075 -0.031623997 -0.0031726968 0.05935508 0.015889088 0.00039074346
-0.028174324 -0.0006268512 -0.0010225578 0.014743912 -0.017697219 0.024740143 0.05071969 0.038089626
0.028285572 -0.06427709 0.016419258 0.022675829 0.049795203 0.04101707 -0.015566347 -0.055269293
-0.05057321 0.01019894 0.019481944 -0.039452426 0.036391582 0.040943675 0.06532922 -0.04229927
0.04423072 -0.03803727 -0.012026149 -0.06410734 -0.010580436 0.037755612 -0.0487909 0.043130152
-0.05017639 0.04506246 0.013275388 0.06148241 -0.06278147 0.03339508 0.016373875 0.04270674
-0.06629876 0.052808166 0.024231868 -0.028794417 0.054657944 -0.007852135 0.064376205 -0.020055633
-0.054446667 0.051858675 0.014007404 -0.052147068 -0.043535497 0.02238819 0.053408336 0.01964841
-0.041032758 -0.016251303 0.03890609 0.037427194 -0.054042395 0.01096629 0.066344015 0.06528086
-0.037602913 0.048228625 -0.030056648 -0.06534648 -0.021274129 0.03388738 -0.0092003625 0.055746004
-0.034399938 0.02691835 0.030237677 -0.054248106 -0.06088814 -0.06986558 -0.070437655 -0.049462896
0.04908235 0.00067779317 -0.040392887 0.036105767 -0.0007005513 -0.049137674 0.007418258 -0.023447389
-0.021856599 -0.04258513 0.02820507 -0.053315826 -0.004878478 0.014157607 -0.06621137 0.058773726
-0.05348584 0.013730939 -0.009675025 -0.06548814 0.006967886 -0.028994536 0.011795352 0.05566541
-0.009321661 -0.03388907 -0.052558005 -0.04437175 -0.064612865 -0.020365385 -0.012121855 -0.051764805
-0.02187017 0.0038529471 -0.029695963 -0.041590635 0.04290348 0.040365834 -0.042902015 -0.01625329
0.054307204 -0.018207643 0.015133926 0.013326295 -0.05845248 -0.005766995 0.03193996 -0.03698425
-0.0051603047 -0.015151563 0.0544414 0.052413337 0.06609354 -0.04642417 0.008834824 0.014578216
-0.02642771 -0.00087586464 0.0049650255 0.032570217 0.02880674 0.028424183 0.048492145 -0.07359498
-0.07037514 0.01804364 -0.38423663 0.004366854 0.029599411 0.021049181 0.051312998 -0.059253052
-0.12059015 -0.013445698 -0.06575033 -0.08454652 0.09655448 0.044490922 0.066337064 0.007904462
-0.044835348 -0.014308604 0.06182597 0.051812954 -0.007412053 0.07275138 -0.06515437 -0.018930389
0.08432502 -0.022298407 -0.036267985 0.10600672 0.02815858 0.033731937 0.06524688 0.12916902
0.028204149 -0.058031693 -0.054490637 -0.1884786 -0.038051583 0.0066013243 -0.3266231 -0.063029
-0.012886525 0.03034666 -0.008998212 -0.05822635 0.0010302798 0.02579378 -0.020836936 0.04505381
0.0010990223 -0.35326138 -0.086929284 -0.023784969 0.45325947 -0.027845666 -0.015988138 0.09096507

layer2.bias f4 [200]
00000000: 6900 d5bc f09e 1d42 3c8a 22bf 89ab f4c0
00000010: 979a 193d d90e 82c1 2df4 88bd ccc9 d23c
00000020: be63 bcbc 0e50 9240 0aba 813d cf9e d6c1
00000030: db26 d740 caec 18c2 4811 6c3d 9a1b 80c1
00000040: 0389 20bd ead3 d83f 43dc 843b 9488 38c2
00000050: 7e0c 87bd 532e bbc0 6400 24c1 9a7e 2740
00000060: 16bf cfc1 4e2b f1c1 884e 823c cf0d 2a41
00000070: 2a17 c4c0 05c6 1041 c351 5bbe 1b3c 93c1
00000080: 74f0 6941 7c09 553c 34d0 95c1 59c8 50bd
00000090: 8fc7 5bbd 9fa3 af41 af23 d73c 0250 15c2
000000a0: cdc0 2642 567f 9341 3569 b1c0 463c 5a3d
000000b0: 1246 8bc0 f186 ad41 4532 96bc c58d 903e
000000c0: 0d5f 1042 016d 1642 09ea 0fc2 a647 cc41
000000d0: 23b6 1241 c5ad e341 d326 7ec1 1bf8 36c2
000000e0: 5121 ed40 56e3 e540 1fa3 f6bc e42d 84ba
000000f0: 6ea1 b2bc ef4a 0142 6297 8ebd 5d28 82c1
00000100: b2a6 273c f752 dfc0 da42 493d f089 8e3d
00000110: f28c 6040 0b8c 39bd d9c2 d6c0 d4e0 6d40
00000120: b43f f6c1 506b 89c1 791f 7741 a9dc 2ec0
00000130: b564 79bc 7f68 4e41 cf87 17c2 ef9d 8b40
00000140: 0267 2cc2 964a 07bd 4c95 3dbd 670e 79bd
00000150: d110 e541 8c56 5cbd 5121 83bd 73a0 5541
00000160: 5747 bec0 1304 85bd 28d4 93c0 647e 953c
00000170: 2bf2 bdc0 522a 82bd 1564 b440 b736 0141
00000180: d095 fabc c0dd fe41 0389 0bc2 7671 e2c1
00000190: 7a3b 6641 716b b2c1 84ba 103d f572 2b42
000001a0: ede5 62bd cd67 8ebd b5c9 3042 fdbb 9f41
000001b0: 6d5f b63f 2c88 51c1 5831 2f41 6dfa fa41
000001c0: 21ee 16c2 15ed 18c2 379e cf3c 2a85 06c0
000001d0: a308 87bd 948c 3c41 fce8 1c41 d731 1bbc
000001e0: 07e6 33bd 1b1d d8bf c6e8 563d ed47 d2c0
000001f0: aa8a 80bc fa73 9d3c 968d 32bd e79f 323d
00000200: 51aa 8abd eefa 6641 17e6 2c42 2b67 18c1
00000210: ba60 ae41 a744 f1bb 9910 0941 169e b1c1
00000220: 07bf aac0 d38f 2b42 62de 1441 76ff 2e3d
00000230: 0dee 1dc2 12e3 1d42 fbf6 12bd 045d d7bc
00000240: 6992 0cc2 7436 9541 6d9e f3c0 00c3 a841
00000250: 0371 2042 3175 3642 df69 a1bb 8411 9241
00000260: 3259 e2c1 1178 d6c1 e081 0d42 9c79 873d
00000270: ac28 e141 0c09 02bd 7b4c e841 10b6 033d
00000280: ddba 8ebe 5aad 85bb 648a 9f40 b7af 0242
00000290: b931 03c1 61ce d9bc eabf 663c c0b8 0a42
000002a0: 71ba fa3c 2324 68c0 f706 913f be9d b2bf
000002b0: 82e7 d041 9e2b 7940 ac0d 21c1 766a 523d
000002c0: fa1a 1041 5d64 3c3c 3300 0941 d3f1 81bb
000002d0: e023 7fbd 8783 af3c f766 23bd bcdd d240
000002e0: d855 a6c1 2449 fabc 81c9 dac0 225a 1dbd
000002f0: 8dd7 8e3d 2e92 8a41 1c8a 8741 ddb8 49bd
00000300: 6fee 24bd 715e fb3c 8772 8fbd 5d3c 4fbd
00000310: 4692 2041 b475 1e3d a609 9a41 00eb f03f
-0.026001172 39.405212 -0.6349218 -7.6459394 0.037500944 -16.25725 -0.06687198 0.02573099
-0.02299678 4.5722723 0.06334312 -26.827543 6.723493 -38.23124 0.05763367 -16.013477
-0.039193165 1.6939671 0.0040545776 -46.133377 -0.065941796 -5.849405 -10.250095 2.6171021
-25.968304 -30.146145 0.015906587 10.628371 -6.1278276 9.048345 -0.21417908 -18.404348
14.621204 0.0130027495 -18.726662 -0.050972316 -0.05365711 21.954893 0.026262132 -37.328133
41.688282 18.437176 -5.5440927 0.053280137 -4.3523035 21.69089 -0.018334517 0.28233162
36.092823 37.60645 -35.97855 25.534985 9.169467 28.459848 -15.884479 -45.74229
7.410317 7.184001 -0.03010708 -0.0010084477 -0.021805491 32.323177 -0.06962468 -16.269709
0.010232614 -6.9788775 0.04913602 0.06959903 3.5086026 -0.04529957 -6.711285 3.7168474
-30.781105 -17.177399 15.445184 -2.732218 -0.015221764 12.900512 -37.882626 4.363029
-43.100594 -0.033030115 -0.04628496 -0.06080475 28.633211 -0.053793475 -0.06402839 13.351672
-5.9462085 -0.06494918 -4.619648 0.018248744 -5.9358115 -0.06355728 5.637217 8.075858
-0.030589014 31.858276 -34.8838 -28.3054 14.389521 -22.302462 0.035334125 42.862263
-0.055395056 -0.06953392 44.19698 19.966791 1.4247872 -13.095745 10.949547 31.372278
-37.732548 -38.231525 0.025343997 -2.1018777 -0.06593444 11.784321 9.806881 -0.009472332
-0.043920543 -1.6883882 0.052468084 -6.57128 -0.01569112 0.019220341 -0.043592058 0.043609526
-0.067707665 14.436262 43.224697 -9.5251875 21.79723 -0.0073629203 8.566552 -22.20219
-5.335819 42.890453 9.304293 0.042724095 -39.48247 39.47175 -0.03588007 -0.02628947
-35.14298 18.651588 -7.613089 21.095215 40.110363 45.614445 -0.004925951 18.258553
-28.293552 -26.808626 35.37683 0.06614992 28.14486 -0.03174691 29.037344 0.03215605
-0.2787694 -0.004079503 4.9856434 32.671597 -8.199639 -0.026587667 0.014083842 34.68042
0.03060648 -3.6272056 1.133025 -1.3954389 26.11304 3.8932872 -10.065838 0.05137106
9.006586 0.011498538 8.562549 -0.0039655953 -0.062290072 0.021425022 -0.039893117 6.589567
-20.791916 -0.030552454 -6.8370976 -0.038416035 0.06974707 17.321377 16.942436 -0.049248565
-0.04026645 0.030684682 -0.07004266 -0.050594676 10.035711 0.03868647 19.254711 1.8821716

layer3.weight f4 [200, 200]
00000000: 6179 4bbc af82 65bd 0f25 633c 1319 8bbd
00000010: c1c7 80bd be17 e43c e8cc 7ebb 3a15 5ebd
00000020: 3f39 05bd 5c66 c13c dbee 69ba d2a1 32ba
00000030: 89df 92ba 9974 7fbd bd79 573d 0e87 cfbc
00000040: 7a6a 293d a1b4 203c d7ee 1c3d 8143 4f3d
00000050: 4f0a 943c 3875 df3b 1186 90bd f126 24bd
00000060: 6b00 183d 372c 54bd fd63 f53c 2b5b 75bb
00000070: 092f 93bb 7d4d f3bc 0290 973c aa10 6b3c
00000080: 6dd6 debc e7ab e6bb feb2 81bc d698 27bc
00000090: 7866 cebc 0875 4739 9566 e7bb 30e5 fd3c
000000a0: 3f4e 7fbd b744 393d da68 d23c 7302 d53b
000000b0: 9eb1 1bbd 5ed8 76bd 8e59 8d3d f879 2ebd
000000c0: 5936 0fbd 7791 353c 0ea0 19bd 668c da3b
000000d0: 0391 583c d764 143d c931 56bd a280 e23c
000000e0: 2948 2f3d 82a0 393d 5f42 8cbd f25e 5a3d
000000f0: a5f6 bc3c 8589 83bd e83d 71bd d0e6 28bc
00000100: 3180 8c3d fe78 7b3d b90a 013d 29e2 953b
00000110: 1a35 11bd 3baf 62bc 0360 7c3a ec5a 49bd
00000120: 1e27 99bc c45f 8dbb 03da 9cbd 730f 9a3c
00000130: 9bfa 7b3d aa04 e93c 369c 36bd 166b 813c
00000140: 01dc eabc fa5a 63bd a41b 863d 45ca 29bd
00000150: 3354 8bbd a499 543d e0e0 533d 0976 963c
00000160: 5c9e 0cbd df78 ef3c defd d13c f93c a8bc
00000170: 22de 4d3d 4afd 20bd e9c0 a1bc 1f09 323d
00000180: 2709 9cbc bcd6 95bd 3f56 73bd 6c54 a3bd
00000190: 1987 95bd 4e08 4cbd df41 80bd 13d4 0a3c
000001a0: a725 893d 066b 54bc d518 06bd 1c33 94bb
000001b0: 364b 773d 827b 253d ce8b cc3b 923a 8fbd
000001c0: 51cc 9ebc 43f0 4e3d 6856 72bd f679 82bd
000001d0: 8597 13bd 0134 12bd f17a b63c 01fd 793d
000001e0: 7370 83bd f552 90bd 59b8 893a 10bd 013d
000001f0: 5886 0abd 8b1f a63c a2e5 81bd f796 73bd
00000200: 5ed7 00bd be07 a8bd 95b5 10bd a397 15bd
00000210: d91b 96bb 9d34 1c3d b06d 243d 4ae9 74bd
00000220: ec5f 843d 83fa 8fbc 96f5 a63c f66f 8f3d
00000230: 2760 543d af6f a93c d9a3 13bb 90d9 763d
00000240: 92af 153d f140 a9bc 7420 12bd 5828 8cbd
00000250: 9a9e 6fbd 92e2 8c3d 9094 e3bc cc3f 9fbd
00000260: a523 12bd a592 25bd 2469 663d 324e 2f3c
00000270: d806 93bd 7a76 763d 7552 96bd 9d3c 68bd
00000280: d0c4 cf3c 09ac 1ebd 9529 96bd b143 a7bb
00000290: 41fb 8ebc 3b44 e03c 4286 5d3d 16d9 da3c
000002a0: e1bf 70bd 5184 59bd c1fe 223c 51a5 8abd
000002b0: 7ce9 8e3d 010a 6cbd d8e6 a53c 58f0 3c3d
000002c0: 775a 13bd 55f9 2fbd 32fe c63c 58db 713d
000002d0: 9e4a 70bb 4f05 c7ba ffdc 0c3c e00b de3c
000002e0: 2019 d53a 4cb7 1cbd ee99 c7bc f8d1 353d
000002f0: e81a d63c ef78 ecbc c3a5 79bd dfa8 843d
00000300: eece d33a 71c7 003c 0fdd c2bc 60b2 6f3d
00000310: 2952 99bc 57b3 0dbd 9841 313d b6e5 87bc
00000320: 15af be3c 55cf 25bb 10cc 183d 106a d93c
00000330: 7f90 2e3d a335 adbc abdc 9c3b 0458 06bd
00000340: 9924 bc3c 164d 0abd 5666 92bd a2c1 6ebd
00000350: bf4d 9cbd 467d 11bd d504 a4bc bfb2 d23c
00000360: b00e 3abd fce1 4abd 35d7 9a3c 39af 60bc
00000370: dc87 7c3c 6ea3 7c3c d5a9 1bbb 57cd 683d
00000380: 1236 9ebd 0ede 96bd 765b d4bc f6a7 033d
00000390: 3229 5fbd 8c64 fbbb 26b1 3fbd 859f fa3b
000003a0: 3f28 d03c 55e5 cfbc 91be f93c 092c ae3c
000003b0: 27a8 42bd fbdd 6ebd e2e8 26bd 5645 5e3c
000003c0: ebde 0cbd 0459 d73c aecc 1cbd 7fe2 26bd
000003d0: df85 4a3d 8521 0b3d 9141 82bc 22e2 773d
000003e0: 611a 05bd d77e 023d 7b43 4cbd 5ac6 87bd
000003f0: 712a 7bbd 0488 a5bd c14d 493d 6e8f a4bd
-0.012419076 -0.056032833 0.013863816 -0.06791892 -0.062881 0.027843352 -0.0038879458 -0.054219462
-0.032525297 0.023608379 -0.0008923837 -0.0006814274 -0.0011205535 -0.062367056 0.052606333 -0.025332954
0.04136131 0.00980869 0.038313713 0.050601486 0.018071322 0.0068193935 -0.07056821 -0.0400762
0.037109774 -0.05179998 0.029954905 -0.0037438374 -0.004491691 -0.029700035 0.018501285 0.014347235
-0.027201856 -0.0070395353 -0.01583242 -0.01022931 -0.025195345 0.00019021716 -0.0070617893 0.030993074
-0.06233048 0.045231547 0.025684763 0.006500536 -0.038011186 -0.060264938 0.06901847 -0.042596787
-0.03496394 0.011082045 -0.037506156 0.006669569 0.013218167 0.03622898 -0.052293573 0.027649228
0.042793427 0.045319088 -0.06848597 0.053313203 0.023066828 -0.06422714 -0.05889693 -0.010308936
0.06860388 0.061394684 0.031504367 0.0045740795 -0.035451032 -0.0138357235 0.0009627344 -0.049158975
-0.01869541 -0.0043143947 -0.0765877 0.018806195 0.061518293 0.028444607 -0.044582568 0.015798133
-0.02866936 -0.055506684 0.06548241 -0.041452665 -0.06803169 0.051904336 0.05172813 0.01836683
-0.03433071 0.02923244 0.025633749 -0.020536887 0.05026067 -0.039304055 -0.019745307 0.04346573
-0.019047333 -0.07316348 -0.059408423 -0.079750866 -0.073011585 -0.049812607 -0.06262564 0.008473414
0.06696635 -0.0129649695 -0.032738525 -0.0045226943 0.06037446 0.04040099 0.006242252 -0.06993593
-0.019384535 0.0505221 -0.059164435 -0.063709185 -0.036033172 -0.035694126 0.02227542 0.0610323
-0.06417932 -0.07047073 0.001050721 0.031674445 -0.033819526 0.020278713 -0.06342627 -0.059470143
-0.03145539 -0.08204602 -0.03532942 -0.036521565 -0.0045809564 0.038136113 0.04014367 -0.059792794
0.06463608 -0.017575508 0.020380776 0.07003777 0.05184951 0.020683138 -0.002252808 0.060266078
0.03654439 -0.02066085 -0.03567548 -0.068436325 -0.058500864 0.06879152 -0.027780801 -0.0777584
-0.035678525 -0.040423054 0.056252614 0.010699796 -0.0717904 0.06017158 -0.07339946 -0.05669843
0.025362402 -0.038738284 -0.0733215 -0.005104505 -0.017453792 0.027376285 0.054083116 0.026714843
-0.05877674 -0.053104702 0.009948433 -0.06769813 0.06978127 -0.057626728 0.020251676 0.046127647
-0.035974946 -0.04296239 0.024291132 0.059047073 -0.003666557 -0.0015184077 0.008597611 0.027105272
0.0016258098 -0.038260743 -0.024365392 0.044389695 0.026135877 -0.02886626 -0.0609491 0.06477522
0.0016159692 0.007860051 -0.02378705 0.05851972 -0.018715935 -0.03459486 0.043275446 -0.016589027
0.023276845 -0.0025300581 0.037303984 0.026539832 0.04261827 -0.02114374 0.004787048 -0.032798782
0.02296667 -0.03376492 -0.07148425 -0.05829013 -0.076320164 -0.03551986 -0.020021835 0.025719998
-0.045424163 -0.04953192 0.018901447 -0.013713651 0.015413251 0.015419824 -0.002375235 0.056836452
-0.07725157 -0.07366572 -0.025922518 0.032142602 -0.054482646 -0.007671898 -0.0467998 0.0076484107
0.025409816 -0.025377909 0.030486377 0.021261232 -0.047523644 -0.058317166 -0.040749438 0.013566336
-0.03439228 0.026287563 -0.038281135 -0.040743347 0.049444076 0.033967514 -0.015900405 0.06051839
-0.03249586 0.031859245 -0.049869042 -0.066296294 -0.061319772 -0.080825835 0.049146418 -0.080351695

layer3.bias f4 [200]
00000000: 3a7c 91bd 8699 c33c 5f76 0742 e12d 0bc2
00000010: bf5a 7dbc b20a ec3c e5e7 ca3c e2c8 3242
00000020: bd8c 7cbd 4b97 99ba 4884 0042 736b 03bd
00000030: f4f3 2542 72fc 0abd 2408 72c1 1d43 2c42
00000040: 241e f03d 1fc4 2bc2 2927 94bd 682c 17c1
00000050: 88bb 8fbd a11b f0c1 1dfe 8a41 4e48 453b
00000060: 33f7 35bd 4cbc 843d 0542 2c42 1a4c 02bc
00000070: 8f9c 8941 60db ec3b 0bb9 04c2 168e 1b42
00000080: fc6f 06c2 99f3 d3bd 2908 b53c 43c2 0a3d
00000090: 7522 85c1 9b82 96c1 ada2 26bd 3d46 813c
000000a0: 95c8 8640 a386 14bf 9e52 1cbd 1892 15c2
000000b0: af31 30c2 7583 2b3d 42d0 1a42 d2c4 19bc
000000c0: 8c57 9440 42b7 1242 371a adc0 8943 85c1
000000d0: 3598 3642 bd8e 33c1 4fcc 2ec2 7a26 1b42
000000e0: 0f07 a33c 93fb c63c dfc5 c6c0 33d0 2ec1
000000f0: 67eb 1a42 9663 3e3d 5c1a 45bd 7eb2 5cc1
00000100: 4739 0cbe aa3c 31c1 6241 66bd d94c 2c40
00000110: 4dd4 02bd 6c2c 1bc2 e9f4 2b42 34f7 b040
00000120: 9704 f23c eda7 a93c 1528 3741 cf0e 0b3f
00000130: 5614 c6c1 9b73 2d42 9b06 7b41 032b f9bf
00000140: 701f 3542 c3d6 5941 48e1 4ac1 b895 5abd
00000150: 07ae dc3e bc3d fec1 085f a2bd 846e cf41
00000160: 7ee9 2a41 74a9 16bd 2a81 b5c0 1332 3c3c
00000170: 4b52 fb3c b98e 0fbd af94 b9c0 36ff 2742
00000180: 5bda 2d42 6009 19c2 4f91 1242 aa28 a2c1
00000190: 2acd fa3c 6773 38c2 9de7 213d c103 a13c
000001a0: c8aa 5340 4c90 40c1 3668 0fbd 1e7b cb41
000001b0: a07e 6bbd a424 b9c1 aa53 63bc 2a9d b2bc
000001c0: 5d5d 1a42 d4bd 0fbc 1435 1342 6a7c 1842
000001d0: 9c0d c73b 95de 2ac2 d62e 83bd 40dd 0642
000001e0: 2284 e13c 2e98 f1bd f04b 3342 6d39 1d42
000001f0: 4056 8cbd 8a28 3342 ea6d 3cc2 cfb0 6b41
00000200: f07d 1242 a3e8 3942 0d8d a5c1 7961 d8c1
00000210: aec5 c6bf 4a62 98bc 62d2 1b42 a84a 3642
00000220: cda9 60bd 7bf9 1d42 e7f2 343d d318 87bb
00000230: cd7e 10c2 e034 49bf 9dad 88bd c66b 623c
00000240: ef92 2242 eb62 0ec2 a3a1 3142 d88a 0f3d
00000250: 6830 1042 b0bb b7c1 f134 71c1 871f a9c1
00000260: c122 33c2 e2e7 83bd 544d 1842 2f57 2f3d
00000270: 1769 1342 b19b 9dc1 5d29 e63c 321d a340
00000280: e11a 2a42 750b 3942 fb51 2d42 639a 2439
00000290: e50b b141 9dae 0bbd 62de 25c2 d51d 1942
000002a0: 14ab 1ac2 e64e f63c 3819 35c2 90ce 2a42
000002b0: 3f0b 89bd 9b3e 2ac2 d7c8 e5bc b4db 6141
000002c0: d3ab 3cc0 30c0 e73c cdf3 44bd f744 d63f
000002d0: 6ab1 a1bd 8b6d 1ac2 3a75 0942 5879 d9c1
000002e0: cd97 9641 205e c241 e7bc 2942 9e84 253d
000002f0: 19fa 69c1 6c25 9b41 1f4c 99c0 3866 0b42
00000300: 0a3e 233d 2a33 9ac1 85ea 16c2 3ba4 2f42
00000310: 07a9 2f41 0a68 2fc2 9532 f141 2ddd a43b
-0.071037725 0.023876917 33.865597 -34.794804 -0.01546353 0.028813694 0.024768779 44.696175
-0.061657656 -0.0011718062 32.12918 -0.032084893 41.488235 -0.033932157 -15.126987 43.06554
0.11724499 -42.941525 -0.07234032 -9.448341 -0.070181906 -30.01349 17.374079 0.0030102911
-0.0444252 0.06481227 43.064472 -0.007952714 17.201445 0.0072283 -33.180706 38.888756
-33.60936 -0.10349197 0.022098618 0.03387667 -16.641825 -18.813772 -0.040682483 0.015780563
4.211985 -0.5801794 -0.038164727 -37.39267 -44.04852 0.041873414 38.703377 -0.0093853045
4.635687 36.678963 -5.40945 -16.657976 45.64864 -11.222348 -43.69952 38.787575
0.019900827 0.024289882 -6.211654 -10.92583 38.729885 0.04648169 -0.04812084 -13.793577
-0.13693725 -11.077311 -0.056214698 2.6921904 -0.031940747 -38.79338 42.98917 5.530176
0.029543204 0.020709956 11.447286 0.5431947 -24.75993 43.362896 15.689113 -1.9466251
45.2807 13.614932 -12.68 -0.05336544 0.43101522 -31.780144 -0.07928282 25.928963
10.682005 -0.036782697 -5.672017 0.011486548 0.030678889 -0.03504822 -5.7994 41.99923
43.463238 -38.259155 36.641903 -20.269855 0.030615408 -46.112698 0.039527524 0.01965511
3.3072987 -12.035229 -0.035011493 25.435116 -0.057493806 -23.14289 -0.013874928 -0.021803457
38.591175 -0.008773286 36.801834 38.1215 0.0060746204 -42.717365 -0.064054176 33.716064
0.027528826 -0.11796604 44.824158 39.30608 -0.068523884 44.78959 -47.107338 14.730666
36.622986 46.477184 -20.693872 -27.047594 -1.5529077 -0.018601555 38.955452 45.572906
-0.054849435 39.493633 0.044176962 -0.0041228323 -36.12383 -0.78596306 -0.06673739 0.0138196405
40.64349 -35.5966 44.40785 0.03504452 36.04727 -22.966644 -15.075425 -21.140394
-44.78394 -0.064407125 38.075516 0.042807754 36.852627 -19.701021 0.028095895 5.097314
42.52625 46.26119 43.33006 0.00015697772 22.130808 -0.03410207 -41.46717 38.279133
-38.66707 0.030066919 -45.274628 42.70172 -0.06691598 -42.56114 -0.02804987 14.116138
-2.9479873 0.028289884 -0.04808407 1.6739796 -0.07895167 -38.606976 34.36448 -27.18425
18.824121 24.29596 42.434475 0.040409677 -14.623559 19.393272 -4.790542 34.849823
0.039854087 -19.274982 -37.729023 43.91038 10.978766 -43.8516 30.149698 0.005031249

layer4.weight f4 [200, 200]
00000000: c728 3ebd bb85 683d 00ba 5c3d 78f7 92bd
00000010: b715 bebc ae6c 84bc ad49 1f3c db3b ca3d
00000020: 4784 52bd 2897 6e3d 0e6b 343e 610c ccbc
00000030: b165 853d 4e48 943c 5f23 2a3c 83fa ca3c
00000040: 9368 4abe 9393 8d3c c657 17bd ee4e 91bd
00000050: e46a d1bc b3a5 243d 6363 42bd 4f02 ccba
00000060: aa2e 963d eebb 8d3c 3220 fe3c 6cd5 803d
00000070: 83ba 3a3d 3786 c1bc e77a 9b3c 48e7 e5bc
00000080: 3721 6bbe 1771 023d 8bfb 4abd 788b 3a3d
00000090: 4922 973d ec57 a23d 0c99 7cba 2096 463d
000000a0: 7b35 f83c c3d2 a4bd 3c90 0f3d 4ddd b5bb
000000b0: 689e 56bd 487b 54bd b0f3 183e 8a13 b73a
000000c0: 02f0 5ebb f5e7 00bd 5a83 6dbe 970a 39bd
000000d0: 2bd3 e13e a054 a0bd 14c9 08be 3cff 953d
000000e0: 2fe1 d2bb 942b 86bd ea31 7b3c 4015 883c
000000f0: ca13 47bd 6a43 9bbc ca11 93bc 3683 c1bd
00000100: d1ba 48be 631a cbbc e7d0 35bd ac16 3e3e
00000110: 4def 0f3c 1e7b c8bd d7cb 1c3d 60fc 28bc
00000120: 8cc1 07bd 3ef2 39bd de2c 10bd 3c5b c3bd
00000130: 25fe e13c 3974 903d bdcc 183e ab69 e73d
00000140: 9438 863d 5692 b83b 2765 e7bd 83fc 733d
00000150: ce77 0fbe 0757 de3c 527f 39bc 96c1 8e3d
00000160: 7678 00be 09b3 84bc daaf e439 fae9 793d
00000170: 8a59 e53c 976b 323d 9d65 953d a09a 67be
00000180: 39e7 663d e517 e5bc b0c4 853d f734 bfbe
00000190: 2402 45bd f43d 87bc 0658 843d 1f23 283d
000001a0: 8422 963e 58c0 3f3d 88a2 7e3d 60a9 cebb
000001b0: b2f0 243d f356 6fbb 096e 5e3d 444d 48bd
000001c0: efd6 4f3d 05db 1c3d a2db 983d bb92 c93d
000001d0: b00a 663c b22f d6bd b013 c33c 8b56 023e
000001e0: 4bfe 02bd e233 0abd c835 a4bc f861 fa3d
000001f0: 4648 0fbd 9c3a 11bd 8a16 f4bd ddbe b63c
00000200: 39ca cd3d 48af a53d 059e d63c 6019 553c
00000210: 4f4f 3abe 9caf 21bd ddfe 2a3e ad7d 883d
00000220: 043c 883d 0995 6bbc 861c 94bd 07b3 d3bd
00000230: 6365 00be 3c57 ef3d 41fb 77bc 1c58 28bd
00000240: 54b0 173e cd6a d1bd d4d3 d9bc 200d 3f3d
00000250: 5d05 563d 1dca 0cbe d7e4 923c f2ca 6e3b
00000260: 663e a7bd 88d4 f83c d2d3 123e c35a 633c
00000270: a684 223e b9d1 6cbe eebe 24bd 1c73 bc3d
00000280: a49b 1a3d e29b dc3c d008 c1bc d4ff 123c
00000290: a600 653d 5490 0fbd 2118 bf3d d957 6b3d
000002a0: 110f 223d d8a6 28bd 29a6 19bd 20e2 313e
000002b0: 4fdf 283d 96fa 92bd fc5d 1dbc ee9e 90bd
000002c0: d18a 6dbe 785c 813d b576 2cbd 3084 883c
000002d0: 4eea 7c39 c9e2 2abe 3098 643d 598c 00be
000002e0: d719 0d3e 0b15 623e b921 533d c51c 8c3c
000002f0: d6a4 e1bb 8a4f 333c 85f4 333c d026 ed3d
00000300: 79db 83bd 53a7 8fbe 8cb2 54bd 2a14 74bc
00000310: db64 533d 6564 c5bb 0d1f 9bbc d1f8 463c
00000320: 97aa 443d 76bf e8bc 8165 6abe 927a 9a3e
00000330: caa1 5f39 1840 b4ba 2e58 173d 8347 64bc
00000340: 43eb 393c 9cb1 48bd 30b8 dc3d d8f1 3abb
00000350: c376 6b3d 9678 aa3c 8b06 e63c 4733 883d
00000360: e76f 01bf 0a3b 11be 6c79 f7bc 7a17 b83b
00000370: 8d01 c8bc d0fd a539 2ccb 8b3d 93d4 813d
00000380: c0cb cfba 7632 1ebf 6251 3cbe db04 733b
00000390: 58c2 673e 8616 33bd 9c83 4a3c 4100 f93d
000003a0: d806 2c3f 605f b53c a571 69bd f64a 9bbc
000003b0: e5bf 4b3e 0c90 7d3d 0a18 c33c fcc0 9e3c
000003c0: 20fc 41bd bf59 18bf fcf5 f5bc 02b2 afbd
000003d0: 3815 04bd e595 333d 8d48 95bb 6df5 4bbd
000003e0: be8f 26bc 1af8 313d 3d86 873e 9424 953c
000003f0: 2278 96bd 4aee 473c 2a88 61bd 2e3c 1b3d
-0.046425607 0.05676816 0.05388832 -0.07176107 -0.023203714 -0.016165104 0.0097221555 0.09874698
-0.05139568 0.058249623 0.17618963 -0.024908246 0.06513537 0.018100884 0.01038441 0.024777656
-0.19766454 0.017282283 -0.03694894 -0.07095133 -0.025563665 0.040197086 -0.047458064 -0.0015564653
0.07333119 0.017301526 0.031021211 0.06290707 0.045588028 -0.023623569 0.018979503 -0.028064385
-0.22961889 0.031846132 -0.049556296 0.045543164 0.07379586 0.07926926 -0.0009635843 0.048483014
0.030298939 -0.08048012 0.035049662 -0.0055500627 -0.05239716 -0.051875383 0.1493671 0.0013967615
-0.0034017568 -0.03147121 -0.23194638 -0.045176115 0.4410642 -0.07828641 -0.13357955 0.07324073
-0.0064355354 -0.065512806 0.015331725 0.016611695 -0.048602857 -0.018953044 -0.017952818 -0.094488546
-0.19602515 -0.024792856 -0.044388678 0.18563336 0.008785081 -0.09789108 0.038280334 -0.010314077
-0.033143565 -0.045397036 -0.03519904 -0.09538886 0.027587006 0.07053418 0.14921851 0.112994514
0.0655376 0.005632679 -0.1129859 0.059566986 -0.14010546 0.027141107 -0.011321859 0.06970517
-0.12545952 -0.016198652 0.00043618568 0.061014153 0.027996797 0.043559637 0.07294772 -0.22617579
0.056372855 -0.027965495 0.06531656 -0.37345096 -0.048097745 -0.016509034 0.06462102 0.04104912
0.29323208 0.046814293 0.06216672 -0.006306812 0.040268607 -0.0036520332 0.054304156 -0.04890181
0.050742086 0.03829481 0.07463767 0.0984244 0.014040634 -0.10458316 0.023813099 0.12728326
-0.031980794 -0.033740886 -0.020045176 0.12225717 -0.034981035 -0.035456285 -0.119183615 0.022307808
0.100483365 0.08090073 0.026198396 0.013006538 -0.18194316 -0.039474115 0.16698785 0.06664596
0.06652072 -0.0143787945 -0.07232003 -0.10336881 -0.12538676 0.116865605 -0.015135587 -0.041099653
0.14813358 -0.10225449 -0.026590265 0.046643376 0.05225121 -0.13748975 0.017931385 0.0036436883
-0.081661984 0.03037478 0.14338616 0.01387662 0.15870914 -0.23126878 -0.040221147 0.09201643
0.037746087 0.0269298 -0.023563772 0.008972127 0.05590882 -0.03504975 0.09330774 0.057456825
0.03956515 -0.04117474 -0.03751198 0.17371416 0.04122859 -0.07176702 -0.009604927 -0.070615634
-0.23197486 0.06316465 -0.042105395 0.016664594 0.00024119878 -0.16688074 0.0558092 -0.12553538
0.13779388 0.2207834 0.051545832 0.017103562 -0.006886105 0.010944257 0.010983591 0.115796685
-0.064383455 -0.28057346 -0.051928088 -0.014897386 0.051609855 -0.006023931 -0.018935705 0.012144283
0.04801425 -0.028411608 -0.22890283 0.3017164 0.00021327208 -0.0013752012 0.03694933 -0.013933065
0.011347595 -0.048997506 0.107773185 -0.0028525498 0.057486307 0.020809453 0.028079292 0.066504054
-0.50561374 -0.14182678 -0.030209266 0.005618033 -0.024414802 0.00031660357 0.06825861 0.063393734
-0.0015853569 -0.6179575 -0.1839042 0.0037081752 0.2263273 -0.043722652 0.01236048 0.121582516
0.6719794 0.022140205 -0.056993145 -0.018956643 0.1989742 0.061904952 0.023815174 0.019379131
-0.047359586 -0.5951194 -0.030024521 -0.08578874 -0.0322468 0.043844122 -0.004555768 -0.049794603
-0.010166107 0.0434495 0.26469603 0.018205918 -0.07347132 0.012202809 -0.055061497 0.03789919

layer4.bias f4 [200]
00000000: 229b 2642 1ea1 cbc1 cd99 25bd 9392 2642
00000010: 76f7 803d c805 f7c0 6b48 abc1 ffc6 ed41
00000020: 979a 2742 14ca 0e42 1e16 3d42 31f0 bcbc
00000030: dc79 0ac2 2387 0d42 985a b541 491d 3542
00000040: 482d 2742 2a91 2e42 efbc 6b41 4710 8e3d
00000050: 7c9c 3342 c07d 7f3c e948 98c1 b0b4 6d41
00000060: 2327 2c42 7c31 3c41 ba7e 5dc1 c882 593d
00000070: b5f8 2f3c 8e1e 4941 dbaa c3c1 db1f 1dc2
00000080: 3baf 3642 6a07 0f42 e5c6 18c1 6c41 2d42
00000090: e08e 1942 7a58 4ebd d8e2 1e42 3a49 57bb
000000a0: 161e a641 5de9 de41 c99c 95bd 1cc7 edc1
000000b0: 2312 3942 7bb9 05c2 b241 ac3d f86b 71c0
000000c0: 62ef 2042 73a6 cdc1 2a7c 3cbd 0252 2e42
000000d0: 0d27 1ec2 f43f 2042 813a 2cc2 7dd8 3f3d
000000e0: 0694 6cbc 3f2c 12c2 8754 2b42 b1df 38c2
000000f0: 425a 9bbc 5b0a 56c1 31fe 2742 b700 8bbc
00000100: 7928 44bb 7e43 c641 93a4 6ebd e81c 93bd
00000110: 1af3 803c 9f54 2642 cfdd 2042 9e73 9ac1
00000120: 7c00 3742 7d32 3d42 d572 3d41 aa2d e8bc
00000130: 3402 29c2 08d9 663d fc9d 4dbd 65fd 2fc0
00000140: 2a2c 0540 735e d4bc 9a47 9541 a1f4 1742
00000150: ab93 fa41 db73 d2c1 9482 c4bc d7a6 99c1
00000160: 5db6 2c42 87e5 1f41 c4c2 5b3f ec47 2e42
00000170: 657d 4942 49e4 a7c1 9ec5 9d41 67ec cabc
00000180: bf73 0941 3b73 2942 e518 e241 2b19 493f
00000190: 86b1 2242 07fa 31c2 4552 9dbd ef56 85c1
000001a0: 2c08 0f41 2371 1f42 7454 7ebd 509c 2842
000001b0: 98ce 3942 596b d4c1 a25f 9041 8dff 34c2
000001c0: 4441 9a41 b56d 283c cca7 eabb 1f4f 2642
000001d0: 8c88 5f41 7c42 95c0 6405 e2bf 9b89 fac1
000001e0: 8657 b6bc 133c c7bc d578 f3c1 8ee2 4cc1
000001f0: 34e9 803c 4e81 a8bc d7cb 2742 3350 ed41
00000200: 1cfc b2c1 affe 44c0 4eb7 39bd 3182 2242
00000210: 8097 3142 410e 36c2 7ef9 35c2 d8f0 e741
00000220: 80e4 87c1 4291 4ac1 4e52 a1bd 0076 1b42
00000230: 19f9 2d41 0f64 2042 4cb3 c540 dbec 2142
00000240: 31df 18c2 282d 2c42 b69b 7bbd 5003 2242
00000250: 4900 2a42 bbe4 7dc1 a9cc 31c2 21bd 22c2
00000260: 3dd5 12c2 1236 283d bf91 8d3b 5823 2042
00000270: 48cd 663d 5035 a441 2310 97bb 2cf2 f941
00000280: 7502 2b42 eb21 a7c0 b0bf 42bd cf08 13bd
00000290: 6f2c 5abd 4baf 8141 d7a8 2042 0d4a 21c2
000002a0: ecb9 3342 6002 753c e034 34c2 6d83 1ec2
000002b0: 5db1 1f42 6145 3742 05e9 32c2 abd5 2cc2
000002c0: 33f9 15c2 d1ea 4ebd fb57 c641 25ce 0cc1
000002d0: fcb6 013d 7617 2642 0c56 d3c1 29a6 9fbd
000002e0: f54a e8bc de4f 3cc1 fc6a 80bd 1685 b43c
000002f0: fde1 9741 f401 2e3d 291d 2942 63ed aebd
00000300: e209 c541 6d86 2642 31ba 393d e093 4142
00000310: 309e 35bd 5041 e9bc 3646 bbc1 a9a7 85bd
41.651497 -25.45367 -0.04042988 41.64314 0.062971994 -7.7194557 -21.41036 29.722166
41.900967 35.697342 47.2716 -0.023063751 -34.619003 35.38197 22.669235 45.2786
41.79422 43.64176 14.733626 0.069366984 44.902817 0.015593946 -19.0356 14.856613
43.03822 11.762081 -13.843439 0.05310324 0.010740449 12.56996 -24.458426 -39.28111
45.671124 35.75724 -9.548558 43.31389 38.389526 -0.050377347 39.721527 -0.0032850043
20.76469 27.863947 -0.07305295 -29.722221 46.26771 -33.431133 0.08410968 -3.772215
40.233772 -25.706274 -0.04601685 43.580086 -39.538136 40.062454 -43.057133 0.04683732
-0.014439588 -36.54321 42.832546 -46.21845 -0.018963937 -13.377528 41.998234 -0.016968114
-0.002993135 24.782955 -0.05826242 -0.07183248 0.01574092 41.582638 40.21661 -19.306454
45.750473 47.299305 11.840535 -0.028342087 -42.25215 0.05635932 -0.050199494 -2.749841
2.0808206 -0.025923943 18.659962 37.988895 31.322104 -26.30657 -0.023988046 -19.206465
43.17809 9.993537 0.85844064 43.570236 50.372456 -20.986467 19.721493 -0.024770929
8.590758 42.36253 28.262156 0.7855403 40.673363 -44.494167 -0.07681707 -16.667448
8.939495 39.860485 -0.06209226 42.15265 46.45175 -26.552416 18.046696 -45.24956
19.281868 0.010280062 -0.007161116 41.577267 13.970837 -4.664366 -1.7657895 -31.31719
-0.022258531 -0.024320638 -30.434 -12.805311 0.0157362 -0.02056947 41.949062 29.66416
-22.3731 -3.0780447 -0.04534083 40.62714 44.39795 -45.51392 -45.493645 28.9926
-16.986572 -12.660463 -0.078770265 38.865234 10.873315 40.097713 6.178137 40.481304
-38.21796 43.044098 -0.061427794 40.503235 42.50028 -15.868342 -44.449863 -40.684696
-36.70824 0.04106719 0.004320353 40.034515 0.056348115 20.526031 -0.004610078 31.243248
42.7524 -5.2228904 -0.04754609 -0.035897072 -0.05326503 16.210592 40.164883 -40.322315
44.931564 0.0149541795 -45.051636 -39.628345 39.923206 45.817753 -44.72756 -43.20866
-37.49336 -0.050516907 24.79296 -8.800328 0.031668648 41.52291 -26.417015 -0.077953644
-0.028356055 -11.769499 -0.06270406 0.022036117 18.985346 0.04248233 42.278477 -0.08541372
24.629826 41.631275 0.04534358 48.39441 -0.044340312 -0.028473526 -23.409283 -0.06526119

layer5.weight f4 [200, 200]
00000000: 4cbe eb3c ac2f b0bc 1c8d 47bd 0fcf 8bbd
00000010: 87c0 8d3c f890 aabc 8d7b 453c c7d8 ccbc
00000020: abb3 103c 3be6 bfbc ca7c 32bd f92f 4abc
00000030: 368f f53c e185 133d f931 633c 2fac 063d
00000040: 6a1d e83c 2dda 023d a017 773d 2e9c 47bd
00000050: f747 5c3d 0e0a b0bc 7112 193d 862f b43c
00000060: d9ad 94bd 2b5d 563d fca8 183b bc68 833d
00000070: 466c 503d b116 54bd e048 0c3d b0f9 f9bc
00000080: b63a 6a3d 6184 0fbc 73b2 683d 879c 483d
00000090: 1c3b 03bc 94c4 023d 0f6c efbc 653d 96bc
000000a0: 95dd 163d de14 533d ca28 5dbd 9df8 7ebd
000000b0: 0429 033d f1b2 29bc bb88 23bd b3f8 dcbc
000000c0: d715 74bd d66a 46bd 1c4a 84bd f13b e3bc
000000d0: 189a 85bc 589d 2c3d 6e15 59bd 2603 83bd
000000e0: 8e58 ba3c 61c0 63bd 6f34 dabc c727 80bd
000000f0: c763 68bd f4c5 29bd c879 84bd e7d2 8c3d
00000100: 5ede 773d bac4 82bd df08 313d aa2d 803c
00000110: 7e48 a5bc c718 11bc 58af 5dbd 3d31 4ebc
00000120: 9adb 40bc 4ee7 1e3d 5816 023d fefb 1a3d
00000130: d1d2 e2bc b0f8 1abd 9e59 bdbc fcbc 563d
00000140: 4194 97bc 84c5 143d cf75 e7bc 3f61 2bbd
00000150: 1b8c c5bc 747b 013d c0bc 86bd 834e d13c
00000160: 3e0a 4c3d feaf 95bd d425 1f3d c81d 62bd
00000170: 1797 3dbd 5c2b 263d d54b 1ebd 4bbf 763d
00000180: 2b59 0a3d 9da3 193c 07c3 6cbd 2c86 f4bb
00000190: d0e0 13bc d919 823d fe14 753c d08d 183d
000001a0: 7cec 193d 241b 46bd 7707 863d 385b c6bb
000001b0: 8ea2 693c f1f0 68bd ef14 68bd 6c8a 62bd
000001c0: c035 7fbd 2df5 553d 7823 94bc 127b 613d
000001d0: c9bb 92bc 27e5 6f3d 9f3d 0b3d fe4b a23c
000001e0: 5663 8dbd 6806 6f3d c901 d7bc 4776 803d
000001f0: 8eea 5bbd ba86 263d f69a 493d 2e9c 87bd
00000200: acb2 d6bc 86f0 c4bb d222 bdbc bc99 afbc
00000210: 0e7a 5fbd 7658 dabb 41b6 e53c 2875 7cbb
00000220: d6a0 19bd e453 d03c 927b 77bd cdf4 1cbd
00000230: 80a7 7bbd b5ce 443d e6d8 d03b 9bb1 9fbb
00000240: 918d 9abd 99f8 71bd 69d5 08bd 4dc0 a8bc
00000250: 6c8c b7bb d7ce 3e3d d493 08bd 857a 86bd
00000260: b980 453c 1053 433d 1a80 17bb 0d57 02bc
00000270: d351 48bd 5469 97bd e80d 53bd 4b55 153b
00000280: 1cee 243d 18f8 4fbc 5775 08bd 74b0 883b
00000290: 4523 3fbd 9651 4c3d 311d 0d3d b394 94bc
000002a0: e1f0 79bd 9f75 603d b60c d73b 34d6 35bd
000002b0: cdd7 55bc 4204 b63c 2911 073c 2ef9 f93c
000002c0: e2ec 0b3d 9968 c2bc 4fae 8fbd 871d 0fbd
000002d0: 1c7f 5a3d e2d4 9ebd 4067 9a3b 826c 85bd
000002e0: f3de a5bc afb0 093d 548a 17bd 7622 383c
000002f0: b80f 48bd 16d2 08bd 56b0 653d d107 12bd
00000300: 3ca4 d0bc 4dab 13bd 844b 8abd 8008 973b
00000310: 6793 843d 3a7e 03bd 5b58 b1bc 7358 22bc
00000320: 173e bdbd af4b 4abd 887e 553d 5525 96bd
00000330: a97c 043c 81c7 6cbd ea4e 55bd 24ba 66bd
00000340: 2390 3bbd e569 873b 3201 f1bb 90d0 4e3d
00000350: ab96 353b 9cf6 56bc 888f 85bd 13cc b7b8
00000360: a3c7 333d 8c5c d23c 4758 2dbc a256 003d
00000370: d1d5 7ebb 22d8 3a3d e35a abbd c7d6 33bc
00000380: abbf 3eba 95e8 e7bc 1507 6c3d 3958 13bd
00000390: 21df e1bc 6777 903c 0e90 b93c b5ae 033b
000003a0: 8154 80bc e162 2bbd a736 96bb f429 2bbd
000003b0: 5a3a 0abd abd6 d0bc f2a0 9bbd 9e6d 68bd
000003c0: c7c2 59bc 5a28 8fbd 361e d8bc 9ad3 99bd
000003d0: 9b3f 3d3d e694 f6bc 560e 8e3d 2cef 1a3c
000003e0: 465a 48bd 78c1 a83c 1846 cdbc fc8a 54bd
000003f0: 058b c43b 9743 5b3c 376d 1dbd 8d90 793c
0.028777264 -0.021507107 -0.048718557 -0.06826603 0.017303718 -0.02082108 0.012053383 -0.025005711
0.008831899 -0.023425212 -0.04357604 -0.012340539 0.029975515 0.03601635 0.013866895 0.03287905
0.028334338 0.03194635 0.060325265 -0.04873293 0.05377957 -0.02148917 0.037371103 0.021995317
-0.07259721 0.052334946 0.0023294082 0.06416461 0.050884508 -0.051779453 0.034249187 -0.030514568
0.057184897 -0.008759589 0.056810807 0.0489774 -0.008009698 0.031925753 -0.029226331 -0.018339822
0.03683241 0.051533572 -0.053993978 -0.062248815 0.032021537 -0.010357604 -0.03992532 -0.026974058
-0.05959114 -0.04844173 -0.06459448 -0.027738543 -0.01630883 0.042142242 -0.052998953 -0.06397085
0.022747304 -0.05560339 -0.02663633 -0.06257587 -0.05673578 -0.04144855 -0.064685404 0.06876164
0.0605148 -0.06385179 0.04322135 0.015646774 -0.020176169 -0.008856005 -0.0541223 -0.0125849815
-0.011771107 0.038794808 0.03175959 0.037837975 -0.027688416 -0.037834823 -0.023114022 0.052426323
-0.01850331 0.036321178 -0.028254418 -0.041840788 -0.024114659 0.031611875 -0.0657897 0.025550133
0.049814455 -0.073089585 0.038854435 -0.055204183 -0.04628667 0.040568694 -0.038646538 0.060241025
0.033776443 0.009377387 -0.05780318 -0.0074622836 -0.009025767 0.06352586 0.014958618 0.037244618
0.037579045 -0.048365727 0.065443926 -0.0060533546 0.014259947 -0.056870405 -0.05666059 -0.05530779
-0.06230712 0.05223577 -0.018083319 0.05504901 -0.017911809 0.058568146 0.033994313 0.019811627
-0.069037125 0.05835572 -0.026245968 0.062725596 -0.053690486 0.04065583 0.049220048 -0.06621586
-0.026208244 -0.006010118 -0.023087893 -0.021435611 -0.05455976 -0.0066633774 0.028041007 -0.003852198
-0.0375069 0.025430627 -0.06042058 -0.038319398 -0.061439037 0.048048694 0.0063735126 -0.004873467
-0.07546533 -0.05907497 -0.03340665 -0.020599509 -0.0056014564 0.046583977 -0.033344105 -0.065663375
0.012054616 0.047686636 -0.0023117126 -0.007955325 -0.04890616 -0.073931366 -0.051526934 0.0022786434
0.04026614 -0.0126934275 -0.03331503 0.0041714255 -0.046664495 0.049882494 0.034451667 -0.018137312
-0.061020736 0.054799672 0.0065627946 -0.044393733 -0.013051939 0.022218827 0.008243837 0.030514326
0.034161456 -0.023731517 -0.070156686 -0.03494027 0.053343877 -0.07755448 0.0047120154 -0.06514837
-0.020247912 0.033615764 -0.036997154 0.011238685 -0.048843116 -0.03340348 0.05607637 -0.035651986
-0.025468938 -0.036052037 -0.06752685 0.0046091676 0.06473427 -0.0321028 -0.021648576 -0.009908783
-0.09240358 -0.049388584 0.052122623 -0.07331339 0.008086362 -0.05780745 -0.05207721 -0.05632986
-0.045791756 0.0041324967 -0.007354879 0.05049187 0.0027708213 -0.01312032 -0.06521517 -8.764132e-05
0.04389156 0.025678895 -0.010580129 0.03133262 -0.0038884769 0.045616277 -0.08366945 -0.0109765
-0.00072764856 -0.028309146 0.05762394 -0.035972808 -0.027572216 0.01763506 0.022651698 0.0020093147
-0.015665295 -0.041842345 -0.004584152 -0.041788056 -0.033747055 -0.025492987 -0.07599057 -0.056745164
-0.013291067 -0.06990118 -0.026381593 -0.07511063 0.046203237 -0.030100297 0.06936328 0.009456437
-0.048914216 0.020600066 -0.025057837 -0.05189036 0.0059980177 0.013382814 -0.038434234 0.0152322175
