src/model.pth (torch, 978174 bytes, 16 tensors)

layer1.weight f4 [200, 6]
0	0x3a34fa18	0.0006903722
1	0xc0a4fc3a	-5.1557894
2	0x404ec9d3	3.2310684
3	0x3eb3c74c	0.3511299
4	0xc03bdec8	-2.9354725
5	0x4000889b	2.0083377
6	0xbaee5dc1	-0.00181859
7	0xbd99d3dd	-0.07511113
8	0xbc86b03d	-0.016441459
9	0xc00ac9bb	-2.1685627
10	0x3c74865f	0.014924615
11	0x405e13f8	3.4699688
12	0xbaca3168	-0.0015426101
13	0x3dce2e14	0.100673825
14	0xc0fcbe84	-7.8982563
15	0xbfd3c0ac	-1.6543174
16	0xbcb31864	-0.021862216
17	0x40208a25	2.5084317
18	0xba39ab30	-0.0007082699
19	0xbf4e73fa	-0.80645716
20	0x3e013896	0.12619242
21	0xbfc6662c	-1.549993
22	0x3e6e7ee9	0.232906
23	0x40199172	2.3995023
24	0xbab85055	-0.0014062027
25	0xbbc3ee39	-0.005979326
26	0x3ed9e513	0.42557582
27	0x412a3f49	10.6404505
28	0xbac72aa7	-0.0015195207
29	0x40341235	2.8136113
30	0x3b3556a9	0.0027670062
31	0x3d35dc74	0.044399694
32	0xc0874637	-4.227321
33	0x408d38b2	4.413171
34	0xbe83222e	-0.25612015
35	0x4047e2eb	3.123225
36	0x3d627728	0.055289418
37	0xbdaa262e	-0.083080634
38	0xbfc43bd7	-1.5330762
39	0x40d326bd	6.598479
40	0x3b573d35	0.0032842879
41	0xbe9e088c	-0.30865896
42	0xbdbe3831	-0.092880614
43	0xbe8f403b	-0.2797869
44	0x3d512b61	0.05106676
45	0x3ead7eac	0.33885705
46	0xbe8baac2	-0.27278715
47	0xbec09b2a	-0.3761838
48	0xbb9f6515	-0.004864345
49	0xbfd78f7c	-1.6840663
50	0x40688dde	3.633659
51	0x3fa924b2	1.3214324
52	0x3e18a924	0.14908272
53	0x40331240	2.797989
54	0x3d5c04d9	0.05371556
55	0xbe042de4	-0.12908131
56	0xbfee520f	-1.8618792
57	0x40d4626f	6.637016
58	0x3c98e5a4	0.018664189
59	0xbd87c8e2	-0.06630112
60	0x3bffdcab	0.007808288
61	0xbc79602c	-0.015220683
62	0xc1651f51	-14.320146
63	0xc15fe001	-13.992188
64	0xbbdd9abe	-0.0067628315
65	0x3d0ebe97	0.03484973
66	0x3bd97656	0.006636421
67	0xc086636f	-4.199638
68	0x3fa1da22	1.2644694
69	0xc08036d4	-4.006693
70	0xc04b769c	-3.1791143
71	0x3e985f78	0.29760337
72	0xbd730700	-0.059332848
73	0xbec7ec2c	-0.39047372
74	0x3e57867e	0.21047398
75	0xbc21bf9b	-0.009872342
76	0xbe17bd97	-0.14818417
77	0xbea2a241	-0.31764415
78	0xb9a2f720	-0.0003108317
79	0xbf1944b2	-0.59870446
80	0xbfcd5308	-1.6040964
81	0x4078427c	3.879058
82	0x3df03fa8	0.117308915
83	0x4051352d	3.2688706
84	0xbe204c10	-0.15654016
85	0xbeac448b	-0.33646044
86	0x3cf9212a	0.030411322
87	0x3e6adab4	0.22934991
88	0x3d5f6606	0.054540657
89	0xbdda2ec6	-0.106534526
90	0x3a9922b6	0.0011683318
91	0xbdfb1524	-0.12259892
92	0xc12cff21	-10.812287
93	0xc0cd6161	-6.418137
94	0x3cbb2f39	0.022849666
95	0x3fb5a2f6	1.4190357
96	0xbddb9f27	-0.10723715
97	0xbe90e571	-0.2830005
98	0x3ec83cba	0.3910883
99	0x3e3b6f31	0.18304135
100	0x3d84cbaa	0.06484158
101	0xbc14f373	-0.009091246
102	0xbceeea89	-0.02916457
103	0xbe87a637	-0.26494
104	0xbbae490d	-0.005318767
105	0x3da100e0	0.07861495
106	0xbe31a2ef	-0.1734731
107	0xbe77c4af	-0.24196123
108	0xbb557ab5	-0.003257436
109	0xbc09c64c	-0.008409094
110	0x3f1c82c8	0.61137056
111	0xbe176d00	-0.14787674
112	0x3ae427c9	0.0017406876
113	0x408a2c61	4.3179173
114	0xbe43c584	-0.19118315
115	0x3f0b622c	0.54446673
116	0xc083d4ba	-4.1197176
117	0xc13e767c	-11.903927
118	0xbe96e726	-0.29473227
119	0x401b1335	2.4230473
120	0xbab4306c	-0.0013747341
121	0x3e917008	0.28405786
122	0xbed746d0	-0.42046213
123	0xc04e2328	-3.2208958
124	0xbd676802	-0.056495674
125	0x4083c117	4.1173205
126	0xb904ea65	-0.0001267582
127	0xbf8f11ca	-1.1177304
128	0xc0717449	-3.7727225
129	0xc04b7f59	-3.1796477
130	0x3e966bab	0.2937902
131	0xbdcc2343	-0.09967663
132	0xbef6e0de	-0.48218435
133	0x3dd09e19	0.10186405
134	0x3ed94c29	0.42440918
135	0xbd250d29	-0.040295754
136	0x3d9577d4	0.07298246
137	0xbfa33cd9	-1.2752944
138	0x3e5ad226	0.21369228
139	0xbfdf3ce8	-1.7440462
140	0x3f2d2ddd	0.67648107
141	0x40c47120	6.138809
142	0xbe106be6	-0.1410366
143	0x406fcd8e	3.746921
144	0xbbae8b58	-0.0053266697
145	0xbf1f043c	-0.62115836
146	0x406df8f6	3.7183204
147	0xc064df72	-3.576138
148	0xbf50b4e9	-0.81526047
149	0x406b6390	3.6779518
150	0xbb05e4c4	-0.0020430544
151	0xbf5f5239	-0.87234837
152	0xbf2db892	-0.67859757
153	0x410fbea2	8.984041
154	0x3e31759f	0.17330025
155	0x40279c08	2.6188984
156	0xbe92df8b	-0.28686175
157	0x3e15a204	0.14612585
158	0xbf975fa0	-1.1826057
159	0xbe844681	-0.2583504
160	0x3da6bc3d	0.08141372
161	0xc017fdd3	-2.3748672
162	0xbe325298	-0.1741432
163	0x3eae76ad	0.34074917
164	0x3dcfe5d3	0.10151257
165	0x3e44d39a	0.19221345
166	0xbeb30bed	-0.34970036
167	0x3e3c785b	0.18405287
168	0xbe58d91b	-0.21176569
169	0x3e304221	0.17212726
170	0x3e50dca3	0.20396666
171	0xbecd9d80	-0.40159225
172	0xbe9ce3b6	-0.3064248
173	0x3dc82d24	0.09774235
174	0x3ec6c0c7	0.38818952
175	0xbf57dc0c	-0.8432014
176	0x3f2a4372	0.66509163
177	0x40cd357a	6.412778
178	0xbde6046b	-0.112313114
179	0x40809303	4.017946
180	0x39ee1c5f	0.00045416036
181	0x3fc4d5b4	1.5377717
182	0xbf963ef0	-1.1737957
183	0x40e03425	7.0063653
184	0xbeeabaf8	-0.4584577
185	0x3f4bfb4d	0.7968033
186	0x3a4be7b1	0.000777836
187	0xbf49cf09	-0.78831536
188	0xbe3e4daf	-0.18584321
189	0x411af903	9.685794
190	0x3e22763c	0.15865415
191	0xc02c034e	-2.6877017
192	0x3ea90585	0.33012024
193	0xbf15cdd1	-0.58517176
194	0x3fb1a140	1.3877335
195	0x40c58767	6.1727786
196	0x3e210532	0.15724638
197	0x406ab173	3.6670806
198	0x3acec75f	0.001577597
199	0x39075aa4	0.0001290837
200	0xc11e918b	-9.910533
201	0xc0c1fc5b	-6.062055
202	0xbbda2f72	-0.006658488
203	0x3f85fc22	1.046757
204	0x3a0069da	0.00048985856
205	0x3fbd45de	1.4786947
206	0xbf8140ce	-1.0097902
207	0x40b881cd	5.765845
208	0xbeda7b33	-0.4267212
209	0x3f1dd1a0	0.6164799
210	0xbddb14df	-0.1069734
211	0x3e5c1d77	0.21495615
212	0xc01dba17	-2.464483
213	0xbf85331f	-1.0406226
214	0x3e2d3cb9	0.16917695
215	0xbf62f4a5	-0.8865455
216	0xbe4c3612	-0.19942501
217	0xbec9e531	-0.39432672
218	0xbe82459a	-0.25443727
219	0xbc8ecd9d	-0.017432028
220	0xbcf68cec	-0.030096494
221	0x3df03e8e	0.11730681
222	0xbac40a7a	-0.0014956736
223	0xbf32c16a	-0.69826376
224	0x3f67b083	0.9050371
225	0x415a5ff3	13.648425
226	0x3e07ef14	0.13274795
227	0x3f8710b2	1.055197
228	0xbab93cfd	-0.0014132556
229	0xbfc4a719	-1.5363494
230	0xbcfebe86	-0.031096708
231	0x412350ab	10.207194
232	0x3e935a3c	0.2877978
233	0x3f131a0a	0.5746161
234	0xbec5d35d	-0.3863782
235	0x3da367e1	0.07978798
236	0x3d134a12	0.03595931
237	0xbecbf999	-0.39838865
238	0xbeb1c3b0	-0.3471961
239	0x3e028788	0.12747014
240	0xbe8c03dd	-0.27346697
241	0xbec0c871	-0.37652925
242	0xbbe56ca4	-0.0070014764
243	0xbe42d009	-0.19024672
244	0xbe892a60	-0.26790142
245	0x3e211d3d	0.1573381
246	0xbe360b89	-0.17777838
247	0xbe532ae7	-0.20621835
248	0x3e855a80	0.2604561
249	0xbe2be3c2	-0.16786101
250	0xbe4a34f7	-0.19746767
251	0x3ecb705d	0.39734164
252	0xb965cae0	-0.00021914719
253	0xbe4696ea	-0.19393507
254	0xbfceb65d	-1.6149403
255	0x40d0c316	6.523814

layer1.bias f4 [200]
0	0x4176ef39	15.433404
1	0x42367398	45.612885
2	0xc1d2255a	-26.268238
3	0x423ee43f	47.722897
4	0x415cb60f	13.794448
5	0xc1b6b023	-22.836004
6	0x41db771e	27.433163
7	0xbdd2d0aa	-0.10293706
8	0x4228c711	42.1944
9	0x41d7bb4d	26.966455
10	0xc1890a7d	-17.130121
11	0x41879252	16.946445
12	0xbec31e9c	-0.3810929
13	0x4223e182	40.970222
14	0xbe975954	-0.2956034
15	0xc1c35aa7	-24.419264
16	0xbd03846f	-0.03210872
17	0x3e78f3bb	0.24311726
18	0x42332499	44.78574
19	0xc010ec6f	-2.2644308
20	0x404c80c3	3.195359
21	0xc1676a74	-14.46349
22	0xbe507d54	-0.20360309
23	0x42031dfb	32.779278
24	0x4213c3e1	36.941288
25	0xbf1141a1	-0.56740767
26	0xbf3ab833	-0.72937316
27	0x3dfdba59	0.123890586
28	0x3ebc0786	0.3672449
29	0x42076597	33.84921
30	0xc1ffa79c	-31.95684
31	0xc2169e3d	-37.65453
32	0x422dfba2	43.495735
33	0xc1bc457c	-23.533928
34	0xc1f6aaf3	-30.833471
35	0xbf1efc2c	-0.62103534
36	0x3e20fc5f	0.15721272
37	0xc0123b9d	-2.2848885
38	0x4141680e	12.087904
39	0x3e8d321f	0.27577302
40	0xbd357645	-0.044302244
41	0x3eaa0a1b	0.33210835
42	0x41e3def8	28.483871
43	0xbf6c358f	-0.92269224
44	0xc1662c2a	-14.385782
45	0xc10fb674	-8.982044
46	0x3ed0cb91	0.4078031
47	0xbdabc33a	-0.08386846
48	0xc0036340	-2.0529327
49	0x3e72e0a7	0.2371851
50	0xc137ad1f	-11.479766
51	0x41fb723e	31.430782
52	0x41e1dac0	28.231812
53	0xbec6f335	-0.38857427
54	0x41d97ec3	27.186895
55	0x4220bdaa	40.18522
56	0x41709d99	15.038476
57	0x3eb46d3b	0.35239586
58	0x3f2ba5a5	0.6704963
59	0xbd8da0b6	-0.06915419
60	0x408339f5	4.100825
61	0xbea5af61	-0.32360366
62	0xc00500b2	-2.0781674
63	0x41993d0a	19.154804
64	0xbffb2fe7	-1.9623994
65	0x423cfae0	47.244995
66	0xbf661aaf	-0.89884466
67	0x420de0d1	35.469547
68	0x40862a1f	4.1926417
69	0xc1bd0f52	-23.63248
70	0x42086e5d	34.107777
71	0x3e670bff	0.2256317
72	0x42463646	49.553
73	0xbfcb94b2	-1.5904753
74	0xbeb164ef	-0.3464732
75	0x4242b868	48.680084
76	0x40f5cbb5	7.6811166
77	0x3cb2be83	0.021819359
78	0xbe9ffa0e	-0.31245464
79	0xbe9f87e9	-0.3115838
80	0x423536c3	45.30348
81	0xc1170e74	-9.441029
82	0xbea202b4	-0.31642687
83	0xbedf24ee	-0.43582863
84	0xc1e5a184	-28.703865
85	0xc16a2f37	-14.636527
86	0xc1dd7470	-27.681854
87	0x3e669631	0.22518231
88	0x401bf66b	2.4369152
89	0x3f12d158	0.57350683
90	0x41f71263	30.883978
91	0xbd9ce0de	-0.076600775
92	0xc19d0834	-19.629005
93	0x41d2878a	26.316181
94	0xbd8ffe38	-0.0703091
95	0x3ec13c3f	0.37741277
96	0x40c89057	6.2676196
97	0x42437975	48.86861
98	0xbf21844f	-0.6309251
99	0xc20bb556	-34.927086
100	0xbead3e7e	-0.3383674
101	0xbdd01f3c	-0.101622075
102	0x3ef93c9a	0.48679048
103	0x3eb1f18c	0.34754598
104	0x41d7b5b8	26.96373
105	0xc1cdb006	-25.710949
106	0xbf467362	-0.7751981
107	0x42163342	37.550056
108	0x4042e549	3.0452445
109	0x4196c702	18.847172
110	0xbe14f42e	-0.14546272
111	0xbc874717	-0.01651339
112	0xbfd5551a	-1.6666596
113	0xc1c2c0ce	-24.344143
114	0xc1ad94a0	-21.69757
115	0xc00a1af9	-2.1578963
116	0xbf164639	-0.587009
117	0x421e668a	39.600136
118	0xc118ce97	-9.550437
119	0x4196dc03	18.857428
120	0x420f3fff	35.812496
121	0xc143dbc6	-12.241156
122	0xbee69c0b	-0.45040926
123	0x3e91f5bc	0.28507793
124	0x3dff8b51	0.12477744
125	0x3e28720e	0.16449758
126	0x4204b844	33.179947
127	0x41fa2143	31.266241
128	0xbf2c19de	-0.6722697
129	0x3d6d776e	0.057975225
130	0xbdec5edf	-0.11541533
131	0x3f7fcd9c	0.9992311
132	0x3d1749da	0.036935665
133	0x408554ad	4.1665864
134	0x41b11663	22.135931
135	0xbf32e136	-0.69874895
136	0xbf438ede	-0.76389873
137	0x3d5de58b	0.054173987
138	0x3eb17eca	0.34667045
139	0x4215401b	37.312603
140	0x421ee10c	39.719772
141	0x419c17ca	19.511616
142	0x41d3b1b3	26.461767
143	0x3d9513ba	0.07279153
144	0x4196dd04	18.857918
145	0xc0aa7c90	-5.3277054
146	0x4161bb34	14.108204
147	0x4230ade6	44.169823
148	0x41d9142b	27.134848
149	0xbd42ac93	-0.04752786
150	0xbf7e12b9	-0.9924732
151	0xbec93eae	-0.39305633
152	0xc1b7e46e	-22.986538
153	0xc183741f	-16.4317
154	0xbe043322	-0.1291013
155	0x420efdcc	35.74785
156	0xc12066b3	-10.025073
157	0xbfa9a8c6	-1.325463
158	0x421f7368	39.8627
159	0x3eaaa9b1	0.3333259
160	0xc1bdceb4	-23.72593
161	0xbe02bf07	-0.12768184
162	0x4225e72b	41.47575
163	0xc16f97a9	-14.974526
164	0x411fc283	9.984988
165	0xbfb61ac4	-1.4226918
166	0xc14a09fa	-12.627436
167	0xbea0806e	-0.31347984
168	0xbfe135a1	-1.7594491
169	0xbf3623dd	-0.71148473
170	0x3f17459c	0.5909059
171	0x41339f51	11.226396
172	0x41d2d1ed	26.352503
173	0x3ee4091c	0.445382
174	0xc1bc7ab1	-23.559908
175	0xbe2843a8	-0.16432059
176	0x41ac5b9a	21.544727
177	0x3dc52121	0.096254595
178	0x3e7a721f	0.24457596
179	0x42211989	40.274937
180	0xbedcf35d	-0.4315442
181	0x3e6ecedf	0.23321103
182	0x3d9d367f	0.0767641
183	0xbf47272b	-0.7779414
184	0x4182b27a	16.337147
185	0x4186e149	16.860003
186	0x421ed6c3	39.70973
187	0x3e607626	0.2192007
188	0xc14d8333	-12.844531
189	0xc1c5a317	-24.704634
190	0xc1b60d8c	-22.756615
191	0xc1dc47c0	-27.535034
192	0x4180a7bc	16.081902
193	0x415eef79	13.933465
194	0xbffb259e	-1.9620855
195	0xbe844734	-0.25835574
196	0xc17f276c	-15.9471245
197	0x3ecf982b	0.40545782
198	0x422348a4	40.82094
199	0x421126fe	36.28808

layer2.weight f4 [200, 200]
0	0xbc07133a	-0.00824433
1	0x3f1a99bb	0.60390824
2	0xbe7694ea	-0.24080244
3	0xba23af47	-0.0006244075
4	0x3ef17371	0.47158387
5	0x3e02e26a	0.12781683
6	0xbb4e21eb	-0.0031453322
7	0xbc2f3499	-0.010693693
8	0x3e02f35c	0.12788147
9	0xbc057431	-0.008145378
10	0x3d0ad75d	0.033896793
11	0x3d309e87	0.043119933
12	0x3cba43a0	0.022737324
13	0x3e8aa742	0.27080733
14	0xbd19238f	-0.037387427
15	0xbf3d4362	-0.73930943
16	0x3cab5ef1	0.020919295
17	0xbd0a51d0	-0.03376943
18	0x3ede8c44	0.4346639
19	0xbf1f9788	-0.62340593
20	0x3d2a9659	0.04164729
21	0xbb85cd0f	-0.004083283
22	0xbd4570ae	-0.048203163
23	0xbae2aff8	-0.0017294874
24	0xbccdd085	-0.025123844
25	0x3e5998f2	0.2124975
26	0x3c81a6e1	0.015826644
27	0x3d547b90	0.05187565
28	0x3ce0b214	0.027428664
29	0xba9db1fa	-0.001203119
30	0x3f2b85b5	0.67000896
31	0x3d27dd1a	0.040982343
32	0xbac452cf	-0.0014978292
33	0xbf2efc59	-0.683538
34	0x3e7350c6	0.23761281
35	0xbb3cad24	-0.0028789723
36	0xbb73abf9	-0.003718136
37	0x3e8bfc48	0.27340913
38	0x3ea61507	0.32437918
39	0x3d3c4e63	0.045973193
40	0xbcb824a8	-0.022478417
41	0x3c106219	0.008812451
42	0x3ea0f2fb	0.3143538
43	0xbc052abb	-0.0081278635
44	0x3d841fa5	0.06451348
45	0x3e8b5fc4	0.272215
46	0x3d0ea19e	0.0348221
47	0x3d844603	0.06458666
48	0xbf32f6ba	-0.69907725
49	0x3d8789e3	0.06618097
50	0x3e5db6e8	0.21651804
51	0xbb93f3bd	-0.00451514
52	0xbaec2829	-0.001801734
53	0x3d02295d	0.03177773
54	0xbe4093a0	-0.18806314
55	0x3e95a594	0.2922789
56	0x3dceaeaa	0.10091908
57	0xbac70c61	-0.0015186184
58	0x3cfe5ae8	0.031049207
59	0xbd10599b	-0.035241704
60	0x3c12deab	0.008964221
61	0xbcbc7856	-0.0230066
62	0xbb9d4e0f	-0.004800565
63	0x3ceaa16d	0.028641427
64	0xbd30c3ee	-0.043155603
65	0xbdc04478	-0.093880594
66	0x3d58be66	0.052915953
67	0xbdecb0a0	-0.11557126
68	0xba90ff8a	-0.0011062485
69	0x3eecc6e6	0.46245497
70	0xbaea7c0e	-0.0017889754
71	0xbd3523e6	-0.04422369
72	0x3b5a2e98	0.0033291932
73	0x3e28fdb2	0.16503027
74	0x3ca04f7d	0.019569153
75	0xbc09973c	-0.0083978735
76	0xbf98bbcb	-1.193231
77	0xbd90b751	-0.07066215
78	0xbd230e44	-0.039808527
79	0xbd7e6682	-0.062109478
80	0x3ee82e46	0.45347804
81	0x3e852db0	0.2601142
82	0xbf9ac31a	-1.209079
83	0xbf33571f	-0.7005481
84	0xc0a83105	-5.255984
85	0xbb4b53d0	-0.0031025298
86	0x3c9e0d29	0.019293385
87	0xbd408df2	-0.04701037
88	0xbf8bf1ff	-1.0933226
89	0xbf7aa29d	-0.9790438
90	0xbc20f428	-0.009823836
91	0xbd32141f	-0.04347622
92	0xbe635f39	-0.22204293
93	0x3e62234d	0.22083779
94	0x3c1a896d	0.009432179
95	0xbd1ab471	-0.03776974
96	0x3f173413	0.59063834
97	0x3c0e2b96	0.008677384
98	0xbd386b82	-0.045024402
99	0xc0243b88	-2.5661335
100	0x3c78400d	0.01515199
101	0x3d5a7f37	0.053343978
102	0x3ce7afdc	0.028282098
103	0x3c9da43b	0.01924335
104	0xbcd6cd9d	-0.02622109
105	0x3f02c2c8	0.5107846
106	0xbc070a00	-0.00824213
107	0xbe579a91	-0.21055056
108	0xbf944b4b	-1.1585478
109	0xbc086cca	-0.008326719
110	0xbbb6254f	-0.0055586467
111	0xbaa0ac67	-0.0012258411
112	0x3d019d2b	0.031644028
113	0xbf4a2cda	-0.7897469
114	0x3dbda3ba	0.09259744
115	0xbba72f81	-0.0051020985
116	0xbc0cff47	-0.008605785
117	0x39b38802	0.00034242874
118	0x3c8885b4	0.016665317
119	0xbc39f5f3	-0.011350143
120	0x3a449969	0.00074996665
121	0x3f38f090	0.7224207
122	0xbc245451	-0.010029868
123	0x3b57e7b6	0.0032944507
124	0xbb4adb32	-0.0030953404
125	0xbd8661a3	-0.065615915
126	0xbc2c4964	-0.010515545
127	0xbda81e14	-0.08208862
128	0xbf358979	-0.7091289
129	0xbc82f763	-0.015987104
130	0x3cbca02f	0.0230256
131	0x3ea5767a	0.32316953
132	0xbcab85e2	-0.020937864
133	0xbf861179	-1.0474082
134	0x3e46b009	0.1940309
135	0x3b8e259e	0.0043379804
136	0xbe97120c	-0.29505956
137	0xbc55b4d8	-0.013043605
138	0xbcf7ad23	-0.030233925
139	0x3c16cc4f	0.009203984
140	0xbaa6cb30	-0.001272535
141	0xbbed3b23	-0.0072397157
142	0xbbeee97c	-0.007291017
143	0xbf45b4a0	-0.77228737
144	0x3eb48e8e	0.3526501
145	0x3c99cca7	0.018774344
146	0xbb954a01	-0.004555941
147	0x3e9ccfbf	0.30627248
148	0xbd58223a	-0.052767016
149	0x3ca7246a	0.020403106
150	0x3b0191c7	0.0019770728
151	0xbd74dc1c	-0.059780225
152	0xbeeaf980	-0.45893478
153	0xc081effe	-4.060546
154	0x3c722f05	0.014781718
155	0xbe6191a3	-0.22028212
156	0xbb2d1eda	-0.0026416094
157	0x3f21a049	0.631352
158	0xbecb42ac	-0.39699304
159	0x3c9ad0a1	0.01889831
160	0xbfda290c	-1.7043777
161	0xbc7fcfa3	-0.015613469
162	0x3afa4a11	0.001909556
163	0xb93d5578	-0.00018056284
164	0x3c0759c8	0.008261152
165	0xbb3219f9	-0.0027176125
166	0x3c4f9cdc	0.0126716755
167	0xbd7c4693	-0.061590742
168	0x3ca64d3d	0.020300502
169	0xbc4a9c8a	-0.012366423
170	0xbf842c25	-1.0325972
171	0xbce25ed1	-0.027633103
172	0xb9c3c65d	-0.0003734109
173	0x3ce478fa	0.027889717
174	0xbe5c8f62	-0.21539071
175	0x3d81b115	0.06332604
176	0xbb174684	-0.0023082802
177	0x3b6af117	0.0035849267
178	0xbaae8b7e	-0.0013316718
179	0x3b041af5	0.002015767
180	0xbc71e674	-0.014764417
181	0x3be833fe	0.007086276
182	0x3cc87c41	0.024473311
183	0xba54a1a8	-0.0008111247
184	0x3d4eb672	0.050466962
185	0xbb7df6d5	-0.003875186
186	0xbb83a301	-0.0040172343
187	0x3d0270f8	0.031846017
188	0x3ca1989a	0.019726086
189	0xbef56115	-0.4792563
190	0x3eb324a1	0.34988883
191	0x3edc6d47	0.43052122
192	0xbd031d97	-0.03201064
193	0x3d93234f	0.07184469
194	0xbbc4563d	-0.0059917257
195	0x3cb3b733	0.021937942
196	0x3c3c8a4d	0.011507583
197	0x3cc4ff04	0.024047382
198	0xbadf5247	-0.001703807
199	0xb9164c2a	-0.00014333488
200	0xbe30536a	-0.1721932
201	0x3c7e5dd7	0.015525303
202	0xbb35da8f	-0.002774868
203	0x3cd6e652	0.026232872
204	0x3bf2863d	0.0074012564
205	0x3d2426c7	0.040076043
206	0xbab9c7a2	-0.0014173875
207	0xbd8f2a06	-0.06990437
208	0x3d2cab43	0.042155515
209	0xbb9d74c0	-0.0048051775
210	0xbfdff064	-1.7495236
211	0x3d878642	0.066174045
212	0xbd3bd95f	-0.045861598
213	0x3d136493	0.035984587
214	0x3ce45c01	0.027875902
215	0xbd3b85e6	-0.045781992
216	0xbbf95116	-0.007608543
217	0x3d6f7870	0.058464468
218	0x3c67d6b1	0.0141503075
219	0xc0f1d0bf	-7.5567317
220	0x3cfc3645	0.030787596
221	0x3f245a59	0.6420036
222	0xbc5b3811	-0.0133800665
223	0x3b1624d0	0.0022910126
224	0xbd1a3459	-0.03764758
225	0x3d659f32	0.056060024
226	0xbd056b09	-0.03257278
227	0x3bfd8584	0.0077368636
228	0xbd80356c	-0.062601894
229	0x3ae9531a	0.0017801255
230	0xbc123a86	-0.008925086
231	0xc0b780b4	-5.734461
232	0xbbb70a31	-0.0055859317
233	0xbde0332c	-0.1094726
234	0x3c3ac5bc	0.011399683
235	0xbd318489	-0.043339286
236	0x3d273c4e	0.040828995
237	0xbd29c2a7	-0.0414454
238	0x3e19c5f1	0.15016915
239	0xbd70c53d	-0.05878185
240	0xbb02a505	-0.0019934785
241	0xbb808f28	-0.0039233156
242	0x3cfb6479	0.030687558
243	0x3b051e43	0.0020312227
244	0xc09d1246	-4.9084806
245	0x3db7cec3	0.089749835
246	0xbd7c9773	-0.06166787
247	0x3d546edc	0.051863536
248	0xc08a1a99	-4.315747
249	0x3c9624b3	0.018328046
250	0x3d2abd3b	0.04168437
251	0x3c755af0	0.0149752945
252	0xba4c6d3b	-0.0007798259
253	0xbd378f06	-0.044814132
254	0x3f975cb9	1.1825172
255	0x3d1e300a	0.038620032

layer2.bias f4 [200]
0	0x41444239	12.266168
1	0x422464e6	41.098534
2	0x4223c2d4	40.94026
3	0x42399ee1	46.405155
4	0x421d6360	39.347046
5	0x422133fd	40.30077
6	0x404298a8	3.0405674
7	0x42135625	36.834126
8	0xbfc223b5	-1.5167147
9	0xc1fff26d	-31.993372
10	0xc1f103ac	-30.126793
11	0x4173069b	15.189113
12	0xbff0cedf	-1.8813132
13	0x41d19fec	26.203087
14	0x41e05f6b	28.04659
15	0x416dc2c0	14.860046
16	0x403f1d62	2.9861684
17	0x42521945	52.524677
18	0x41c4c9df	24.59857
19	0x42176e9d	37.85802
20	0xc21f188a	-39.773964
21	0x42204e21	40.076298
22	0xc1064bec	-8.393536
23	0x421174cd	36.364063
24	0xc2126d60	-36.60681
25	0xc1c4727d	-24.555902
26	0x4230873a	44.132057
27	0x420f60d2	35.84455
28	0xc1372721	-11.447053
29	0x41cfdaf5	25.981913
30	0xc200b03c	-32.172104
31	0x3f742b9f	0.9537906
32	0xc213493a	-36.82151
33	0x42091c71	34.277775
34	0x425afa2c	54.74431
35	0xc1ab6442	-21.423954
36	0x41d3e414	26.486366
37	0xbe842c97	-0.2581527
38	0x40e76574	7.2311344
39	0x422056bd	40.084705
40	0xc1a845cf	-21.034086
41	0x422a79ba	42.618874
42	0x4218641c	38.097763
43	0xc12cfbea	-10.811502
44	0x42087ecc	34.123825
45	0xc2061149	-33.51688
46	0x421f4bdc	39.82408
47	0xc1127e8d	-9.155896
48	0x417259f5	15.146962
49	0x40f524d9	7.660748
50	0xc18626a8	-16.768875
51	0xbf3bc3e1	-0.7334576
52	0x3cb95542	0.022623662
53	0x41fc13e0	31.509705
54	0x42232151	40.782536
55	0xc1055448	-8.3330765
56	0x42330450	44.75421
57	0x4151485a	13.080164
58	0xc1db190a	-27.387226
59	0xc0cd81fe	-6.422118
60	0x42383d1e	46.059685
61	0x415089a8	13.0336075
62	0x41ba7742	23.308231
63	0x3fed2fbc	1.8530192
64	0x423a76c3	46.61598
65	0xc224f29d	-41.236927
66	0x422b5476	42.83248
67	0x4210166d	36.0219
68	0x42355ac4	45.33864
69	0x410c56c0	8.771179
70	0x42034c6a	32.824623
71	0xc20db9c4	-35.43141
72	0x423d7bc0	47.37085
73	0xc0b1151a	-5.533826
74	0x40634a02	3.551392
75	0x41f49d60	30.576843
76	0x416b1817	14.693381
77	0xbfa25964	-1.268353
78	0x421dcc2c	39.449387
79	0xbb68d669	-0.003552819
80	0x420db837	35.429897
81	0x41939aaa	18.45052
82	0x42357c4d	45.371387
83	0x3fd015fb	1.6256708
84	0x423d2992	47.290596
85	0x3f683daa	0.9071909
86	0x410777cd	8.466748
87	0x41f74864	30.910347
88	0x41f58c79	30.69359
89	0x418964c0	17.174194
90	0xbfdcc353	-1.7247108
91	0x42526d77	52.6069
92	0x423c3906	47.055687
93	0x4218b10e	38.172905
94	0x42201092	40.016182
95	0xc14c3e58	-12.765221
96	0xc02a0a5b	-2.656882
97	0xc1bf2fb3	-23.89829
98	0x420d0f0a	35.264687
99	0xc04669b1	-3.100201
100	0xc20068b4	-32.10225
101	0x41a58d2d	20.693933
102	0x42553248	53.299103
103	0x410b806a	8.718851
104	0x41a14b77	20.161848
105	0xc198e637	-19.11241
106	0x400b2626	2.1742034
107	0xc2045fc4	-33.09352
108	0x41f109fe	30.129879
109	0x3f02f324	0.51152253
110	0xbfa88672	-1.316603
111	0xc13011eb	-11.0043745
112	0x410ad583	8.677127
113	0x421baf92	38.921455
114	0x401c271f	2.4398878
115	0x41ece659	29.612474
116	0x41f35ce7	30.420362
117	0x42147b11	37.120182
118	0x42313898	44.305267
119	0x420b921a	34.892677
120	0x42134675	36.818806
121	0x41880359	17.001635
122	0xc046c0ea	-3.1055245
123	0x419665e0	18.799744
124	0x40697cca	3.6482415
125	0x4236dc03	45.714855
126	0x4148508a	12.519663
127	0x4107ce39	8.487847
128	0x4236f65d	45.74059
129	0x4226d970	41.71234
130	0x421b98b9	38.899143
131	0x40d6dbe4	6.714342
132	0x41c7cbc7	24.9745
133	0xc207e938	-33.977753
134	0x40b57b57	5.671306
135	0xbfb01308	-1.3755808
136	0x4233caf5	44.9482
137	0x423323c7	44.78494
138	0x4024ac98	2.5730343
139	0x423e4d07	47.575222
140	0x422b1609	42.77152
141	0xc0d1f224	-6.560808
142	0xc08639dd	-4.1945634
143	0x4246cd0b	49.700237
144	0x421b42a9	38.815098
145	0x4255076f	53.25726
146	0x420a19f5	34.52535
147	0x4210eee2	36.233284
148	0x42076ddf	33.857296
149	0x42352a0e	45.29107
150	0x41f90028	31.125076
151	0x419afa84	19.372322
152	0x40ad134f	5.408607
153	0x4104d36e	8.301619
154	0x419e3dd2	19.780186
155	0x421a1ba4	38.526993
156	0xc0b89b29	-5.7689404
157	0x42325ba2	44.589485
158	0x4250b6e9	52.178623
159	0x3f9f58a3	1.2448925
160	0x3fd78023	1.6835979
161	0x406a192a	3.657786
162	0x41e669c8	28.801651
163	0x40adf954	5.4366856
164	0x4223e6b1	40.975285
165	0x4234ae67	45.170315
166	0x420cf44d	35.238575
167	0x41797cb8	15.592949
168	0xc132784f	-11.154372
169	0x4017dcf6	2.3728614
170	0xc1329a5d	-11.162686
171	0x42087f78	34.12448
172	0x412499ab	10.287517
173	0x41fa0d49	31.256487
174	0x42283507	42.051785
175	0xc1cdca41	-25.723757
176	0x41395298	11.5826645
177	0xc136be5b	-11.4214735
178	0x41510b17	13.0652075
179	0xc11827ea	-9.509745
180	0x422dd8f7	43.46188
181	0xc2047651	-33.115543
182	0x4206a8ff	33.665035
183	0x401456bc	2.3177938
184	0x4236d574	45.70845
185	0x41e86f75	29.054422
186	0x416644b1	14.39177
187	0x421a57bf	38.58569
188	0xc2076f12	-33.858467
189	0x42331bb2	44.777046
190	0x422c54f2	43.082954
191	0x40841da5	4.1286187
192	0x422a4fd3	42.577953
193	0xbeba99ff	-0.36445615
194	0xc1b8b374	-23.087624
195	0x40df21fe	6.9728994
196	0x409df2a3	4.9358687
197	0xc0d24263	-6.570604
198	0x41ea3407	29.275404
199	0x41ee1e8f	29.764921

layer3.weight f4 [200, 200]
0	0xbc78e8ef	-0.015192254
1	0x3cc32437	0.02382098
2	0xbd8c9af7	-0.06865495
3	0x3c8f0555	0.017458597
4	0xbd302498	-0.04300365
5	0x3ca74a5c	0.0204212
6	0x3c8a788a	0.01690318
7	0xbcce3127	-0.025169922
8	0x3abbe937	0.0014336471
9	0xbe265230	-0.1624229
10	0xbf7e643c	-0.99371696
11	0xbd4779fe	-0.048700325
12	0xbc39fe4d	-0.011352134
13	0x3e7933c0	0.24336147
14	0x3c04425e	0.008072464
15	0xbca38967	-0.01996298
16	0xbcbb47d2	-0.022861395
17	0xbc42632e	-0.011864467
18	0xbd40f58f	-0.047109183
19	0xbce485e8	-0.027895883
20	0xbf27cfe5	-0.65551597
21	0xbc03bff4	-0.008041371
22	0xbc87278f	-0.016498355
23	0xbcdaaa28	-0.026692465
24	0xbb6d4fd6	-0.0036210916
25	0xbd12ad86	-0.035810016
26	0x3d396e32	0.045271106
27	0xbd5970f2	-0.05308623
28	0x3e579a14	0.2105487
29	0xbc4f868e	-0.012666358
30	0xbf9a2603	-1.204285
31	0xbc280ab0	-0.010256454
32	0xbeb4ce8a	-0.35313827
33	0x3da44603	0.08021166
34	0xbb6d2d1e	-0.0036190222
35	0xbd28fa09	-0.041254077
36	0x3d2de28c	0.04245238
37	0xbc8f3c7e	-0.0174849
38	0x3db5b66d	0.088726856
39	0xbd0cb7db	-0.034355026
40	0x3e7135c2	0.23555663
41	0x3d925021	0.071441896
42	0xbc83e2f0	-0.016099423
43	0xbda0ca30	-0.07851064
44	0xbc7621e1	-0.015022726
45	0xbd096a38	-0.033548564
46	0xbd89456c	-0.06702694
47	0x3db44d8d	0.08803854
48	0xbe64af35	-0.22332461
49	0xbe93d71a	-0.28875047
50	0xbf8e724b	-1.112863
51	0x3c3f437c	0.011673804
52	0xbd8aa18e	-0.06769095
53	0xbc8c8cc3	-0.017156964
54	0x3d000e2c	0.031263515
55	0xbc0b9950	-0.008520439
56	0xbb3cf084	-0.0028829882
57	0xbc0e4f95	-0.008685966
58	0xbd2b8203	-0.041872036
59	0xbd21efcb	-0.039535325
60	0x3ea2d295	0.31801286
61	0xbd5edcca	-0.05440978
62	0xbc952918	-0.018208072
63	0x3c6b39b1	0.014357016
64	0x3b45c569	0.003017748
65	0xbd60f02d	-0.05491655
66	0x3ddeaf92	0.10873331
67	0xbb4862fd	-0.003057658
68	0x3e749cdd	0.23887964
69	0xbe656bd3	-0.22404413
70	0xbe524cc0	-0.2053709
71	0xbe05263a	-0.13002864
72	0xbd1c51c8	-0.03816393
73	0xbccfd171	-0.025368424
74	0xbc20cbe3	-0.009814235
75	0xbca64f0f	-0.02030137
76	0x3ab8446a	0.0014058475
77	0x3c833f3f	0.016021369
78	0xbdaef2db	-0.08542415
79	0xbc937677	-0.018000824
80	0x3ddf2e53	0.108975075
81	0xbcbc43d1	-0.022981556
82	0xbefae199	-0.49000242
83	0xbc7b44a4	-0.015336189
84	0x3f071122	0.5276052
85	0xbbb83a8b	-0.0056222132
86	0xbd077871	-0.033073846
87	0xbcccfc8a	-0.025022764
88	0x3d1de56e	0.03854888
89	0x3c909bb1	0.017652364
90	0xbd38e97d	-0.045144547
91	0x3d4f9610	0.05068022
92	0x3e616b82	0.22013667
93	0xbd96cb3f	-0.07362985
94	0xbd3a7c9d	-0.045528997
95	0xbdc690cf	-0.09695589
96	0xbdffd3ff	-0.12491607
97	0xbce5d714	-0.028056659
98	0xbc9be855	-0.019031683
99	0x3a0057c5	0.0004895891
100	0xbc5b7358	-0.013394199
101	0xbdc8aaab	-0.09798177
102	0xbc12bcc0	-0.008956134
103	0xbde4a6bc	-0.111646146
104	0xbe7bc4c2	-0.24586776
105	0xbd73e16a	-0.059541143
106	0x3b6e1a29	0.003633151
107	0x3ec86d20	0.39145756
108	0xbcc0a315	-0.023515264
109	0xbc4b0931	-0.012392328
110	0x3c19c99b	0.009386445
111	0x3a8f188b	0.0010917349
112	0xbd8d9dd8	-0.06914872
113	0xbde9f19c	-0.114230365
114	0xbdb3ccfb	-0.08779331
115	0xbc8ddd3d	-0.017317409
116	0xbccdf921	-0.025143208
117	0xbc8e3059	-0.017357038
118	0xbe53b350	-0.20673871
119	0x3dd83f66	0.10558967
120	0x3c8428d3	0.016132748
121	0xbc554fff	-0.013019561
122	0x3d8d33ba	0.06894632
123	0x3c7ffea5	0.015624677
124	0x3ce56081	0.028000118
125	0xbc45df43	-0.0120771555
126	0xbcf82dd3	-0.030295288
127	0xbc683d15	-0.014174719
128	0xbc2d8f20	-0.010593206
129	0xbe464060	-0.19360495
130	0xbea92cac	-0.33041894
131	0xbd925b53	-0.07146325
132	0xbd900e12	-0.07033934
133	0xbf8de98d	-1.1086899
134	0xbc9e7d44	-0.01934684
135	0xbd8a7073	-0.06759729
136	0xbc92e550	-0.01793161
137	0xbdabfc4c	-0.08397731
138	0xbd11b3d2	-0.03557188
139	0xbce51fcb	-0.027969262
140	0xbcdd4764	-0.02701158
141	0xbbe45399	-0.0069679734
142	0xbbf2ed27	-0.0074135247
143	0x3f340208	0.703156
144	0xbd8bed1e	-0.06832336
145	0xbd7d15cf	-0.061788376
146	0xbdc9bb70	-0.09850204
147	0xbdbf1720	-0.093305826
148	0xbdade0d1	-0.08490146
149	0xbba7491f	-0.0051051523
150	0x3d1384ab	0.036015194
151	0xbe21a503	-0.15785603
152	0xbc6168d4	-0.013757903
153	0x3d2c8c7f	0.042126175
154	0xbd79dbe5	-0.061000723
155	0x3c7a235c	0.015267219
156	0xbca25eae	-0.019820537
157	0xbd21c793	-0.03949697
158	0xbd0d9ccc	-0.03457336
159	0xbc1f8f65	-0.009738778
160	0xbc77c2b8	-0.015122108
161	0xbda4a492	-0.08039202
162	0xbd87ec71	-0.066368945
163	0x3c8e8fa2	0.017402474
164	0xbd3dde01	-0.046354298
165	0xbd4a6fec	-0.049423143
166	0xbdd0ef3a	-0.10201879
167	0xbca2876d	-0.019839967
168	0xbc363802	-0.011121752
169	0xbe1d2bce	-0.15348741
170	0x3f04f236	0.51932085
171	0xbcad28ec	-0.021137677
172	0x3c8151e5	0.01578612
173	0xbd475d4b	-0.048672955
174	0xbd782766	-0.06058445
175	0xbca815c1	-0.020518186
176	0xbc4c9357	-0.0124863
177	0xbca984a3	-0.020693129
178	0x3d01edab	0.0317208
179	0xbdeb49df	-0.11488699
180	0xbdbb8031	-0.0915531
181	0xbd355add	-0.044276107
182	0xbbfbebd1	-0.0076880236
183	0xbc592bef	-0.0132551035
184	0xbb842acc	-0.004033422
185	0xbe002e63	-0.12517695
186	0xbd96e035	-0.07366983
187	0xbf8c9fb4	-1.0986238
188	0x3bb73958	0.0055915527
189	0xbceaffda	-0.028686453
190	0xbeefcbc5	-0.4683515
191	0x3acac2ca	0.0015469429
192	0xbcfa5b6b	-0.03056117
193	0xbc88a6fa	-0.016681183
194	0xbcc7f3f2	-0.024408314
195	0xbd6af5b4	-0.057363227
196	0xbbf69b60	-0.0075258464
197	0x3cb3cef4	0.021949269
198	0xbcc75604	-0.024333008
199	0xbd670ead	-0.05641048
200	0x3b02595d	0.001988969
201	0x3d97b276	0.074070856
202	0x3c8a191a	0.016857672
203	0x3d7a4e43	0.061109792
204	0xbcb3a600	-0.02192974
205	0xbc567e40	-0.013091624
206	0xbf67e458	-0.905828
207	0x3c453da2	0.01203862
208	0xbdbf1c40	-0.0933156
209	0xbe5470d7	-0.2074617
210	0xc0d03179	-6.506039
211	0x3e1dd8eb	0.15414779
212	0x3e4d6eaa	0.20061746
213	0x3ea63d5e	0.32468694
214	0x3c8350ae	0.016029682
215	0x3c0b579b	0.0085047735
216	0x3c32e5ca	0.010919044
217	0x3d6bcc0c	0.05756764
218	0x3988a681	0.00026063996
219	0x3dd52611	0.10407651
220	0xbf2f2c81	-0.6842728
221	0xbdae3cc9	-0.085076876
222	0x3cbc34a2	0.022974316
223	0x3d0d887e	0.034553997
224	0xbd746559	-0.059666965
225	0x3bec11b8	0.0072042607
226	0xbc920140	-0.017822862
227	0xbe238079	-0.15966977
228	0xbb117d78	-0.002220003
229	0x3b10bd88	0.0022085626
230	0xbfd91dc5	-1.696221
231	0x3c8b09f8	0.016972527
232	0xbf4477b5	-0.7674516
233	0x3dacd22e	0.08438526
234	0xbd4c5e63	-0.0498947
235	0x3d3e2bc7	0.046428468
236	0x3e37c336	0.17945561
237	0x3c15b857	0.009138188
238	0xbb87b9ab	-0.0041420064
239	0x3d66d303	0.05635358
240	0xc04b882b	-3.180186
241	0x3cf97477	0.030451043
242	0x3c30d927	0.010793961
243	0xbe8b8499	-0.272496
244	0x3b611c86	0.0034349277
245	0xbbf8de3e	-0.0075948527
246	0xbc95b314	-0.018273868
247	0xbe3787de	-0.17922923
248	0x3dda24d8	0.10651559
249	0x3fbbb01e	1.4663122
250	0x3f4a14cf	0.78938
251	0xbe4dfb96	-0.20115504
252	0xbcd4eca4	-0.025991745
253	0x3bd36cab	0.006452163
254	0x3e43d1e7	0.1912304
255	0x3d170613	0.036871027

layer3.bias f4 [200]
0	0x422bd566	42.958397
1	0x423a0f96	46.51522
2	0x41e50be7	28.630812
3	0x41eb793d	29.434198
4	0xc22a8857	-42.633144
5	0x4239ec2b	46.480633
6	0xc10ddc22	-8.866243
7	0x42471906	49.774437
8	0x423451d2	45.079903
9	0x4221a964	40.41542
10	0x42484a89	50.07279
11	0x423656c6	45.58474
12	0x42148d1f	37.137814
13	0xc0810940	-4.032379
14	0x4202527b	32.580547
15	0x4236fd53	45.747387
16	0x40ab7834	5.358423
17	0x424bdd62	50.966194
18	0x42015e04	32.341812
19	0xc13ff9e4	-11.998508
20	0x41d2ee24	26.36628
21	0x420f4240	35.814697
22	0xc1d9162d	-27.135828
23	0x421f6607	39.849636
24	0x420ea986	35.66555
25	0x421fcdeb	39.95109
26	0xbf0226c0	-0.5084038
27	0x41fd713e	31.680294
28	0x42192492	38.285713
29	0x422da112	43.407295
30	0x4229c756	42.444664
31	0x421b3b00	38.807617
32	0x423d5385	47.331562
33	0x420c1def	35.029232
34	0x42196df7	38.357388
35	0x422e6c55	43.605793
36	0x424dc0a8	51.43814
37	0x42110916	36.258873
38	0x421057e4	36.08583
39	0x4241d52a	48.458168
40	0x422da9f4	43.41597
41	0x42316010	44.34381
42	0xc22b86ff	-42.881832
43	0x42291da5	42.27895
44	0x42152b5a	37.292336
45	0x41edcf56	29.726238
46	0x420269ab	32.60319
47	0x4201d381	32.456547
48	0x422ef3f2	43.738228
49	0x4117003d	9.437558
50	0xc1730d74	-15.190784
51	0xbfd4dbd8	-1.6629591
52	0x400c7486	2.194612
53	0x421f0a5b	39.760113
54	0x415f6046	13.961004
55	0xc2104e3f	-36.076412
56	0x42041067	33.016018
57	0x4217012f	37.751156
58	0x423e6ff4	47.60933
59	0x4216c064	37.68788
60	0x4225c349	41.44071
61	0xc21f42bf	-39.81518
62	0x420f69aa	35.853188
63	0xc219de06	-38.46682
64	0x41fbe7d8	31.488205
65	0x4212bec1	36.686283
66	0xc19bb114	-19.461464
67	0x41d843d5	27.033121
68	0xc1dba1b5	-27.453959
69	0x420f4d73	35.825634
70	0x4228f176	42.2358
71	0x4223fdb4	40.997757
72	0x423fc34c	47.94072
73	0xbfd1051b	-1.6329683
74	0x4233978f	44.898006
75	0x420361eb	32.845623
76	0x4232973a	44.647682
77	0xc1be4d8f	-23.78787
78	0x402a685d	2.6626198
79	0x42427e98	48.623627
80	0xc1c0bf2c	-24.093346
81	0xc1844779	-16.534899
82	0xc1da383a	-27.277454
83	0x42457e04	49.373062
84	0x423c65ea	47.099525
85	0x423e1856	47.523766
86	0x422b3c33	42.80879
87	0x41fbf143	31.492804
88	0x42468df7	49.638638
89	0x40efba63	7.4915023
90	0x42107830	36.11737
91	0x420eabd4	35.6678
92	0x420e87d4	35.632645
93	0x421fbcba	39.934303
94	0x423042ef	44.065365
95	0x421bc61f	38.943478
96	0x41c61478	24.759995
97	0xc02ec1df	-2.730583
98	0x41f0b8e9	30.090288
99	0x41869b09	16.8257
100	0x4239e02f	46.46893
101	0x422913b8	42.269257
102	0x423ec835	47.695515
103	0x421672ce	37.612114
104	0x41f2520a	30.290058
105	0x424167f2	48.35151
106	0x4219d4e2	38.457893
107	0x422e8696	43.63143
108	0x42251aa2	41.27601
109	0x423db86e	47.430107
110	0x423d2681	47.2876
111	0xc2029674	-32.646927
112	0xc204fc70	-33.24652
113	0x4228609e	42.094353
114	0x41fcb17f	31.586668
115	0x4218303e	38.04711
116	0x4204fc33	33.24629
117	0x421c7fea	39.124916
118	0x42438de7	48.888577
119	0x42283839	42.054905
120	0x41f97772	31.183323
121	0xc0862cd0	-4.1929703
122	0x420fe0d2	35.96955
123	0x423bb8ed	46.93059
124	0x4218a25f	38.158566
125	0x420c6696	35.10018
126	0x42263031	41.547062
127	0x422937d2	42.304512
128	0x4238a5b5	46.161823
129	0x425c5640	55.08423
130	0x423729bf	45.790768
131	0xbc9d5b44	-0.019208558
132	0x4231aa66	44.416405
133	0x425182f1	52.377872
134	0x41e69033	28.82041
135	0x422d854d	43.380177
136	0x4224bd27	41.18472
137	0x41ff56e6	31.91743
138	0x421cff64	39.249405
139	0x42309bc6	44.152122
140	0x42309e09	44.15433
141	0x42424dc2	48.575935
142	0x4234b3e4	45.175674
143	0x41e97650	29.18277
144	0x412ecf8a	10.925669
145	0x421421f0	37.033142
146	0x3fe615a5	1.7975355
147	0xbf979a7b	-1.1844019
148	0x4229ff8e	42.499565
149	0x421d9e59	39.404636
150	0x42631a88	56.77591
151	0x420c8f42	35.1399
152	0xc1e701a5	-28.875803
153	0x41e6fdf2	28.873997
154	0xc21e6f0c	-39.608444
155	0x423c7992	47.11872
156	0xbec441e8	-0.38331532
157	0x423c0931	47.008976
158	0x41f42211	30.516634
159	0x421f72b0	39.862
160	0x42520307	52.502956
161	0x424c19f6	51.025352
162	0x423b6e2e	46.857597
163	0x419b88ca	19.441792
164	0xc204b5f5	-33.177692
165	0x413dd284	11.863895
166	0x422c243b	43.03538
167	0x41902890	18.019806
168	0x42407202	48.111336
169	0x4238a39d	46.15978
170	0x4226a1bd	41.657948
171	0x423e0107	47.501003
172	0x4211fb8f	36.495663
173	0x419969e9	19.176714
174	0x420ef80c	35.742233
175	0xc210e2a0	-36.221313
176	0x40cb4d97	6.3532214
177	0x424425c7	49.036892
178	0x42364012	45.56257
179	0x41c7d8e5	24.980906
180	0xc16930fe	-14.574461
181	0x422c0548	43.005157
182	0x42171f52	37.780586
183	0x42369850	45.648743
184	0x422e0ab1	43.51044
185	0x421cf30a	39.237343
186	0x4240f5fe	48.240227
187	0x4235e58b	45.474163
188	0xc20fc837	-35.945522
189	0x423c5bc4	47.089615
190	0x4227ea09	41.97855
191	0x42540120	53.0011
192	0x425bb725	54.928852
193	0x420d267e	35.28759
194	0xc0a9091f	-5.2823634
195	0x42280849	42.00809
196	0x40fe3421	7.9438634
197	0x421f2673	39.787548
198	0x41b0905e	22.070492
199	0x421d84c3	39.37965

layer4.weight f4 [200, 200]
0	0xbe94a126	-0.29029197
1	0xbd4a5abe	-0.049402945
2	0x3e87dc2c	0.26535165
3	0xbef64d94	-0.48106062
4	0x3e3c4b6e	0.18388149
5	0x3d6f9d47	0.0584996
6	0x3e73d79c	0.23812717
7	0xbe6c28eb	-0.23062484
8	0xbb3f6c68	-0.0029208902
9	0x3d3f8673	0.04675908
10	0xbcae1b45	-0.021253238
11	0x3c83a73d	0.016070956
12	0x3d149c1d	0.036281694
13	0xbfb29483	-1.3951572
14	0x3e5b4407	0.21412669
15	0xbdcfa9b5	-0.10139791
16	0xbdff7bf0	-0.12474811
17	0xbeaa887e	-0.3330726
18	0xbf43f7d5	-0.76550037
19	0xbe9ac2c1	-0.3022671
20	0x3eaf6f9b	0.34264836
21	0x3d089ed1	0.033354584
22	0xbdc62b53	-0.09676232
23	0x3f149226	0.58035505
24	0x3eaf5ad7	0.34248993
25	0xbdea88e3	-0.1145189
26	0xbd8edc9d	-0.069756724
27	0x3e879951	0.2648416
28	0xbeda243a	-0.42605764
29	0x3e53e956	0.2069448
30	0x3e4c7fe5	0.19970663
31	0x3e71b479	0.23604001
32	0x3c16f95d	0.009214726
33	0x3defa50b	0.11701401
34	0xbc3b9f37	-0.011451534
35	0xbd1d0da4	-0.038343087
36	0xbd682e25	-0.05668463
37	0x3d5bea65	0.053690333
38	0xbf2d7400	-0.67755127
39	0x3c14cc4a	0.009081909
40	0x3d9e5b5d	0.0773227
41	0xbbf889bc	-0.0075847786
42	0x3efcf0f9	0.49402598
43	0xbd726458	-0.059177727
44	0x3d911917	0.07084864
45	0xbf55149c	-0.8323457
46	0x3d19b157	0.03752264
47	0x3d933959	0.071886726
48	0xbeae177e	-0.34002298
49	0xbeab3d78	-0.33445334
50	0xc011546d	-2.270778
51	0x3e69f622	0.22847798
52	0xbe035a24	-0.12827355
53	0xbe4f728d	-0.20258541
54	0x3e75985e	0.23983905
55	0x3dbf11e5	0.09329585
56	0x3e3ca5de	0.18422648
57	0xbea3d57e	-0.3199882
58	0x3b9f9f30	0.0048712716
59	0xbe424754	-0.18972522
60	0xbc7a2b52	-0.015269117
61	0x3e96f2e8	0.29482198
62	0x3c529a29	0.012854137
63	0x3f29e737	0.6636843
64	0xbcee0e3f	-0.029059527
65	0xbd9748e1	-0.073869474
66	0x3e695e11	0.2278979
67	0xbba3cc69	-0.004998733
68	0xc01fa6ba	-2.4945512
69	0x3d7b2ac0	0.061320066
70	0xbc287f2d	-0.010284227
71	0xbdefa2ae	-0.117009506
72	0x3d1aa036	0.037750445
73	0x3d8b9b78	0.06816763
74	0x3e9e185b	0.30877957
75	0x3c459e82	0.012061717
76	0xbd72b34d	-0.059253026
77	0x3f104e28	0.56369257
78	0x3ecf54b8	0.40494323
79	0xbe90fe81	-0.2831917
80	0xbff950ab	-1.9477743
81	0xbfe40655	-1.7814432
82	0xbf5cda5d	-0.86270696
83	0x3b953163	0.0045530065
84	0xbdf33178	-0.1187467
85	0x3b83486f	0.0040064375
86	0x3b658edd	0.003502778
87	0xbf469a0e	-0.7757882
88	0xbd43e01d	-0.047821153
89	0xbf86a787	-1.0519875
90	0x3e5d0f86	0.21587953
91	0x3e9a5ea3	0.30150327
92	0x3d4453da	0.04793153
93	0xbdde063f	-0.10841035
94	0x3e7a6931	0.2445419
95	0x3e59835f	0.2124152
96	0xbdc4e747	-0.09614425
97	0xbd0a6aac	-0.033793136
98	0x3dc17ef3	0.09448042
99	0xbd52a225	-0.051424164
100	0x3ceba27e	0.028764006
101	0xbd949a56	-0.07256
102	0x3cb23fdb	0.021758964
103	0x3cea9f80	0.028640509
104	0x3cef4a43	0.029210215
105	0xbe8b9425	-0.27261463
106	0x3da67025	0.081268586
107	0xbd914f4a	-0.07095201
108	0x3f3a1616	0.7268995
109	0x3d97d3fb	0.07413479
110	0x3c51e70f	0.012811436
111	0xbeb7cb4b	-0.35897288
112	0xbe198867	-0.1499344
113	0xbd0d725b	-0.034532886
114	0xbebb751c	-0.36612785
115	0xbd9aa611	-0.07551206
116	0x3e8e969f	0.2784929
117	0x3e83f66c	0.25773942
118	0xbebd3978	-0.36957908
119	0x3e0a2a15	0.13492616
120	0x3ed817f4	0.42205775
121	0x3c3f35d1	0.011670546
122	0xbf3de655	-0.74179584
123	0xbfb10208	-1.3828745
124	0xbfae9280	-1.3638458
125	0x3e5ba358	0.2144903
126	0x3d07828e	0.03308349
127	0x3e85dc06	0.26144427
128	0x3e051233	0.12995224
129	0xbf473161	-0.7780972
130	0x3cda9941	0.026684405
131	0xbf985672	-1.1901381
132	0xbe38d88b	-0.18051355
133	0xbe87f84d	-0.26556626
134	0x3e5a86c3	0.2134047
135	0xbd39a818	-0.045326322
136	0x3d81f744	0.0634599
137	0x3e1207fa	0.14260855
138	0xbe51027a	-0.20411101
139	0x3e686d57	0.2269796
140	0x3bc1cd65	0.0059143775
141	0xbc4958f1	-0.012289272
142	0x3da6e025	0.08148221
143	0x3e83a2f4	0.2571026
144	0xbeb49f12	-0.3527761
145	0xbe0c84f0	-0.13722587
146	0xbf73b6ba	-0.95200694
147	0xbe3efa58	-0.18650186
148	0xbe457eba	-0.19286624
149	0x3e7a3a9e	0.24436423
150	0xbed28849	-0.41119602
151	0x3e5c85a9	0.21535362
152	0xbf8a4770	-1.0803051
153	0x3cd0e246	0.02549852
154	0xbf102890	-0.56311893
155	0xbe028760	-0.12746954
156	0x3a26378e	0.0006340676
157	0x3bc0b3b6	0.005880798
158	0x3e2a5513	0.16634016
159	0x3df78f64	0.120878965
160	0xbf45b8e0	-0.7723522
161	0xbe28296e	-0.16422054
162	0x3db1cce0	0.08681655
163	0x3d49e5b0	0.049291313
164	0xbf1bec60	-0.60907555
165	0xbdf91791	-0.12162698
166	0x3a6769c5	0.00088277116
167	0x3e291150	0.1651051
168	0xbe9a30dc	-0.30115402
169	0x3daa40d5	0.08313147
170	0x3e0169a7	0.1263796
171	0x3c369c14	0.01114561
172	0x3d64c907	0.055855777
173	0x3d1fd58e	0.03902202
174	0xbd6d3850	-0.057915032
175	0x3e09ba08	0.13449872
176	0xc01906c9	-2.3910391
177	0xbd314873	-0.043281984
178	0xbadd90be	-0.0016904098
179	0x3e05f74e	0.1308262
180	0xbf84ec26	-1.0384567
181	0xbd567477	-0.052357163
182	0x3d7f2991	0.0622955
183	0xbe1192ac	-0.14216107
184	0x3cf7f2f8	0.030267224
185	0xbf1bcf08	-0.6086278
186	0x3a87228b	0.0010309977
187	0x3cc375b5	0.023859838
188	0x3e04fe4b	0.1298763
189	0x3c1d123e	0.009586869
190	0x3c85517a	0.016274203
191	0xbe456e1b	-0.19280283
192	0xbf0c7e56	-0.54880273
193	0xbf820643	-1.0158161
194	0x3e30cb26	0.17264995
195	0x3db7666e	0.08955084
196	0xbf43cbe3	-0.7648298
197	0x3f1fe244	0.6245463
198	0x3f59b3bf	0.85039896
199	0x3c437831	0.011930511
200	0x3d862575	0.06550113
201	0x3d7f9f82	0.062407978
202	0xbd14fd78	-0.03637454
203	0xbcc9c672	-0.024630759
204	0xbb5b7161	-0.0033484327
205	0x3cc2a238	0.023758993
206	0xbd72cd8f	-0.059278067
207	0x3cb996ea	0.02265497
208	0xbd65b2bd	-0.05607866
209	0x3acffeff	0.0015868841
210	0xbd571de2	-0.052518733
211	0x3a98afae	0.0011649036
212	0xbd59b7f2	-0.05315394
213	0x3f0d5334	0.5520508
214	0xbde7478c	-0.11292943
215	0x3d122629	0.035680924
216	0xbc97934e	-0.018502858
217	0x3c43ec7c	0.011958238
218	0x3f0c4d39	0.5480533
219	0x3ca360aa	0.019943554
220	0x3c042f78	0.008067958
221	0xbd379ec5	-0.04482915
222	0xbec27315	-0.37978426
223	0x3ec1ce73	0.3785282
224	0x3de893b5	0.11356298
225	0xbda42fcd	-0.0801693
226	0xbc81f51b	-0.015863946
227	0x3c6afd03	0.014342549
228	0xbd75cfef	-0.060012754
229	0x3d875af4	0.06609145
230	0x3e868ea2	0.26280695
231	0xbe776a8d	-0.2416174
232	0x3e77a911	0.24185587
233	0x3ced0abb	0.02893578
234	0xbd81c38d	-0.063361265
235	0xbd7d1204	-0.06178476
236	0x3c316b6d	0.010828835
237	0xbced9670	-0.029002398
238	0xbe133ea8	-0.1437937
239	0xbd90a131	-0.07061995
240	0xbe140a1f	-0.14456986
241	0xbcdf51b2	-0.027260635
242	0xbdfcb047	-0.1233831
243	0xbd0403ca	-0.032230176
244	0x3c96342a	0.01833542
245	0xbcdcdbb9	-0.02696024
246	0x3c57ac4b	0.013163636
247	0x3e099d70	0.13438964
248	0x3da6263b	0.08112761
249	0x3e3eea60	0.18644094
250	0xc08285e8	-4.078846
251	0xbedae038	-0.4274919
252	0xbd01c89b	-0.031685453
253	0x3c9a6d3c	0.018850915
254	0xbd101d03	-0.035183918
255	0x3d192adf	0.0373944

layer4.bias f4 [200]
0	0xc21f208b	-39.78178
1	0x420fb331	35.92499
2	0x41f634f0	30.775848
3	0x41f84f8e	31.038845
4	0xc2240abf	-41.010494
5	0x4230f72a	44.24137
6	0x424d9b8b	51.401897
7	0x42345fbf	45.093502
8	0x42301248	44.017853
9	0x422bb255	42.924152
10	0x41f3015c	30.375664
11	0xc1a47706	-20.558117
12	0x41ef555f	29.916685
13	0x42463488	49.5513
14	0x420d5d5e	35.34118
15	0x41a2a7d3	20.331945
16	0xc245c682	-49.443855
17	0x4246f106	49.735374
18	0xc1462409	-12.383798
19	0x42321eaf	44.529964
20	0x420943ea	34.316322
21	0x4240198a	48.02494
22	0x41a949ec	21.161095
23	0x41525e59	13.148034
24	0x42234c9c	40.824814
25	0x41ddac95	27.709269
26	0x4231b89c	44.430283
27	0x4231b3b5	44.425495
28	0x4243dfcd	48.968555
29	0x4239b0f6	46.422813
30	0xc1aef18d	-21.867945
31	0x4223b5d1	40.927555
32	0x422845e5	42.068256
33	0xc234edb3	-45.23213
34	0x42487ce2	50.121956
35	0x4210fe65	36.248432
36	0x4240b074	48.172318
37	0x42333c92	44.80915
38	0x42268386	41.62844
39	0x420f3f00	35.811523
40	0x4226f191	41.735905
41	0x420bde1f	34.966915
42	0x424647b5	49.570026
43	0x4240a5a9	48.161777
44	0x4232a6e6	44.662987
45	0x4241a1e5	48.4081
46	0x42121314	36.51863
47	0x4239dc6c	46.465256
48	0x41fc3f6c	31.530968
49	0x4254f0cd	53.235157
50	0x422a8ce8	42.637604
51	0x41fe3696	31.776653
52	0x42014590	32.317932
53	0x42460b9c	49.511337
54	0x4232f43a	44.738503
55	0x423be588	46.97415
56	0x422eb97c	43.681137
57	0x41fb6676	31.42503
58	0x4241e4b6	48.47335
59	0x41f94ccc	31.162498
60	0x3ca85959	0.020550417
61	0x3eac0887	0.33600256
62	0x423ae681	46.7251
63	0xc20a3d77	-34.560024
64	0x422257dc	40.5858
65	0x41ca9392	25.322056
66	0x42394e3e	46.32641
67	0x424788ad	49.883472
68	0x4242159f	48.521114
69	0x42300a73	44.010204
70	0x42314574	44.317825
71	0x41e5b42a	28.71297
72	0x4246b86e	49.680107
73	0xc204225e	-33.03356
74	0x422f62d3	43.846508
75	0x4232eb63	44.72987
76	0xc1b64d3b	-22.78771
77	0x42439711	48.897526
78	0x423521a5	45.282856
79	0x4209cc59	34.44956
80	0x42298525	42.380024
81	0x4207565e	33.834343
82	0x42450a80	49.260254
83	0x4246f40a	49.73832
84	0x422d45c1	43.31812
85	0x4255c34f	53.44073
86	0x422aaad1	42.666813
87	0x425713ae	53.76922
88	0x42079b6d	33.901783
89	0x42402df5	48.04488
90	0x423ac463	46.691784
91	0x422f00fb	43.750957
92	0x4234d1b6	45.204796
93	0x422b847d	42.879383
94	0x42453e67	49.31094
95	0x4229f592	42.489815
96	0x4232e59f	44.72424
97	0x42406c40	48.105713
98	0x423ba6da	46.91294
99	0x423d6046	47.344017
100	0xc186081b	-16.753958
101	0x41e76bb6	28.927593
102	0x420c6e31	35.10761
103	0x42450838	49.258026
104	0x42470175	49.751423
105	0x423afd4c	46.74736
106	0x42446556	49.09896
107	0x422c5225	43.08022
108	0xc24cc814	-51.19539
109	0x4236bc93	45.684155
110	0xbd1cc1fe	-0.038270943
111	0x41323976	11.139029
112	0xc20ba342	-34.90943
113	0x422fff1a	43.999123
114	0x42454a8f	49.32281
115	0x42464f37	49.57736
116	0x4242167c	48.521957
117	0xc205b452	-33.426094
118	0x421ba269	38.908604
119	0x4243eea4	48.983047
120	0xc1b0cff8	-22.101547
121	0x4203d393	32.956615
122	0x423c2672	47.037544
123	0x4221c20b	40.439495
124	0x4202277a	32.53855
125	0x42476251	49.846012
126	0x41d32438	26.392685
127	0xc17b3d5f	-15.702483
128	0xc2253ef6	-41.311485
129	0xc2358fa6	-45.39028
130	0x41d5531b	26.665579
131	0x422f99ee	43.900322
132	0x42297c29	42.37125
133	0x42345246	45.080345
134	0xc1d15e39	-26.171007
135	0x423e5142	47.579353
136	0x423f38ef	47.8056
137	0x4183ca14	16.473671
138	0xc223a8c2	-40.914803
139	0x4203644d	32.84795
140	0x423d29dc	47.29088
141	0x4201c8fb	32.44627
142	0x423484c0	45.12964
143	0x3d5ed447	0.054401662
144	0x4201a750	32.41339
145	0x423f30d0	47.79767
146	0x423e8dc5	47.638447
147	0x4178088c	15.502087
148	0x422313c5	40.769306
149	0x4209d48e	34.457573
150	0x4232b6a8	44.678375
151	0x41f91e09	31.139666
152	0xc22dc046	-43.437767
153	0x4200af58	32.171234
154	0x422b9b24	42.901505
155	0xc1bea87c	-23.832268
156	0x41d352ff	26.415525
157	0xc21c7362	-39.11268
158	0xc16a61c8	-14.648872
159	0x422736e8	41.80362
160	0x424b6da8	50.857086
161	0xc1fb2cd7	-31.396894
162	0x42195192	38.32966
163	0x4248e704	50.2256
164	0xc1b6857a	-22.815174
165	0xc1f42d1c	-30.522026
166	0x421bd113	38.954174
167	0xc1d5c434	-26.720802
168	0x41ee7da9	29.811357
169	0x423b2d68	46.794342
170	0x424820a6	50.031883
171	0x408e4787	4.4462314
172	0x422439cb	41.05644
173	0x423fa05a	47.906593
174	0xc22f5ac0	-43.838623
175	0x4235632e	45.346855
176	0x423cb25a	47.17417
177	0x418e3341	17.775026
178	0xc1e7cc30	-28.9747
179	0x42174f0e	37.8272
180	0x42449297	49.143154
181	0x3fa1f754	1.2653604
182	0x421d97f7	39.398403
183	0x41e18976	28.19212
184	0x423ce9d4	47.228348
185	0x422c0e25	43.013813
186	0x422bf6ae	42.9909
187	0x42550fe8	53.265533
188	0x41ded311	27.85306
189	0x41d874a3	27.056952
190	0x42366d02	45.606453
191	0x4246220b	49.533245
192	0x423c9fee	47.15618
193	0x4233df49	44.968052
194	0x423b964f	46.896786
195	0x42428867	48.633205
196	0x422731b1	41.798527
197	0x4236c078	45.687958
198	0x4230c67d	44.193836
199	0xc1dbfe7f	-27.499266
